Project/Assets/00_AIBrains/PB02/PB02.onnx (onnx, 361536 bytes, 17 tensors)

action_model._discrete_distribution.branches.0.bias f4 [3]
00000000: f1fd 013d 999f 62bd f3a8 033d
0.031736318 -0.055327985 0.032143544

action_model._discrete_distribution.branches.0.weight f4 [3, 128]
00000000: 6433 8abc 57e9 b2bb b48e 633c 9702 d6bc
00000010: a54e edbc 2615 aab9 51af c2bc a275 133b
00000020: 5cdf a43b 6de0 cdbc 7899 1d3d b935 093c
00000030: 4dfe 5abc ccb4 a23c 52a0 133d 9ead 1fbb
00000040: 9ad7 2e3d f9e0 a8bc 5ebe e63c 50fd 65bb
00000050: 89ca b2bb f35c d8bc efd2 0d3d b7ad 32bd
00000060: a0b3 a2bb a2a2 80bc a564 6f3a 8e5c 0c3c
00000070: eba7 febb 7379 223c 837a 963c f8b4 833c
00000080: 6702 283d e2f3 533d 2231 5cbc 8fa5 b33c
00000090: aaf7 95bb 32b3 fa3c 558e 21bd 03fc eebb
000000a0: 86cf 90bb 453e de3c d2cc cfbb 935c 35bc
000000b0: 2d64 203a efe9 1abc fc72 c5b9 81c0 8dba
000000c0: edd5 8bbc 289c bebc a410 29bc 99ab 803c
000000d0: 06e3 c5bb 5d35 923d 85b5 07bd bd86 ae3b
000000e0: 3aee 183d db7a 08bc 84d5 073d 1aaa 87bd
000000f0: ac8e c23c 3793 7fbc 47f8 263b 4e45 363d
00000100: 5406 353d a439 983c 3ffc 4d3d 45e3 353c
00000110: f05e 183c b7f5 8c3c 0ba3 123d 070f 353c
00000120: c938 3d39 0ae7 543c 36b1 823c 912f 29bd
00000130: 8f8e 9fbc 4be1 a6bc f980 02bd 0d91 45bd
00000140: c4cc 2cbc 45ac 9a3b 5913 a33c 9d94 dcbc
00000150: 26ef fbbc 63da 823c 5ac4 82bc 938a e03c
00000160: 3a13 833c ae8f 02bc 6b06 193c 7cc2 093d
00000170: cbaf b5bc 1027 533c 6994 82ba 4b20 8cbc
00000180: 3d05 5d3c 0d14 833c 3526 843b dc1b fc3b
00000190: bbac 47bc b2c3 b73c c2de a53c 4abf 93bc
000001a0: a0c3 133d 4a44 e6bc 7606 4b3c f229 243d
000001b0: 646e 16bd 7158 293c 7c22 583c 378b 063a
000001c0: 5e09 25bc f1c1 80bd e481 c43c 0527 be3c
000001d0: 2bee 89bc 8738 40bd 7901 da3c 2dcc 353d
000001e0: 91fb 42bd b0f8 143d f7c8 cabc be1a bdbc
000001f0: e67a 8abb d941 c4ba 7306 99bc 8fef d5bc
00000200: d18d 8a3c d43c febb 86b3 e13b edb5 aa3c
00000210: bb45 043a d416 d73b c4f4 353d 8c95 cfbb
00000220: 824e 4bbc 9f35 013c b0ba 39bc 3e24 a23c
00000230: f3d8 a83c 7962 183d ccde 7c3b eb72 3d3c
00000240: 5dee 6ebc ee03 f43d 8091 253c 6f13 633d
00000250: 5132 953b 7eae 933d b25e 373d 90a8 c3bc
00000260: 327a da3c a876 a3bb ee8a 723d f702 903c
00000270: d981 de3b 6ecc 093d 2a1f 443c 886e 763c
00000280: 29d3 003c 1ce7 23bc 0396 7f3c 6d73 32bc
00000290: d302 273c b919 ceba a411 153c eefa da3c
000002a0: 4a2c 413c e64b cabc 3620 d3bc e0f4 063d
000002b0: 5aff 4fbc 7798 ca3c 0b8e 2c3c 9068 b63c
000002c0: 28ae ab3c d044 ee3c a495 a5bc 3f1d 5fbd
000002d0: b448 7cbc a628 61bd 617f 173d ea45 ea3b
000002e0: b528 99bc 16c9 7cbc bc01 b03d 9716 223d
000002f0: 6f3a 2ebd 60ea 1e3d ab49 243c e1d4 983c
00000300: 0a0f 393d d38c 16bd 017a 43bd 01f3 fc3c
00000310: decb d13b 5503 773c 022b 73bc 8649 6abc
00000320: eefc 0bbc 7cbb e03c 6891 88bc d207 863d
00000330: b765 033d 37b0 ffbc 47ed 943b 727e 2b3d
00000340: cdb5 b63c 00b8 273c 18de 813c abc9 213c
00000350: 124f 2a3d 3acf b7bb ed70 e8ba 84c3 91bb
00000360: 0f41 633d 405d 263c bd29 1ebb 03da e23b
00000370: 0e3b 2b3c 7efd f8bc 9619 473d 29d9 583d
00000380: 9a13 0ebb 0d1a d9bc d71f bc3c 70cc 8e3c
00000390: 26a4 873c 1c9a 3b3d b2ef 643d c171 0b3d
000003a0: db31 bc3b 8fef f9bc c78a 963c a7e0 af3a
000003b0: d1ea e9bc 0720 8c3c bae8 81bd f0b9 0bbc
000003c0: 7cef 9d3c 67f1 ab3d 89e7 343d c68b 04bc
000003d0: 912a cf3c 7b31 323d 558c 2bbc 59bb 48bd
000003e0: a7ba 283d c2b0 9f3c 4082 b9bc 7710 103d
000003f0: 45f3 263d afd1 233d b4fc c83c 8951 083d
-0.016870208 -0.005459945 0.013889004 -0.026124282 -0.028968165 -0.00032440684 -0.023765238 0.0022500535
0.0050315093 -0.025131429 0.038476437 0.008374625 -0.013366294 0.019861601 0.036041565 -0.0024364959
0.042686082 -0.020615088 0.028166946 -0.0035093613 -0.005456273 -0.02641151 0.03462499 -0.0436227
-0.0049652606 -0.01570255 0.00091321237 0.008566989 -0.007771482 0.009916651 0.018368965 0.016077504
0.041017916 0.051746257 -0.013439449 0.02192953 -0.004576643 0.030603025 -0.03944238 -0.0072932257
-0.00441927 0.027129302 -0.006341555 -0.011069435 0.0006118443 -0.009455188 -0.00037660438 -0.0010814817
-0.017069781 -0.02326782 -0.010318909 0.015706824 -0.006039026 0.071390845 -0.033132095 0.0053261206
0.037336566 -0.008330072 0.03316261 -0.06624241 0.023749672 -0.015599064 0.0025477575 0.044499688
0.044195488 0.018582173 0.05028939 0.011101549 0.009299979 0.01720701 0.03580002 0.011050946
0.00018045599 0.012994537 0.015953641 -0.04130513 -0.019477157 -0.0203711 -0.03186128 -0.048234034
-0.010546867 0.004720243 0.019906687 -0.026926333 -0.030753683 0.015973276 -0.015962768 0.027409827
0.016000379 -0.007968826 0.009339909 0.03363274 -0.022178551 0.012887731 -0.0009962443 -0.017105242
0.013490018 0.016000772 0.004032875 0.007693751 -0.012187178 0.022432182 0.02024782 -0.01803555
0.036075234 -0.028108735 0.012391677 0.040079065 -0.03672637 0.0103360275 0.0131918155 0.0005132439
-0.010073034 -0.062869914 0.023987718 0.023211965 -0.0168372 -0.04692891 0.02661203 0.04438417
-0.047603194 0.03636998 -0.02475403 -0.02308404 -0.0042260764 -0.0014973237 -0.018679833 -0.026115207
0.016913326 -0.007758716 0.006887856 0.020838702 0.0005045791 0.0065640006 0.04442288 -0.006334966
-0.012408854 0.007886319 -0.011336014 0.019792672 0.020611262 0.037203286 0.0038584946 0.011563043
-0.014583197 0.11914812 0.010105491 0.055438455 0.0045531173 0.07211016 0.044768043 -0.023884088
0.026669595 -0.00498851 0.059214525 0.017579539 0.0067903814 0.033642225 0.011970321 0.015041001
0.0078628445 -0.010003831 0.01559973 -0.010891777 0.010193544 -0.0015724219 0.009098444 0.02673098
0.0117903445 -0.024694394 -0.025772195 0.032948375 -0.012695158 0.024730904 0.010531913 0.022266656
0.020957068 0.029085547 -0.020212956 -0.05447125 -0.015398193 -0.054970406 0.036986712 0.0071494477
-0.018696168 -0.015428802 0.08594081 0.039572325 -0.042536195 0.038797736 0.010027329 0.018656196
0.045180358 -0.036755394 -0.047723774 0.030877592 0.0064024767 0.015076478 -0.014841797 -0.014299756
-0.00854419 0.02743315 -0.016670898 0.0654446 0.032079425 -0.031211955 0.004544887 0.041868635
0.022303486 0.01023674 0.015852973 0.009874742 0.041579314 -0.00560942 -0.001773385 -0.004448356
0.055481967 0.0101540685 -0.0024133765 0.0069229617 0.010451091 -0.030394312 0.048608385 0.052941475
-0.0021679164 -0.02650168 0.022964401 0.017431468 0.016557764 0.045801267 0.055892654 0.03404403
0.005743248 -0.030509738 0.018376721 0.0013418392 -0.028554352 0.017105116 -0.06343217 -0.008528218
0.019279234 0.08395653 0.04416612 -0.008089965 0.025288852 0.04350422 -0.0104704695 -0.049006794
0.04119363 0.019493464 -0.022645116 0.035171952 0.040759344 0.03999489 0.02453456 0.033280883

action_model._discrete_distribution.branches.1.bias f4 [3]
00000000: b39f bbbc b10e fa3b ad5d 953c
-0.022903299 0.007631146 0.018233145

action_model._discrete_distribution.branches.1.weight f4 [3, 128]
00000000: 62b6 203d 568b 23b9 9065 aa3c ed70 a33c
00000010: 88bf 19bd 624b 223d b47f c43b 7668 a639
00000020: ff8f bebc 5d49 393d d625 8d3b 2f79 3f3c
00000030: e672 bd3c c9ea 20bd 65a5 8ebc e384 153c
00000040: 87e5 89bc ceba 1d3d 2859 eb3a 8d9d 21bc
00000050: c418 f33c 4ad8 0abd c6ae d9bc e2fa 813c
00000060: 6a20 da3b d769 11bd 6016 8c3c 09f6 403d
00000070: 8f55 853d aca4 0bbd 69b1 553d 4e78 1a3d
00000080: 6415 8ebc b8bd 2e3c d8cb 143d 20b7 b5bb
00000090: 1d55 463c 36eb 28bc 1116 72bc 80af d73c
000000a0: d566 83bb 0c8d 8e3d 2180 9cbd 9f56 673b
000000b0: b715 00bd fff3 013d a583 183c b298 d8bb
000000c0: 7819 3f3c 5d47 2f3d bc3c 6cbb 9e75 d53c
000000d0: d632 d0ba 0822 433b 4b16 b23c a3ae ccbc
000000e0: 7d16 5dbc 70c1 9abb 58f9 463d 3242 e53a
000000f0: c603 cb3a 67b4 15bc f562 9d3b 4f12 a8bc
00000100: 05e6 92bc af4c 733c 1206 9dbb 3e70 48bc
00000110: cf53 0bbc 7de7 debc c487 cebb 341a 2d3c
00000120: c544 0b3c 4490 8cbc 8437 a43b 49d0 17bd
00000130: 74af b2bc 2b59 f43b 45ec 243d 2289 ad39
00000140: 065b 033d d04a 3abc f630 953c b1f9 85bc
00000150: 913a f4bb 6898 143c 4b6a e53c e3d4 ed3b
00000160: 80f6 8eba 383b 2a3d f3d9 283c 7e53 b73c
00000170: 190b b13c 8a31 903c 4f07 3cbc a7cf 103d
00000180: 496c 2d3c c18d c03c d5c1 a7bb e043 6dbc
00000190: 1d0d 883c 1e55 e83c 420a 823d c5f1 40bb
000001a0: c98b 493d d561 863c 570b 58bd 0833 02bc
000001b0: b559 4abb bcaf 82bc 5fe1 a53c 6ae0 cf3c
000001c0: 5336 173c 60a2 fb3a 9a37 ccbc c01d 38bb
000001d0: 523e d7bc fa3e a7bc 6d82 af3a 366a 163d
000001e0: 54ee 113c 30cd 2c3b 57a1 0abd 4fd0 22bc
000001f0: 5ffe 013d a23e 2b3b 4588 c23c 225d fa3c
00000200: 3006 88bd a7a1 ea3b 1553 11bc 125c b83c
00000210: bd59 d83c 0620 0dba 1975 923b 4d34 8ebc
00000220: c5c5 eabc 06d6 1d39 61c3 ad3b 4a2c 60bd
00000230: abe9 c7bc 67f5 3f3c a0b2 253d fbb8 9c3c
00000240: c6c0 993c 248f bbbb 0b99 a73b 11e4 0ebd
00000250: b351 98bc 1647 0a3c 88ef d23c a6fb 603d
00000260: a7b2 163d c805 913c 2a2b 583c 4ee8 12bd
00000270: cfd4 93bb 7c2e 2ebc 68cc 0cbd 666d 95bd
00000280: 54fe fa3c d644 04bb 7b7d 16bc ee2e 973b
00000290: 5ecf 3f3b 578a 913c d855 3e3d 195c 7abd
000002a0: bc9d bebb 239e edbc bb90 e73c efb9 8fba
000002b0: fb49 e73c a721 d9bc 0186 c4bc 4076 d23c
000002c0: e9f7 943a e7d5 1dbd a9af b3bc fe1e 843c
000002d0: 849e 6f3a e492 b73b b16e 4d3d ab65 da3c
000002e0: 9585 5f3c c869 17bc 9c36 103c 4e26 693c
000002f0: bb10 84bc dd1d 553c dfae a53c a6c9 c83c
00000300: d1ab e03c 96b2 9f3b 51a9 e8bb 3c62 0a3d
00000310: d1f1 ae3c 5885 993c 2618 9cbc a140 b9bb
00000320: 785a 06bc ce01 85bb 9bdb 28bd 00de e73c
00000330: dd33 8e3c 85de e8bc 59a0 c2bc bb87 88bc
00000340: a646 54bc 47c5 093b 050c 2b3c 672f 563c
00000350: 8930 5a3c 17dd 2a3c 4cfb 043d bbc7 123b
00000360: 49aa 6e3d d5c0 e83c a463 10bc d2f7 803b
00000370: 9f2a 47bb e761 953c 2762 923a a75a 203c
00000380: 6f8e a9bc 015b cc3b b7e6 acbb d8bd 003d
00000390: 6a52 2ebc 9cc4 3c3d f59a 75bd ab29 1a3d
000003a0: d29b 43bd 1dfe 8cbb 8d89 203d f997 eb3c
000003b0: aff8 a0bc 91d3 883b bd65 07bb 565f 183c
000003c0: 807a 15bd 15da 8d3c 785b 133d 644b d63b
000003d0: 436c 0e3d c9c8 283d deb5 d73c 5c93 bcbc
000003e0: 8e8e a13c 2bfd 5ebd 58d4 113d cee0 343d
000003f0: f536 e1bb c92c 533c 7a75 97bc 9fcf 393c
0.039236434 -0.00015596798 0.020800382 0.019951308 -0.037536174 0.039622672 0.0059966687 0.00031739817
-0.023262022 0.04523598 0.004307489 0.011686607 0.023126077 -0.03928641 -0.01741285 0.009125921
-0.01683308 0.03850823 0.0017955648 -0.009864223 0.029674895 -0.033897676 -0.026572596 0.0158667
0.006656696 -0.035501327 0.017100513 0.047109637 0.0651046 -0.03409259 0.052171145 0.037712388
-0.017344184 0.01066535 0.036327213 -0.005545512 0.0121052535 -0.010309985 -0.014775769 0.026328802
-0.0040100613 0.06960496 -0.07641626 0.0035299433 -0.03127071 0.031726833 0.00930873 -0.0066099996
0.011663787 0.042792667 -0.0036046943 0.02605706 -0.0015884291 0.0029774923 0.021739146 -0.024985617
-0.013494131 -0.0047227666 0.048577636 0.0017491041 0.0015488795 -0.00913725 0.0048030564 -0.020516543
-0.017931947 0.014849826 -0.0047919834 -0.012233792 -0.008503868 -0.027209992 -0.0063028056 0.010565329
0.008500283 -0.017158635 0.005011501 -0.03706387 -0.021812178 0.0074569187 0.040264387 0.00033099303
0.03206923 -0.011370376 0.018211823 -0.016354414 -0.0074532707 0.00906954 0.028004786 0.007258044
-0.0010907203 0.04156038 0.010305869 0.02237868 0.021611737 0.017601747 -0.011476352 0.035354283
0.010584899 0.023505094 -0.005119542 -0.014481515 0.016607815 0.0283609 0.06349613 -0.002944098
0.049205575 0.016404072 -0.05274519 -0.007946737 -0.0030876223 -0.015952937 0.020249067 0.025375564
0.0092292605 0.0019198172 -0.024928857 -0.0028093904 -0.026274834 -0.020415772 0.001339031 0.036722384
0.0089069195 0.0026367418 -0.033845272 -0.00993736 0.031736728 0.0026129861 0.023746619 0.030561987
-0.06641805 0.0071603837 -0.008869906 0.02250484 0.026409978 -0.0005383495 0.0044695255 -0.017358923
-0.028658757 0.00015052417 0.005302832 -0.054729737 -0.024403414 0.011716223 0.040453553 0.019131174
0.01876868 -0.005723851 0.0051146797 -0.03488547 -0.018593645 0.0084398 0.025748983 0.05492749
0.03679147 0.017702952 0.013193885 -0.035866074 -0.0045114527 -0.0106312 -0.034374624 -0.07296257
0.030638851 -0.002018263 -0.00918519 0.0046137488 0.0029267888 0.01776616 0.046468586 -0.061122987
-0.0058171432 -0.02900607 0.028267255 -0.0010965447 0.028233519 -0.026505305 -0.02398968 0.025691152
0.0011365387 -0.03853407 -0.021934347 0.01612806 0.0009140747 0.0056022275 0.05015439 0.026659807
0.013642688 -0.009241529 0.008802082 0.014230324 -0.016121259 0.013007608 0.020224987 0.024510216
0.027425678 0.004873584 -0.007100262 0.03378509 0.021355541 0.018740341 -0.019054484 -0.0056534563
-0.00820028 -0.004059053 -0.041225057 0.0283041 0.017358715 -0.028426418 -0.0237581 -0.016666284
-0.012956297 0.0021022127 0.010439877 0.013072825 0.013317236 0.0104286885 0.032466218 0.002239688
0.058267865 0.028412262 -0.008812819 0.0039357925 -0.0030390394 0.01823516 0.0011168168 0.009787238
-0.0206978 0.0062364344 -0.005276527 0.03143105 -0.010639766 0.04608594 -0.05996223 0.037637394
-0.047756024 -0.0043027536 0.03919368 0.02875899 -0.019649832 0.0041756113 -0.0020660006 0.009300074
-0.03649378 0.017315904 0.035975903 0.006539749 0.034771215 0.04120711 0.026331838 -0.023019485
0.019721296 -0.05444066 0.035602897 0.044159703 -0.0068730065 0.012889096 -0.018488634 0.011341005

action_model._discrete_distribution.branches.2.bias f4 [2]
00000000: db6a 99bb ec6a 993b
-0.0046819276 0.0046819355

action_model._discrete_distribution.branches.2.weight f4 [2, 128]
00000000: 5753 cd3b 739f 05bd e9be 903c c1de 063c
00000010: 41e7 1fbd 3d56 a3bb 22e9 dfbc b040 06bc
00000020: d517 393b 6444 0e3d 9496 6e3a 37c3 4dbc
00000030: 9d79 34bd e664 5c3c d8c1 bdbc b1eb 083c
00000040: 32ec 823c f270 93bd ebee 3f3c 8d64 21bd
00000050: 9f84 c43c 5f9a 5fbc eaf6 ef3c 8e3b d8bc
00000060: 899d 28bd 8d50 1e3d a3e1 28bd bbdd 203c
00000070: cdf0 eebc 6566 b73c 60c6 10bc f561 85bb
00000080: 67dd 693d 67f3 2ebc 51e2 3bbc b79e a939
00000090: dbe5 f4bc 19d6 603d ea67 b4bc 51cd a93c
000000a0: 0eb4 ff3c 7eb5 243d e31e 343d e193 a6bc
000000b0: 0855 31bb 8922 9d3c 48e1 ce3a 2f89 e93b
000000c0: 6bfd 433c b6e9 2d3d 6b46 d8bc ca61 1dbc
000000d0: a56d 953c aca6 f43c 367f 423a 6aa0 b7ba
000000e0: 266f b33c 496b 283c a0bb 39bc 6b99 2c3a
000000f0: bff1 0f3c ff4c 5cbc 60de 243b 4f5f b13d
00000100: 0985 1d3d 0c5e 49bd 2a68 163c dd81 a53b
00000110: d697 51bc b192 81bc c784 f43c 2031 90bc
00000120: 3a04 89bc 3c2d b5bb db27 37bc e3fa 133c
00000130: 5ab6 1abd 75d0 a8bc b631 29bd 1df8 073c
00000140: 8173 453d 47d2 d63c 3c3b aabc 992c 8bbd
00000150: e79b b43c 32e1 093c 8483 31bd ea34 ee3b
00000160: c4a7 523c 18d6 7ebb 800f f6bc 70a3 ce3b
00000170: 83cd 8dbc 76d0 403a a6b4 b8bc eb6c 843c
00000180: be60 d13c 21b0 61bc 670a ca3b c3a0 f83c
00000190: 63b1 0abb 3344 63bc 5d6e 303c fc6f b1bc
000001a0: 5a43 52bd 2138 0cbd 0a3b 01bc 0503 743c
000001b0: 164f 79bc 78a1 6639 6812 223c 99d0 74bc
000001c0: c4be 93bc 5381 fe39 ac4c 923c f63e aa3c
000001d0: 5a2d b23a 3a9e a23c d78b 0bbd a5da 013c
000001e0: 02dd 6c3c 0002 e4bc da90 12bc 1d65 413d
000001f0: 08cb a4bc 2c1b d63b e584 05bd d99e 063c
00000200: 1a3d 11bc bbfd 373d 10a5 84bc edf1 4abb
00000210: fec5 593d 6776 2c3c 620b de3c 756c ba3c
00000220: f5fb cbbb fd22 24bd 6999 eebb 6573 443c
00000230: 186d db3c c279 213c e61c 933a 2dc7 0f3c
00000240: 82e0 b4bc 0fa2 8c3d 41d1 90bc da27 b03c
00000250: 9e02 96bc 0533 283c 2c9c 5bbd f6b4 e53c
00000260: 66f2 023d 34e6 62bd b07c 153d 6461 18bc
00000270: 2ae1 603d 13de 87bc c214 843c 33f4 233c
00000280: 9543 88bd e8f5 ac3a d435 203d 1b59 babc
00000290: 91a8 833c ef6e 0bbd c42a a73c 8eea 9dbc
000002a0: 4a18 28bd 5d33 26bd 9678 51bd d951 973c
000002b0: d0eb 85bb e94c 813b e664 823a bd1c 563c
000002c0: 8059 303c 8932 17bd 543f 123d 8a9e 89bc
000002d0: 055d dfbb 0ee9 30bd c4cc 7fbb 3e62 4737
000002e0: 5b25 eebc e6b0 d1bc 0785 193c 140b 0dbc
000002f0: 54a6 ddbc acb0 ad3c 53ad 093d 5fec 6bbd
00000300: 137a 9bbc 52ae 503d 8ef1 f1bc 6312 5fbc
00000310: 4c1b bbba 9140 cd3c 54ec c4bc fb9d 803c
00000320: 3c2a 603c dc9a 3a3c 6707 123c fd68 1bbd
00000330: ae2b 653d c1ec c83c 58ac 1b3d 5a66 87bc
00000340: 76fd 2bbd 5074 94bc 7745 093d 3f14 403d
00000350: 42fc 25bc 3e1d 08bb 9de4 463d cad1 263b
00000360: 8fc5 f6bc 625f 0ebc 316c 5b3c 6fee 203b
00000370: 06d0 f83c 056d f83a 1f0f b53c 396d 54bc
00000380: 88bc e9bc f48a 033c 1b13 3d3b 60da 7fbb
00000390: 7558 d0bc 32b0 ba3b 9214 53bc 4d54 ec3c
000003a0: 122f 843d 0ffb 163d 8bea c33b a784 143b
000003b0: 099d 9b3c 9d2c 0a3b 32cc 293b 53dc bb3b
000003c0: 644b 2e3c 0ef7 773b 88c2 debc 8cad 33bb
000003d0: 5cce 8c3c ad48 12bd 771e 483d 45de a2bb
000003e0: 6ed7 93bc 8989 063d 57f3 27bb 9a04 4bbd
000003f0: c124 8d3c accc a33c 355f 1d3d f522 49bc
0.0062660384 -0.032622766 0.017669158 0.00823182 -0.0390389 -0.0049846456 -0.027332846 -0.008194134
0.0028242965 0.03473319 0.00091014174 -0.01255875 -0.044061292 0.01345179 -0.023163721 0.008356974
0.015981767 -0.07199277 0.011714677 -0.039402533 0.02398902 -0.013647645 0.029292542 -0.026395585
-0.041165862 0.038651038 -0.04123081 0.00981849 -0.029167557 0.022387693 -0.008836359 -0.0040705153
0.05709591 -0.010678149 -0.011467532 0.00032352444 -0.02989476 0.05489168 -0.022022206 0.020727785
0.031213786 0.040212147 0.04397477 -0.020334186 -0.002705874 0.019181507 0.0015783692 0.0071269493
0.011962275 0.042459212 -0.026400765 -0.009605834 0.01824076 0.029864632 0.00074194686 -0.0014009599
0.021903586 0.010279485 -0.011336237 0.00065841404 0.008785664 -0.013446092 0.002515696 0.08660757
0.03845695 -0.049161956 0.009180108 0.0050508813 -0.012792548 -0.015817018 0.02984847 -0.01760155
-0.016725648 -0.005529074 -0.011178936 0.009031984 -0.03777156 -0.020607213 -0.041307174 0.008298901
0.048205856 0.026223315 -0.020780198 -0.06795616 0.022046996 0.008415507 -0.043338314 0.0072694914
0.012857381 -0.0038884934 -0.030036688 0.0063061044 -0.01730991 0.0007355282 -0.022547077 0.016165217
0.025558826 -0.013774903 0.006165791 0.030350095 -0.002116286 -0.01387124 0.0107685 -0.021659844
-0.051333763 -0.034233216 -0.007887611 0.014893298 -0.015216609 0.00021994661 0.009892084 -0.014942312
-0.0180353 0.0004854301 0.017858826 0.020781975 0.0013593838 0.019850839 -0.03406891 0.007925664
0.014456989 -0.027832985 -0.008945668 0.04721557 -0.020116344 0.006534001 -0.03259744 0.008216583
-0.008864665 0.04491971 -0.01619199 -0.0030966953 0.053167336 0.010526276 0.027105037 0.022756794
-0.006225104 -0.04007243 -0.0072814715 0.011990403 0.026785418 0.0098556895 0.0011223822 0.008775515
-0.02207971 0.06866848 -0.017677905 0.021503378 -0.018311795 0.01026607 -0.053615734 0.02804039
0.03196945 -0.05539532 0.036495864 -0.0093005635 0.054902233 -0.016585385 0.01612318 0.010006952
-0.06653515 0.0013195844 0.039113835 -0.022747567 0.01607159 -0.03404134 0.020406134 -0.019276883
-0.04103879 -0.040576328 -0.05114039 0.018471645 -0.004086949 0.003945936 0.0009948283 0.013068375
0.010763526 -0.03691343 0.035704926 -0.01679923 -0.0068165087 -0.04319101 -0.0039031962 1.1884198e-05
-0.029070547 -0.025597047 0.009370095 -0.008608598 -0.02705685 0.021202408 0.03361256 -0.057598468
-0.018979108 0.050947495 -0.029534128 -0.013615224 -0.0014275103 0.025055202 -0.024038471 0.015700331
0.013681944 0.01138946 0.008912898 -0.03794192 0.05594986 0.024526956 0.038006157 -0.016528297
-0.041989766 -0.018121868 0.033513512 0.04689431 -0.010130944 -0.0020769383 0.048557866 0.0025454634
-0.0301235 -0.008689733 0.013392494 0.002455618 0.03037263 0.0018953389 0.022101937 -0.012965494
-0.028532282 0.0080287345 0.00288505 -0.0039040074 -0.025432805 0.0056972736 -0.012883322 0.028848791
0.064542904 0.036860522 0.0059788874 0.0022662075 0.018995779 0.002108372 0.0025909063 0.005733052
0.010638092 0.0037836465 -0.02719237 -0.0027416674 0.017188244 -0.03571384 0.04885718 -0.0049703442
-0.01804706 0.032846007 -0.002562722 -0.049564935 0.01722944 0.019995056 0.038420875 -0.012276401

action_model._discrete_distribution.branches.3.bias f4 [2]
00000000: 12e7 02bd 0ce7 023d
-0.031958647 0.031958625

action_model._discrete_distribution.branches.3.weight f4 [2, 128]
00000000: 7f9f 473c 5825 76bc 7059 56bc a3a4 6b3d
00000010: c764 ad3c 0422 1dbd f64f 2e3d d5cd 03bc
00000020: 4614 75bd 6504 163d f005 b13b 352b b2bc
00000030: 9166 26bb 4975 15bc 6542 c13b 68ad e23c
00000040: 0743 97b9 fffc 8d3b 42e7 9a3c c4ec 40bb
00000050: 1206 0dbc 8e8c 4a3c 0ada f13c 1839 2a3c
00000060: e15a afbb 2326 a13d daf8 463b e0f7 d83b
00000070: a2d4 74bd 54f5 cfba 94be 0abd d8a7 e3bc
00000080: c1e4 cd3c d402 003c 701d e63b 27ab 663d
00000090: 9179 443b 333e d2bc 7c43 8b3b adc0 553b
000000a0: d007 1a3d 4d5d 5bbc 598c bb3c 82ec 953c
000000b0: 3349 b1bc 3241 1d3d 6c60 57bb 8158 83bb
000000c0: bb21 8cbc 71c7 44bd 8cbd 623c 5f28 233c
000000d0: e2b7 14bd ba4c 00b8 0f05 0d3d 4201 c23b
000000e0: 61aa 0abc a72f 6dbc 729e 453b 4590 083d
000000f0: a87e ca3b a270 863c d87a 083c 1c71 0cbd
00000100: 5a9c 24bb f7eb d13b 4db6 29bd 1739 a0bc
00000110: a35f 5f3c 46ad 3f3d 25bf 2e3d 9833 1d37
00000120: 348f fe3c 2077 613c de97 d9ba e9f4 d83b
00000130: a324 803b b35c 85bb 01b6 0fbd 02ce 29bb
00000140: cfb6 e1bc 365b 6f3c ef81 0cbd 01a9 753c
00000150: d155 483d 54fb 993c 07d8 0b3c 98fd fe3c
00000160: 222b e8bb 6bae e6bc 50f8 09bd 4424 aebc
00000170: 27a6 2b3b dab4 61bc 435b 42bb a15d e93c
00000180: 8e91 03bc f5df 2fba 9b27 22bd 9b3f 03bc
00000190: c314 80bd 4f02 d8bc 9ac4 203d ee9e ff3c
000001a0: fd9f 3e3d 63a4 c53a 1e79 4f3d 3d6f 5dbc
000001b0: 312a c1bb f361 763c b541 683c 1fba b53b
000001c0: e1e1 a0bc b41e 06bd 1735 223d a81e b0ba
000001d0: 0b46 9dbb 3a3a f9bc 602c 84ba 251e debc
000001e0: 023b 2dbc 0bf3 4b3d f10f 713c 123b 04bc
000001f0: 7892 5c3d e327 0a3d e2dd 4cbc a4e3 cdbc
00000200: cc00 07bc 02e6 253c 68a9 673c 3f68 30bd
00000210: c1c0 d6bc da02 563d 3d33 fbbc bbdf b5bb
00000220: cbdd 163d 5cfe febc e3e9 9ebc 3cf7 bf3c
00000230: f9d8 6f3c 4338 bbbb b8c7 b73c 2ee0 eebc
00000240: 294b 8f3c d31a a0bc 6456 fd3b 9532 673c
00000250: 629e 823c 6cac 0fbd 8675 f0bc fc85 563b
00000260: 916b a6bb 2676 a3bd bb0e 7ebc 8657 683c
00000270: 3b1c 5c3d d366 b43b 2ff2 cf3b 8e90 ab3b
00000280: 20c5 a9bc f280 32bc 0c0f 84bc bec9 50bd
00000290: 9583 853b b4ec 6bba daa2 3fbc 61fe 24bc
000002a0: 26fb f8bc 3180 b53c 0eea 63bc 3f51 0fbc
000002b0: bfcd 9e3c 1a1d 3dbd ea4d f4bb de0a 493c
000002c0: f70a 913b 39a2 7d3d 1b8a e5bb bcff 70bb
000002d0: 100e 063d f264 0dbc d52b fdbc 7a9e 00bc
000002e0: 6317 323c c95f 063c 3b77 46bc 0d87 0bbd
000002f0: 04c3 933b 7bd2 b73a c501 bfbb 8910 073d
00000300: a629 0abc f98e cc38 fdde 313d fe4b c53c
00000310: 30c8 ccbc 786b 1cbd a96f 61bc 7937 f83b
00000320: 0750 b7bc 234b ec3b a1df 663a 8fd6 90bb
00000330: d19a 813c c424 4a3b daff 0b3d ae17 07bc
00000340: 2d10 0b3c a249 5fbb 1a5d 543c 55ee 37ba
00000350: 3ffe 2cbd 491c c23b 2de4 523b 7331 ddbc
00000360: 8312 8b3b d4da b23c daf3 343d 60c1 3c3c
00000370: 8657 bc3c a104 0c3d 0e43 86bc a574 edbc
00000380: f1ba 043b 4883 da3b eb73 1b3d 437a 9e3c
00000390: b58c 8c3d acf9 be3c c268 0dbd 0519 dfbc
000003a0: b5d7 45bd dbb9 673b 19d9 50bd e3fa 743c
000003b0: 9e9d e93b 0ff8 89bc ad8b 5dbb f78c 96bc
000003c0: 4c29 ac3c 3dca 253d 576f fcbc 15fb 733c
000003d0: fdf4 913c 89df 1a3d 0cd1 57b9 28e5 ee3c
000003e0: c2ab 5d3b 6b3d 68bd 7158 5cbc ee64 a5b9
000003f0: 6b4d 4cbd 360d 83bc 517d 1cbc 2470 d53c
0.012184023 -0.015023552 -0.013082847 0.057530057 0.021166218 -0.038362518 0.042556725 -0.00804468
-0.059833787 0.036625285 0.005402319 -0.021749118 -0.0025390724 -0.009122201 0.0058978074 0.027670577
-0.00028850904 0.004333138 0.0189091 -0.0029437998 -0.008607404 0.012362612 0.029522914 0.010389589
-0.00535141 0.07868602 0.003036073 0.006621346 -0.059773095 -0.001586596 -0.033873156 -0.027789995
0.025133492 0.007813174 0.007022552 0.056315567 0.0029979686 -0.025664425 0.004249988 0.0032616064
0.037605107 -0.013388944 0.022894071 0.018301252 -0.02164135 0.038392253 -0.0032863868 -0.004008353
-0.017105928 -0.048041765 0.013839137 0.009958356 -0.036308177 -3.0589035e-05 0.034428652 0.00592056
-0.008463473 -0.014476693 0.0030154255 0.03334071 0.0061796494 0.01641113 0.0083300695 -0.034287557
-0.0025117607 0.006406303 -0.04143362 -0.019558473 0.013633641 0.046796106 0.04266276 9.369942e-06
0.031074144 0.013761312 -0.0016601046 0.0066209924 0.0039106174 -0.0040698885 -0.03508568 -0.0025910144
-0.02755299 0.014609149 -0.0343036 0.014993907 0.048909966 0.0187966 0.008535392 0.031126782
-0.00708522 -0.02815934 -0.033684075 -0.021257527 0.0026191564 -0.0137760285 -0.0029656447 0.028487029
-0.008030308 -0.00067090924 -0.039588552 -0.00801077 -0.0625396 -0.026368288 0.039249994 0.031203713
0.046539295 0.0015078898 0.050652616 -0.013515291 -0.005894922 0.015038001 0.014175822 0.005545869
-0.019638957 -0.032744125 0.03960141 -0.0013436871 -0.0047996095 -0.030423272 -0.0010084026 -0.027113983
-0.010573151 0.04979233 0.014713273 -0.008070724 0.05385062 0.033729445 -0.012504073 -0.025132962
-0.008239936 0.010125639 0.014139511 -0.043068167 -0.02621496 0.052248813 -0.03066408 -0.0055503524
0.036832612 -0.031127147 -0.019398635 0.02343332 0.014639133 -0.005713494 0.0224341 -0.029159632
0.017491894 -0.01954404 0.007731246 0.014111181 0.015944663 -0.035076544 -0.029352915 0.003273367
-0.005078741 -0.079815194 -0.015506442 0.014181023 0.05373786 0.0055054217 0.006346009 0.005235738
-0.02072388 -0.010895001 -0.016120456 -0.050973646 0.0040745237 -0.000899981 -0.011696542 -0.010070414
-0.030393194 0.022155853 -0.013910783 -0.008747398 0.019385217 -0.04617033 -0.007455577 0.012270657
0.004426356 0.061922286 -0.007004989 -0.0036773523 0.032728255 -0.008630024 -0.03090469 -0.007850284
0.010869834 0.008201548 -0.012113388 -0.03406434 0.0045093317 0.001402452 -0.0058290684 0.032974754
-0.008432781 9.754109e-05 0.04342555 0.024084087 -0.0249978 -0.038188428 -0.013759532 0.007574972
-0.022377027 0.0072111054 0.0008807127 -0.0044201086 0.015820893 0.0030844668 0.034179546 -0.008245392
0.008487743 -0.0034070988 0.01296165 -0.000701641 -0.042234655 0.005923782 0.003217946 -0.027001118
0.00424415 0.021832861 0.044177867 0.011520714 0.022990953 0.034184102 -0.016389396 -0.028986285
0.0020253027 0.006668482 0.037952345 0.019345408 0.06862775 0.023312412 -0.034523733 -0.02723361
-0.048301417 0.0035358581 -0.05098829 0.014952394 0.007129385 -0.016841916 -0.0033805177 -0.018377764
0.021015786 0.040476073 -0.03081481 0.014891406 0.017817015 0.037810836 -0.00020581874 0.029162005
0.00338243 -0.056699198 -0.01344882 -0.0003154645 -0.04987852 -0.01599751 -0.009551362 0.02605445

action_model._discrete_distribution.branches.4.bias f4 [2]
00000000: b220 b3bc ae20 b33c
-0.021866176 0.021866169

action_model._discrete_distribution.branches.4.weight f4 [2, 128]
00000000: c8eb 9fbb 3ac5 d3bc ba50 72bc a55c f73c
00000010: 4055 093d 3ded 91bc 0ac3 4b3c eb6c ae3c
00000020: f682 f2bc 2e2a 0abc 5bd6 d13c 6d81 693c
00000030: ab68 2a3d ada3 2fbb c58d b5bc f352 ea3c
00000040: dbf3 fc3b 7c0c 6abc a84c 27bb a537 df3c
00000050: 1bf5 6fbd 5946 51bc 8917 48bd 3618 5d3b
00000060: 0b90 b8bb 0fb5 a1bc 212e ba3c 5722 8cbd
00000070: 5b9a 573c 6687 92bb 2155 303d e2bd b73c
00000080: d0f1 76bc 5b89 1f3d b7b3 c7bb 59f7 e8bc
00000090: b418 813b edff 28bc 4176 0c3a ba0c a3bc
000000a0: 7ab0 413c 2124 903c fd76 e93b c08a 08bd
000000b0: 8492 5dbb ad83 65ba a07e a7bc 1b6b 2e3a
000000c0: 5081 f9bc 9c06 683c b8d5 0cbc bedf f33a
000000d0: d313 493b d4b7 2f3c bb09 2e3b 6db3 b83c
000000e0: 967e 88bc e605 c9bc 9364 5abd 9d4d 503c
000000f0: 3a7e 803c 2d0d f1bc 15ac 4cbc 9008 c9bb
00000100: 28d3 bc3c 5afd eb3c e8fe 8abc 9f0a 763c
00000110: cc1b d8bc 7a30 a63c bcd3 b9bb 5967 f8bc
00000120: 35e2 6e3d 9ec7 01bb 8717 3839 6ef0 493d
00000130: ca17 16bb 49b0 f4bb 6383 7a3c 45b2 09ba
00000140: c474 c03b c5f4 f1bc 4194 873b 5e5c 6bb8
00000150: 2a78 273b 4ee5 13bc 85e7 fe3b 6b7a 8fbc
00000160: 5c1f d2bb aa11 98bb dbb5 4d3d f5f8 1f3d
00000170: 8dbe 203d 6997 9ebc 7e6e 3abc 8828 b3bc
00000180: 5ddd 8c3c 9bfb 283c 04ff 9e3c 6d8d 873c
00000190: 5d1b 37bd 6699 073d dae2 e5bc ba69 783d
000001a0: 0ad2 523c 6e8e 893b f6a9 a7bc a673 293d
000001b0: 0201 8a3c 07f8 60bc ecf8 57bc 8ee5 503d
000001c0: c527 bcbc cf13 e13c fd97 e03c 37bd 13bc
000001d0: 6b1a d83b 4c94 c0bc b243 9cbc 5543 aebc
000001e0: cf17 f43c 714f bc3b e7e2 513d a9ac babb
000001f0: 771a a33c c3ae f0bc 9b0d 78bd 8a61 f53c
00000200: 3d48 05bb 3310 cc3c 5e47 ab3c 1243 41bd
00000210: 1b00 edbc a96c 723c 6c88 56bc 4be8 e2bc
00000220: 2862 c83c 2d82 f33b 4992 03bd b4ab c9bb
00000230: a6b7 23bd 4358 e23c 0072 aa3c 54b1 fdbb
00000240: 3697 8dbc 611a be3c c9c6 433c bb0a 1abc
00000250: 0b43 533d 0516 d0ba 4870 343d 0691 963c
00000260: 36db be3b 7c00 ef3c 4d14 45bc 8e5b 7d3d
00000270: 20cf 93bb b6f4 b3b9 cdcb 07bd 41af ddbb
00000280: 2a82 9c3c 03e6 41bd fd62 45bc 488a f33c
00000290: f3fa 993c a02b 88bc 7637 80bc d932 c93c
000002a0: 7907 9abc 0d9f 27bd fb16 85bc 2ab0 f03b
000002b0: 1011 b33c 09e4 ddbc af5c cb3c dcbd af3b
000002c0: 906c c03c 4922 9f39 cacd 0e3c fb1a 7dbc
000002d0: 2d6f 683c eaf3 a6bc 3fac 17bb 3fb7 53bc
000002e0: 5744 103b c528 833c cf6b 613d a3f6 a9bc
000002f0: cfda c2bb 0fd5 9e3c ac53 a43c a463 07bc
00000300: 26c0 11bc a1fa eabc 3e1c aa3c 950c 04bd
00000310: 7391 083d d046 b5bc 1ea6 f93a f52e 593c
00000320: 1f9e 2fbd e075 47bc 4229 34bc b72f 78bd
00000330: 5cb8 733c ac64 593a 713c 45b6 e972 903c
00000340: 80e3 28bb e328 153d 092e 703b dc26 e6bb
00000350: 08f1 a8bc b122 8c3b 5c76 ecbb 0250 823c
00000360: c449 8a3b a40f d63b d953 7fbd 59e7 85bd
00000370: 9563 f5bc 1a8d 273a afdc 6ebc 5ac3 053d
00000380: fe0c b9bc f523 873b 37fe 89bb 3d40 66bc
00000390: 1cc3 1e3d 6cbd 52bd 201f 233d 537c 2ebd
000003a0: 0d32 7abb 7c44 5e3c a95b 823c 0242 c9bc
000003b0: 366d b9bc 51a6 da3c 089d dc3c fd42 62bd
000003c0: b7cf 933c fe10 16bd c474 61bb af02 b03c
000003d0: b0c7 8c3b cb6d df3c 3cf3 de3b 5212 143d
000003e0: ecb0 0dbd 8551 ef3c 35a6 56bd b840 1b3c
000003f0: 4122 bebc e9d9 163d 3626 713d 3990 c6bc
-0.0048804022 -0.02585088 -0.0147897545 0.030195544 0.033528566 -0.01781332 0.012436638 0.02129217
-0.029603463 -0.008432908 0.025614908 0.014252049 0.041603725 -0.002680044 -0.022162328 0.028604006
0.0077194995 -0.014285203 -0.0025527868 0.027248213 -0.05858336 -0.01277312 -0.04885057 0.0033736355
-0.0056324056 -0.019739656 0.022727074 -0.06842487 0.01315936 -0.004471707 0.043049935 0.02242941
-0.015072301 0.03894935 -0.0060944217 -0.028438257 0.0039397124 -0.010314924 0.00053581974 -0.01990353
0.01182186 0.017595353 0.00712478 -0.033335447 -0.0033809254 -0.0008755278 -0.020446122 0.0006653533
-0.030457169 0.014161732 -0.008595876 0.0018606109 0.0030681982 0.01072498 0.0026556093 0.022546494
-0.016661923 -0.024538945 -0.05331857 0.012713817 0.01568519 -0.029425228 -0.012492199 -0.006135054
0.023049906 0.02880733 -0.016967252 0.015017181 -0.026380442 0.020286787 -0.0056709927 -0.030322718
0.058321197 -0.001980282 0.00017556372 0.049301557 -0.0022902363 -0.007467304 0.015290114 -0.00052526995
0.0058732945 -0.02953566 0.0041375463 -5.611439e-05 0.00255538 -0.0090268385 0.007779064 -0.017514428
-0.0064124297 -0.0046407776 0.05022226 0.039055783 0.039244223 -0.019359307 -0.011378882 -0.021869913
0.017195398 0.010313894 0.01940871 0.01654693 -0.04470383 0.033105277 -0.028062273 0.060647704
0.01286746 0.004197887 -0.020466786 0.041370057 0.016846184 -0.013731009 -0.013181906 0.05100017
-0.022968182 0.027475266 0.027416224 -0.00901728 0.006594946 -0.023508213 -0.019075248 -0.02127234
0.02979651 0.005746775 0.05124178 -0.005696852 0.01991008 -0.029380208 -0.06055985 0.029953737
-0.0020337247 0.024910068 0.020908054 -0.047183104 -0.028930714 0.014796414 -0.013094049 -0.027698657
0.024460867 0.0074312896 -0.03212193 -0.006154502 -0.039970063 0.027629977 0.020806313 -0.0077420864
-0.017284017 0.023205938 0.01194925 -0.009401972 0.05157761 -0.0015875703 0.044052392 0.0183797
0.005824472 0.029175036 -0.012028766 0.06185489 -0.004510775 -0.00034323864 -0.033153344 -0.0067652767
0.019105036 -0.047338497 -0.012047526 0.029729024 0.01879642 -0.016622365 -0.015651446 0.024560379
-0.018802391 -0.040923167 -0.01624631 0.007345219 0.021858722 -0.027086275 0.024824468 0.005363209
0.023489267 0.00030352388 0.008716056 -0.015448327 0.014186663 -0.02037998 -0.0023143438 -0.012922107
0.002201339 0.016010651 0.055034455 -0.020747488 -0.005946494 0.019388704 0.02005943 -0.008263502
-0.008895909 -0.028683962 0.02076542 -0.03223856 0.033341836 -0.022128493 0.0019046699 0.013255824
-0.042875405 -0.0121741 -0.010996165 -0.06059238 0.014875498 0.00082928943 -2.939047e-06 0.017632918
-0.0025770366 0.036415946 0.0036648533 -0.0070236754 -0.020622745 0.0042765965 -0.007216258 0.015907291
0.0042202193 0.006532626 -0.062335823 -0.06538267 -0.029954711 0.000639157 -0.014578982 0.032657005
-0.022589203 0.0041241595 -0.004211213 -0.014053402 0.03876029 -0.051450178 0.039824605 -0.042599034
-0.0038176805 0.013566133 0.015912848 -0.024567608 -0.022635084 0.026690634 0.026930347 -0.055239666
0.018043382 -0.0366373 -0.0034401873 0.021485655 0.0042962655 0.027274033 0.006803898 0.036150284
-0.034592554 0.029213676 -0.0524046 0.009475879 -0.023209693 0.03682891 0.05887433 -0.024238693

discrete_action_output_shape f4 [1, 5]
00000000: 0000 4040 0000 4040 0000 0040 0000 0040
00000010: 0000 0040
3.0 3.0 2.0 2.0 2.0

network_body._body_endoder.seq_layers.0.bias f4 [128]
00000000: 824d 3abc 2d8d 5bbd 9f67 b13c 2695 74bb
00000010: 9025 0abd 2d49 17bd d18b 293c f449 86bc
00000020: 7090 13bd d5e5 073d 2658 223c 682f e2b9
00000030: 4bc3 3c3c 6eed 1bbc 825a e13c 45a6 a2ba
00000040: 9b37 8b3b 3747 61bc c375 c0bc b34e 823d
00000050: 2f1f c13c f4c8 d1bb 42e0 22bd 8bfc 4ebd
00000060: 67c2 5bbc b2e6 87bd dc82 6e3b 3387 65bb
00000070: 53f5 a3bb d25d e2bb a126 883c abe4 853c
00000080: 21af 263d 2abb 073c f25a 69bd d3eb 143c
00000090: 2c3d 8bbb 6d27 d43c 36e9 68bc 92ff b5bc
000000a0: cab9 68bc feab 9bbb b9d4 ebbc 4d6a 62bd
000000b0: e8f2 8bbb d9fa 82bd d606 11bd 2d42 7ebc
000000c0: ca9d 463d 48f5 c03c ef50 d3bc dcac 5abd
000000d0: 07d9 cfbc e422 103c 7b72 08bd 5f6e c7bc
000000e0: aaab 3a3d 4d0d 383d 35f0 6c3c f286 3fbd
000000f0: b068 a33b d54a 263b 6ef4 1cbd 7a3a 203c
00000100: 6af5 703a cd32 593d da79 b83c 7fb5 cfbc
00000110: 9cf8 b5bc 784c dfbc 992e 1e3d 9327 adbc
00000120: 3892 4cbc 07c9 523a 73c4 c83c 5f4a cdb9
00000130: 85ce 8dbc 1001 45bc 1372 3ebd 5483 803c
00000140: 660e 8cbc 1792 823c 6587 423b 29fc 9f3c
00000150: 8e02 72bd 03c3 373d 197d 16bc f63f 383c
00000160: 37dc 0b3c b04e f9bc 772d a1bc 3efb d93c
00000170: d875 92bd 7b83 a83d 9dc0 c0bc 8510 543d
00000180: d82a b1ba 8c46 42bc 1673 a43c 8070 28bd
00000190: 7cd5 0abd c2de 95bb 4adb 00bd c787 693d
000001a0: 2869 6cbc 6e79 bbbc ee7e 23bc 864c 113d
000001b0: 10ff 51bc 1d46 34bd e60a 0e3d 46e2 86bc
000001c0: f2f9 ed3c 0502 07bd caa4 92bc 3bb6 213d
000001d0: 1c15 d43c 4b16 3e3c b97c aebb 9273 b0bc
000001e0: 2914 743b fd2d fabb bc98 2c3c 37e6 f8bc
000001f0: 8a14 76bd 3751 253d 23f4 09bc 39ce 62bb
-0.011371018 -0.053601433 0.021655856 -0.0037320345 -0.03372723 -0.03693502 0.010348276 -0.016392685
-0.03602642 0.03317817 0.009908712 -0.000431414 0.011521171 -0.009517057 0.027508978 -0.0012409171
0.004248572 -0.013749889 -0.023493653 0.06362667 0.02357444 -0.0064021293 -0.03976465 -0.050533812
-0.013413048 -0.066357985 0.0036393916 -0.0035023212 -0.00500361 -0.006908157 0.016619982 0.016344389
0.04069436 0.0082843695 -0.056971498 0.009089428 -0.0042492356 0.025897706 -0.014215758 -0.022216592
-0.014204452 -0.0047507277 -0.028787958 -0.055277158 -0.0042709 -0.06395502 -0.03540691 -0.015518707
0.048490323 0.02355446 -0.025795428 -0.053387508 -0.025372041 0.008797381 -0.033312302 -0.024344621
0.045573868 0.04493456 0.014461567 -0.046759553 0.004986845 0.0025374193 -0.038319044 0.009779567
0.0009191843 0.053026963 0.02251904 -0.025355099 -0.022213273 -0.027258143 0.038618658 -0.021137035
-0.012486033 0.00080408197 0.024507737 -0.00039156058 -0.01731039 -0.012024179 -0.04649551 0.015687622
-0.01709671 0.015938802 0.0029682752 0.019529419 -0.059084468 0.044863712 -0.009185099 0.011245718
0.00853639 -0.030433029 -0.019675 0.02660906 -0.07151383 0.08228203 -0.023529345 0.051773567
-0.0013516797 -0.01185764 0.020074409 -0.041122913 -0.033895 -0.004573674 -0.03145913 0.057014253
-0.014429368 -0.02288505 -0.009978993 0.03547337 -0.012817159 -0.044012178 0.034678362 -0.016465317
0.029049847 -0.03296091 -0.017900843 0.03948043 0.025888972 0.011601995 -0.0053249267 -0.021539483
0.0037243462 -0.0076348768 0.010534462 -0.030383212 -0.06007818 0.040360656 -0.008420023 -0.0034607782

network_body._body_endoder.seq_layers.0.weight f4 [128, 423]
00000000: ff52 10bd 11f8 b6bb 2e4b 053d fc06 c23d
00000010: e3d2 ffbc 1c87 403c 2e83 c1bd e09b b53c
00000020: c04d a4bc 8c39 623d 0e72 1b3e 66ea 2ebd
00000030: 2c4e 543d 5fc7 2ebd fcee 11bd ebe8 51bd
00000040: 4b30 25be f4c7 3fbd ed28 3c3d 629a 10bd
00000050: 2994 5abc eb30 a33d f210 91bb 353e 843c
00000060: b16d b2bd fed0 68bd d57d 95bc 4218 713d
00000070: 7bff 26bd 2495 c33c 96ad 9c3b d387 0abd
00000080: e2e3 403c b79a 173d 3825 883a 540c a2bc
00000090: a803 173d fabf 643c b4ad af3c 53a1 c8bc
000000a0: 8cb3 31bd ed82 7b3c c5b4 babd 2ef4 73bd
000000b0: 4a71 10bd f24f 6cbd 1dd1 d7bc f46d 05bd
000000c0: 96ea 44bd 0a74 dabb 5b96 633d 9557 913d
000000d0: e02a cbbb dab2 80bd c450 66bb df3a 513d
000000e0: 6944 b43d 1b36 33bd 5641 a83d d121 0dbc
000000f0: 5d3a 06bd 3b66 aebd 266e 0cbd 35f5 dbbd
00000100: 77d5 66bd 925c 083c 9c6d 88bc 9931 b7bd
00000110: eac2 3ebd 84c3 aa3d d931 67bd caf2 36bd
00000120: acf4 3cbd baed 893c 6848 b1bc 063d 4bbb
00000130: 395e 34bd d2e6 cc3b d20f e5ba 950f 9fbd
00000140: b848 f7bc d717 6eb8 63fe 5abc ef2c eabc
00000150: d788 96bd 483f b03c c803 853d 4eba 9cbc
00000160: c48d 2e3d fa91 afbc 0409 823d d897 6139
00000170: d643 e13d 56c5 353c 12e1 79bd 69b7 a53d
00000180: 12f2 603d a3c1 b6bd 5f0b 1ebd 5604 61bd
00000190: 31e8 c53d 94d9 4d3d 4c82 21bc 772d 343c
000001a0: f006 24bc faf8 dc3c e14b 74bd 1682 5a3d
000001b0: e27b e1ba afc0 c3bb 75c1 933d de52 4d3c
000001c0: 0c2a 333d 7e17 a73d 3e56 0a3d ae15 bfbd
000001d0: e057 c6bd ee84 aebd ae1e d53d f39e b6bc
000001e0: 9f80 843c 486d afbb 92d8 b93d 7641 1e3d
000001f0: d9d6 c3bd dfa9 d7bc c43f 98bc 705b 1dbc
00000200: 9555 ac3d 4f2b 093e a941 dabd 4c69 5ebd
00000210: 3e97 9bbd 4a59 10bd 242f 6cbd d43a cdbc
00000220: 4af1 143b 4c93 b33d d8af a0bc 5a60 a3bd
00000230: 2be1 463d 78a3 56bc ca37 07bd 1869 cdbc
00000240: cecd 69ba 0a16 a7bd 789b c0bc 1376 533b
00000250: 2634 9bbd de2c 6a3c 9cad 93bd c072 aebd
00000260: 4ec2 45bd 0b70 ebbc 0d9e b13d 9fdf 013e
00000270: c1dd c03c 3a9c 8bbc d719 fc3d ecb0 d3bd
00000280: a8f4 ecbb 083e 55bd 3f2f 3a3d 31cb 2f3d
00000290: e3df 913d 1232 073e cba8 513d b771 0bbd
000002a0: 4c4d 00bc dcb9 b0bd 97f3 7f3c 534d 93bd
000002b0: 5523 b13d 63f0 8ebc 2eaf 9fbd 5907 dd3b
000002c0: 2630 90bd 4522 b6bd f64f 673d c9be 4cbd
000002d0: 274c cfbb d441 b3bc ecbf 8cbd 71f0 903b
000002e0: 4ff7 9ebc 5de4 6d3c 2ffa 583c aee9 3c3d
000002f0: f908 3f3c 52ec 933b 769e acbc 2de4 10bd
00000300: d91b 4cbc 1ff8 fcbc a63c de3c ba47 4cbc
00000310: e923 95bd 0eab 6ebc 1c19 a0bc a39e c73b
00000320: 2c36 553d 1647 e7bb b3f6 ddbc e154 1cbd
00000330: f954 a9bc 1ce1 61bd fb84 04bd 1acd b7bc
00000340: fabc 84bd c59b e03b 1ecf 833d 34e2 0d3d
00000350: 805c b9bd 9456 813c 03c3 a0bd a0ff b9bc
00000360: 298f a7bd 1e2c 90bd 5c7a 313d a0b1 bb3d
00000370: c96c db3c dc40 9cbc ae61 16be 409c 29bb
00000380: f6dd 57bd eec9 b13d 0250 acbb bc62 2e3d
00000390: 34ca 083d 6874 f83c 38ca 8fbd 6c45 b43d
000003a0: 06a4 2fbd b205 b3bd 8b8a cc3c b1a8 f53b
000003b0: 199a 1dbe de11 08ba e896 93bc 58e2 f5bb
000003c0: 7377 f4ba 1b8d 333c d1e1 b9bc dedd b83d
000003d0: f3d4 9dbd 2bdd 6abc 2866 7b3d b1c8 8fbb
000003e0: 5d33 373d 0c8c cebd e03d d8bd f707 6cbc
000003f0: 13ac 00bc 32e1 d93b 294c 82bd 5476 943c
-0.0352354 -0.005583771 0.0325424 0.094739884 -0.031228488 0.011750963 -0.09448849 0.022169054
-0.020056605 0.055230662 0.15180227 -0.04270401 0.051832363 -0.042670604 -0.035628304 -0.05124752
-0.16131704 -0.04682155 0.045937467 -0.03530348 -0.013340988 0.07968315 -0.004427069 0.016142944
-0.08712328 -0.056839935 -0.018248478 0.058861025 -0.04077099 0.023874827 0.0047814352 -0.03382094
0.0117730815 0.037012782 0.0010387069 -0.01978127 0.03686872 0.013961786 0.021445133 -0.024490988
-0.04338412 0.015351039 -0.0911651 -0.05955904 -0.03526429 -0.05769343 -0.02634483 -0.032575563
-0.04807528 -0.006666665 0.055563312 0.07096783 -0.0062001795 -0.06284113 -0.0035143355 0.051081534
0.08802111 -0.04375277 0.08215587 -0.0086140195 -0.032770503 -0.08515593 -0.034284733 -0.10740129
-0.05635592 0.008322852 -0.016653828 -0.08945007 -0.046572603 0.08338073 -0.056444023 -0.044665135
-0.046131775 0.01683699 -0.021640971 -0.0031011715 -0.04403517 0.006253102 -0.0017476028 -0.07766644
-0.030186042 -5.6765824e-05 -0.013366315 -0.02858588 -0.07350319 0.02151455 0.06494862 -0.019131806
0.042615667 -0.021431912 0.06349376 0.00021514238 0.10999267 0.011094412 -0.06100566 0.08091623
0.054918356 -0.08923652 -0.038585063 -0.054935776 0.096634276 0.050256327 -0.009857725 0.010997168
-0.01001142 0.02697419 -0.059642676 0.053346716 -0.0017203058 -0.0059738974 0.072146334 0.012531964
0.04374127 0.08158778 0.033773653 -0.09330307 -0.096847296 -0.08521448 0.10406242 -0.02229259
0.016174613 -0.0053536035 0.09074511 0.038636647 -0.09562463 -0.026326118 -0.018585093 -0.00960432
0.08414761 0.13395427 -0.10657055 -0.054299638 -0.075972065 -0.035241403 -0.057662144 -0.025052465
0.0022726827 0.08768329 -0.019615099 -0.07977362 0.04855458 -0.013100497 -0.03301219 -0.025074527
-0.0008918912 -0.081585005 -0.023511633 0.0032266423 -0.07578306 0.014292924 -0.07210848 -0.085179806
-0.048281007 -0.02873995 0.08672724 0.12682961 0.02354324 -0.017042268 0.12309616 -0.103364795
-0.0072313137 -0.05206111 0.045455214 0.042918388 0.07122781 0.13202694 0.051186364 -0.034043994
-0.007830929 -0.086292 0.015622041 -0.07192483 0.08649317 -0.01744861 -0.07797085 0.0067452607
-0.070404336 -0.08893255 0.05647274 -0.049986634 -0.0063262167 -0.021881975 -0.06872544 0.004423194
-0.019405035 0.014519778 0.013243242 0.04612129 0.011659854 0.0045142556 -0.021071654 -0.035373855
-0.012457811 -0.030880032 0.027128529 -0.012468273 -0.0728224 -0.01456715 -0.019543223 0.006091909
0.052053615 -0.0070580347 -0.027095174 -0.038166884 -0.020670401 -0.05514632 -0.032353383 -0.022436667
-0.06481357 0.0068545067 0.06435989 0.034639552 -0.09050846 0.015788354 -0.078496955 -0.0227049
-0.081816025 -0.07039665 0.04332958 0.09164739 0.026785271 -0.019073896 -0.146857 -0.0025880486
-0.052701913 0.08681093 -0.005258561 0.04257463 0.03339596 0.030328944 -0.07020992 0.08802304
-0.042881034 -0.08741321 0.024968406 0.007496916 -0.15390815 -0.00051906507 -0.018016294 -0.007503789
-0.0018651321 0.010958935 -0.022690685 0.09026693 -0.077066325 -0.014334957 0.06137672 -0.004387938
0.04472672 -0.100853056 -0.10558677 -0.014406196 -0.007853526 0.00664916 -0.06362183 0.01812283

network_body._body_endoder.seq_layers.2.bias f4 [128]
00000000: 6b18 173d c014 38bc da8e 643c 91da 443c
00000010: 99a1 0fbd 9910 e33c 21de 07bc 3ad9 393b
00000020: 63d6 633b 0751 adbc c956 333d 0990 8c3d
00000030: 9fad 37bd 9344 013d bc7e bdbb 19ec 383d
00000040: cc3b 45bd 3d46 af3c fd8b b5bc 2b9d 5a3b
00000050: ee0a 313c 53a4 513d 2761 04bc aea0 da3c
00000060: a869 2dbd 6179 193c 4f88 8b3b 0825 44bd
00000070: be50 d8bc 7ced 9bbc 6d4d 4a3c 0edc 8a3d
00000080: 7956 233a eddf 7bbc 3cf5 13bc 8312 cabb
00000090: 1c00 c7bb 8319 96bd ede5 0abc c8d3 6ebc
000000a0: 1531 8abb 7512 73bd 0b7a c9bb 5cc8 a7bc
000000b0: e9d7 f4bc a8cc 683d 112f c8bc cc0f 79ba
000000c0: 3f1f c0bc c41d acbc 8419 84bc dcca 933c
000000d0: 68b6 36bc bd2a cebc f9db 543d 7861 dcbc
000000e0: 84de 9f3c 048f d93c 7238 d5bb 7531 bd3c
000000f0: cd2a cfbc f79b 12bd dbeb cfbb c50c 45bc
00000100: 67ad ff3a 6ea8 c43b 58bd 653c cb65 17bd
00000110: 6b3d e0bb 292f f83c 8791 fc3c 12b0 c93c
00000120: 5ded f9bb bb29 6c3d 407a 23bc 447f b5bc
00000130: 95e2 38bc be57 103d ebad 9a3c d5a8 043c
00000140: b1f8 fe3c 9b4b 8d3b 8faa 473d fee9 6fbc
00000150: 5d7f 86bc 81c0 92bc 380d 3c3d febd 48bd
00000160: 3105 6dbc 1e74 5d3c e2b7 94bb 5735 63bc
00000170: b3dd 25bd 22a1 86bc 7ff2 223d e3e2 e13b
00000180: 3a4a 91bc fb52 3b3c 0665 0fbd 2b75 cbbc
00000190: 857f a2bb d536 4339 a897 093c 8ea0 33bd
000001a0: af98 f83c 032d fd3b c94a 47bc 38da 5cbc
000001b0: 7c02 29bd 39e2 d1bc eba3 f6bc 8dc7 bdbc
000001c0: 36c3 143d db22 ccba 5e51 963c 1994 b7bc
000001d0: 6b3e 883c ed76 423d dff4 b83b 40cf 27bb
000001e0: 9711 d13c 590d 1ebd 13e0 e7bc e007 b93c
000001f0: 6908 5c3b 2628 50bd e826 e5bb 1397 d9bc
0.03688852 -0.011235416 0.013950074 0.012015001 -0.03506622 0.027717875 -0.008292706 0.0028358237
0.0034765236 -0.0211568 0.043783937 0.0686341 -0.044843312 0.031559538 -0.00578293 0.045147035
-0.04815273 0.021395797 -0.022161478 0.003335784 0.0108058285 0.051182102 -0.008079804 0.026687946
-0.04233709 0.009367318 0.0042581926 -0.04788688 -0.026405688 -0.01903414 0.012347561 0.06780253
0.0006230842 -0.015373212 -0.009030636 -0.0061667576 -0.006073011 -0.07329085 -0.00847767 -0.01457686
-0.004217277 -0.059343774 -0.006148582 -0.020481281 -0.02988811 0.0568358 -0.024436506 -0.000950095
-0.0234524 -0.021010287 -0.016125448 0.018041067 -0.0111518875 -0.025166864 0.051967595 -0.026901945
0.019515283 0.026557453 -0.006506973 0.023094872 -0.025288964 -0.03579327 -0.006345255 -0.01202697
0.0019506634 0.0060015237 0.014022194 -0.03696231 -0.006843259 0.030295925 0.030831112 0.02462009
-0.007627173 0.057656985 -0.009977877 -0.022155412 -0.01128449 0.035239927 0.018881759 0.008096893
0.031124445 0.0043119914 0.04874664 -0.01464319 -0.016418153 -0.017914059 0.045911044 -0.049009316
-0.01446657 0.013516454 -0.004538522 -0.013867698 -0.040494632 -0.016434256 0.039782044 0.006893502
-0.01773559 0.011433358 -0.035008453 -0.024836143 -0.004959049 0.00018617076 0.008397974 -0.04385429
0.030346243 0.007726313 -0.012163826 -0.013479762 -0.041262135 -0.025620567 -0.030107459 -0.023166442
0.03631898 -0.0015574353 0.018349346 -0.022409486 0.016631326 0.047476698 0.0056444253 -0.0025605708
0.025521083 -0.038586948 -0.02830509 0.022586763 0.0033574349 -0.05081954 -0.0069931634 -0.026561296
