Project/Assets/00_AIBrains/SUMO_00.onnx (onnx, 945216 bytes, 17 tensors)

action_model._discrete_distribution.branches.0.bias f4 [3]
0.018978333 -0.024816703 0.008847645
00000000: 7378 9b3c 664c cbbc b6f5 103c

action_model._discrete_distribution.branches.0.weight f4 [3, 256]
0.008191657 0.012338605 0.010216835 -0.022448998 -0.016170887 0.00031055897 0.005687503 -0.009405281
5.384645e-05 -0.01015235 -0.0018306732 0.019812321 0.009515039 0.0058358917 0.009883702 -0.011023203
-0.014492718 -0.026254065 0.004499412 0.018882183 0.02184256 0.0020586187 -0.00090081146 -0.0056014005
0.017006328 -0.009371468 0.0009780356 -0.00020359646 -0.008175319 0.02109786 0.024901887 0.01817495
-0.020448748 0.009441664 0.0005075335 -0.0023525858 0.005830331 0.009072969 0.011297497 0.0013241725
0.011387835 0.010051625 0.018131798 -0.017407728 -0.015330208 0.023832172 -0.018119395 0.015953865
-0.0009153563 0.007388899 -0.018316306 0.021781074 0.012665388 0.0032726245 -0.016269347 0.020565394
0.03728702 -0.00586561 -0.00668635 -0.021551346 0.00024423286 -0.01741277 0.012613492 -0.0022816448
0.012182245 -0.014450804 0.0067753536 -0.00823997 0.0062234057 0.008548076 0.0033733174 -0.00733371
-0.013042614 0.009359136 0.015745973 0.0037367663 0.02307387 0.006379759 0.0010393045 -0.009919384
0.020677188 0.028869122 0.060131058 -0.002100655 0.04307345 0.014601719 0.010613263 -0.007292271
0.023510275 -0.014264138 -0.0072289077 0.025132108 0.012260512 0.018690705 0.017203238 0.022888508
0.024022972 0.01859585 -0.0011280932 0.034415115 -0.007372467 0.0030469946 -0.0014625537 0.0040430767
0.028515415 0.02843147 0.007756082 0.037047412 0.03398374 0.009132495 -0.0039624525 -0.008207028
0.023449278 0.022359328 -0.03633129 -0.0027147345 0.029333606 0.007798404 -0.008421777 -0.009504851
0.005344636 -0.015368074 0.010135492 0.014320881 -0.0116098095 -0.006876202 -0.022871982 0.017649801
-0.034047488 -0.006025523 0.01666793 -0.011136614 0.047293648 -0.028394053 0.028890017 0.03308039
-0.029536137 -0.022800544 -0.015603821 0.025517562 -0.0047719884 -0.0067332815 -0.009620575 0.008365375
0.018741282 -0.007528908 0.04829155 0.016955169 -0.020126494 0.010971153 0.005131292 -0.016973697
-0.031323638 0.0062296665 -0.032095797 -0.019353619 0.0073287385 -0.0077807913 -0.014028723 0.005929958
-0.0035986316 -0.028366597 0.012983193 0.00032931817 0.00536076 0.0004952534 0.01126298 0.00074759556
0.04384077 0.024715872 0.010651886 0.013543713 0.025231548 0.022982186 0.017718088 0.021736052
-0.027284602 -0.017333116 0.022743916 -0.02392463 0.020018842 0.014527299 0.0009029696 -0.0023343845
0.025022576 0.009831661 -0.0059966017 0.003414832 0.012735116 0.029946774 -0.006902203 -0.00034865754
-0.018265983 -0.0057357727 0.011936036 0.024541548 0.010893616 0.0007328676 -0.02064036 0.0054632523
0.014367712 0.030170519 0.009869166 0.011597564 -0.009692303 0.013471279 -0.029463936 -0.009129516
-0.014257987 0.02081306 0.0016203274 -0.017909609 0.004708497 0.0029762634 -0.013050294 0.032869145
-0.0230586 -0.007286757 -0.0034652804 -0.0004263529 -0.00173307 0.021639206 0.027046597 0.024414077
-0.011443745 0.0008124628 0.01746658 0.012673491 -0.015901498 -0.022802113 -0.013396838 0.024699893
0.012114776 0.027585573 0.0048003867 0.012592927 0.0026563301 0.01890307 -0.017679887 -0.005562787
-0.004571475 0.021778595 -0.002254437 0.004361889 0.019823797 -0.011839292 0.009702907 0.01116533
0.011120763 0.033879906 0.022593973 9.222709e-05 0.0077220094 0.036324114 0.014697533 0.0065194066
00000000: 4d36 063c dc27 4a3c 8364 273c f6e6 b7bc
00000010: cf78 84bc 85d2 a239 3c5e ba3b 9c18 1abc
00000020: 2fd9 6138 0b56 26bc 33f3 efba 734d a23c
00000030: f7e4 1b3c 023b bf3b 40ef 213c aa9a 34bc
00000040: dd72 6dbc c412 d7bc ce6f 933b cfae 9a3c
00000050: 2bef b23c e4e9 063b 6f24 6cba f48b b7bb
00000060: db50 8b3c c98a 19bc 6e31 803a 827c 55b9
00000070: c6f1 05bc 6bd5 ac3c 0bff cb3c a2e3 943c
00000080: 2284 a7bc 36b1 1a3c ff0b 053a d72d 1abb
00000090: 5c0c bf3b caa6 143c 2319 393c db8f ad3a
000000a0: 0b94 3a3c 92af 243c 2389 943c a79a 8ebc
000000b0: 8e2b 7bbc b03b c33c 206f 94bc aeb1 823c
000000c0: 85f4 6fba 941e f23b 140c 96bc 396e b23c
000000d0: 7d82 4f3c 8779 563b 4b47 85bc c278 a83c
000000e0: 46ba 183d 4e34 c0bb 2b19 dbbb 738c b0bc
000000f0: 610c 8039 3aa5 8ebc d2a8 4e3c a687 15bb
00000100: 0a98 473c 11c3 6cbc c903 de3b f000 07bc
00000110: b6ed cb3b 3b0d 0c3c e012 5d3b 9e4f f0bb
00000120: b0b0 55bc 1057 193c b3fd 803c 89e4 743b
00000130: 6a05 bd3c 4c0d d13b 4639 883a e984 22bc
00000140: 3563 a93c f07e ec3c fc4b 763d 25ab 09bb
00000150: c96d 303d 0c3c 6f3c 40e3 2d3c 01f4 eebb
00000160: 9f98 c03c 22b4 69bc 79e0 ecbb dae1 cd3c
00000170: 51e0 483c 401d 993c ceed 8c3c ae80 bb3c
00000180: d3cb c43c 5356 983c 87dc 93ba ddf6 0c3d
00000190: bc94 f1bb 16b0 473b 29b3 bfba c97b 843b
000001a0: 2999 e93c 1de9 e83c bb26 fe3b 07bf 173d
000001b0: 8932 0b3d 76a0 153c 76d7 81bb c576 06bc
000001c0: b318 c03c e92a b73c 1ed0 14bd b0e9 31bb
000001d0: 084d f03c c189 ff3b 7efb 09bc 3cba 1bbc
000001e0: 0e22 af3b 60ca 7bbc 560f 263c 21a2 6a3c
000001f0: 1237 3ebc c351 e1bb 065e bbbc 5196 903c
00000200: 6175 0bbd c071 c5bb 2f8b 883c 5876 36bc
00000210: fcb6 413d a59a e8bc c2aa ec3c 4e7f 073d
00000220: c5f5 f1bc 35c8 babc 2ba7 7fbc 350a d13c
00000230: 575e 9cbb dca2 dcbb 9e9f 1dbc ed0e 093c
00000240: 5187 993c 0fb5 f6bb 5ccd 453d 91e5 8a3c
00000250: 51e0 a4bc 5ac0 333c 6624 a83b 6c0c 8bbc
00000260: 374d 00bd 3b22 cc3b e276 03bd 7b8b 9ebc
00000270: ea25 f03b 02f6 febb bbd8 65bc 1850 c23b
00000280: 05d7 6bbb 1161 e8bc 75b7 543c 56a8 ac39
00000290: 50a9 af3b e5d3 013a 5d88 383c 4afa 433a
000002a0: 6192 333d f178 ca3c 4085 2e3c 73e6 5d3c
000002b0: 64b2 ce3c 2345 bc3c 8625 913c ce0f b23c
000002c0: f583 dfbc 2efe 8dbc 7351 ba3c 96fd c3bc
000002d0: 8efe a33c e903 6e3c 44b5 6c3a 79fc 18bb
000002e0: 25fc cc3c fa14 213c 247f c4bb 60cb 5f3b
000002f0: f3a6 503c f052 f53c e02b e2bb 06cc b6b9
00000300: 8ba2 95bc 26f3 bbbb 5d8f 433c 5b0b c93c
00000310: 237b 323c e91d 403a f915 a9bc 1505 b33b
00000320: 8d66 6b3c 2a28 f73c 48b2 213c b603 3e3c
00000330: 77cc 1ebc a4b6 5c3c 5a5e f1bc f793 15bc
00000340: 559a 69bc 2780 aa3c 2a61 d43a 2cb7 92bc
00000350: bc49 9a3b 6a0d 433b e6d0 55bc cca1 063d
00000360: 64e5 bcbc c0c5 eebb c219 63bb 1e88 dfb9
00000370: 2e28 e3ba b444 b13c d390 dd3c 0800 c83c
00000380: 8c7e 3bbc 75fb 543a 1316 8f3c 79a4 4f3c
00000390: dc43 82bc 7fcb babc 697e 5bbc 6e57 ca3c
000003a0: 0e7d 463c 24fb e13c 904c 9d3b 9052 4e3c
000003b0: d315 2e3b 9cda 9a3c 69d5 90bc 0a48 b6bb
000003c0: 50cc 95bb 0669 b23c 2dbf 13bb 2dee 8e3b
000003d0: 8465 a23c 97f9 41bc f1f8 1e3c caee 363c
000003e0: dc33 363c a8c5 0a3d ff16 b93c 0b6a c138
000003f0: e908 fd3b 98c8 143d eccd 703c bfa0 d53b

action_model._discrete_distribution.branches.1.bias f4 [3]
-0.034136526 -0.0016896364 0.03469899
00000000: bed2 0bbd ca76 ddba 8720 0e3d

action_model._discrete_distribution.branches.1.weight f4 [3, 256]
0.011219151 0.013010571 0.0144320885 0.029532371 0.0038060078 -0.0020149257 0.009872609 -0.0028880427
-0.00025986406 0.005365657 0.0067503043 0.007391604 -0.013822717 -0.0097669745 0.013830031 0.016667075
-0.0017257389 0.021211307 0.03055038 -0.016905684 -0.010945153 0.004788628 0.01970468 0.014010238
-0.00047479206 0.008537988 -0.018463766 0.02003791 0.004207486 -0.023737267 -0.002017851 -0.005308303
0.007939649 0.029587327 -0.031224055 0.008768483 0.017257934 0.01599968 0.007580116 0.027351256
0.023993324 0.012954733 0.007376409 0.026620861 0.006640043 -0.023737058 -0.0028474557 0.016021807
0.03638118 0.043570127 0.024514802 -0.014902946 0.0051106126 -0.008128961 0.016268458 0.0052658706
-0.00012506002 0.016383111 -0.007995648 -0.001960142 -0.010592414 0.019968694 0.029025186 0.0029728338
-0.00014621987 0.02925351 -0.018935956 0.00801371 0.015250322 0.009824872 0.00862647 0.00049775926
-0.027446616 0.009930623 0.02461486 -0.0038706472 -0.00038936353 0.026741104 0.00239141 0.006246037
-0.0016214151 -0.0015412683 0.026729621 0.016735721 0.00031394477 0.006922515 -0.0054071504 -0.00252456
-0.022919567 0.0037291162 -0.03286724 0.00063667254 0.0053357407 0.005849156 -0.017950887 -0.0082168775
0.025780551 0.0038563705 0.019052662 0.017910501 -0.02835899 0.01803576 -0.01378803 -0.014596355
0.023437353 0.0095838215 0.021171926 0.004731371 -0.0017787187 0.0035398516 -0.012176669 -0.004997076
0.014474824 -0.029818794 0.0029942512 -0.0007684256 0.00775572 0.022094319 0.007172323 -0.005919864
0.03466671 -0.0026136762 0.018513957 0.0061837886 -0.0056343838 -0.00661986 0.0065438123 0.03843029
-0.008912167 -0.0003067678 -0.03908757 -0.006943471 -0.011049252 0.016636094 -0.0035550648 -0.020133467
0.023366075 0.015767744 0.025510775 8.909713e-05 0.02257664 0.014919951 0.009894179 0.013320926
0.0012977535 -0.008114886 -0.001987638 -0.0078350045 0.02040893 -0.0047247424 -0.02501435 0.004451659
0.005517594 0.015152355 0.016488694 0.033724375 -0.034516152 0.017290156 -0.0017317999 -0.033499666
0.004936986 0.0075617814 0.029133605 -0.016512867 0.0063841664 0.03175737 0.017815283 -0.005685256
-0.0011419636 -0.0054875086 0.01447831 0.014079401 -0.0062114694 0.013164046 0.02225574 -0.00803394
0.03025989 0.0037970082 0.026932307 0.0055013523 0.0068334644 0.0075766454 0.018326294 -0.0026842246
0.016337292 -0.019763611 -0.02221847 0.020208903 0.016802277 -0.020416306 -0.009031392 0.028568521
0.019162528 0.004380828 0.012621412 -0.022499759 0.019524645 -0.0020529802 0.00092392246 -0.030039739
-0.019978162 -0.0040538236 0.013967031 -0.01464099 0.026985928 0.010175685 -0.0044055157 0.026957149
0.008644498 0.0061967215 -0.037375756 0.010989739 -0.0077564204 -0.00480328 0.012427378 0.0060720053
0.005487062 0.028475417 -0.018452164 -0.0027798072 -0.011644874 0.031617004 -0.0064225374 0.01747636
0.025949864 0.018167794 0.00848767 -0.0204249 0.009429138 0.025909105 0.017231384 -0.005039598
0.021758744 0.016218638 0.032397747 0.00225535 0.008949236 0.01743376 0.008101107 0.008725875
-0.005262301 -0.01670347 0.005019988 -0.0093264505 0.021032847 0.02530811 0.016396366 -0.0027745694
0.026061444 -0.009494556 0.004024622 -0.0055408785 0.013597472 -0.0067866202 -0.0047313203 -0.0036566565
00000000: 88d0 373c 4a2a 553c 9174 6c3c dfed f13c
00000010: 376e 793b d80c 04bb b9c0 213c 5145 3dbb
00000020: 5d3e 88b9 65d2 af3b a831 dd3b 4535 f23b
00000030: ad78 62bc a905 20bc 5b97 623c 6489 883c
00000040: 3032 e2ba 56c3 ad3c ca44 fa3c ca7d 8abc
00000050: 4d53 33bc ece9 9c3b b66b a13c 338b 653c
00000060: 83ed f8b9 ebe2 0b3c 5341 97bc 8b26 a43c
00000070: f3de 893b a874 c2bc ec3d 04bb 46f1 adbb
00000080: 4d15 023c 1f61 f23c 97c9 ffbc afa9 0f3c
00000090: 8360 8d3c c311 833c 9f62 f83b be0f e03c
000000a0: a68d c43c 1740 543c ceb5 f13b fe13 da3c
000000b0: b894 d93b 3874 c2bc 619c 3abb 2a40 833c
000000c0: 6f04 153d 9776 323d 44d3 c83c 7c2b 74bc
000000d0: ed76 a73b 552f 05bc 6e45 853c 538d ac3b
000000e0: 8b22 03b9 e035 863c 2e00 03bc ba75 00bb
000000f0: ce8b 2dbc 6395 a33c 3ac6 ed3c e0d3 423b
00000100: 9952 19b9 0fa5 ef3c 941f 9bbc f04b 033c
00000110: 7ddc 793c 80f8 203c 0a56 0d3c 0f7c 023a
00000120: bad7 e0bc 0db4 223c 1aa5 c93c afaa 7dbb
00000130: 7d23 ccb9 2910 db3c 34b9 1c3b 8eab cc3b
00000140: aa85 d4ba 6204 caba 14f8 da3c 5a19 893c
00000150: f498 a439 44d6 e23b 772e b1bb 1773 25bb
00000160: d1c1 bbbc 3064 743b cd9f 06bd 5fe6 263a
00000170: 70d7 ae3b 47aa bf3b bd0d 93bc 15a0 06bc
00000180: bc31 d33c 29bb 7c3b 5414 9c3c 0bb9 923c
00000190: 1d51 e8bc bbbf 933c 30e7 61bc 8d25 6fbc
000001a0: b1ff bf3c 7605 1d3c bf70 ad3c 9e09 9b3b
000001b0: e523 e9ba dbfc 673b a780 47bc 83be a3bb
000001c0: d027 6d3c 8b46 f4bc 333b 443b 2b70 49ba
000001d0: b223 fe3b 25ff b43c ce05 eb3b 6bfb c1bb
000001e0: aefe 0d3d 364a 2bbb 95aa 973c 61a1 ca3b
000001f0: a3a0 b8bb 69eb d8bb 7a6d d63b 1469 1d3d
00000200: 5604 12bc add5 a0b9 4a1a 20bd 0e86 e3bb
00000210: ec07 35bc 6b48 883c 17fc 68bb f1ee a4bc
00000220: 366a bf3c 5b2b 813c f9fb d03c a8d9 ba38
00000230: a5f2 b83c cf72 743c 321b 223c 0340 5a3c
00000240: 6219 aa3a 4cf4 04bc 0843 02bb 645e 00bc
00000250: a130 a73c 03d2 9abb e5ea ccbc 39df 913b
00000260: efcc b43b 9541 783c 4c13 873c 9222 0a3d
00000270: cf60 0dbd 16a4 8d3c 90fd e2ba f236 09bd
00000280: 71c6 a13b d2c8 f73b 99a9 ee3c fe45 87bc
00000290: 4532 d13b 0414 023d 5bf1 913c 624b babb
000002a0: f1ad 95ba 8fd0 b3bb 6f36 6d3c 4aad 663c
000002b0: 9589 cbbb 03ae 573c ab51 b63c c9a0 03bc
000002c0: 97e3 f73c 3ad7 783b 24a1 dc3c b044 b43b
000002d0: 41eb df3b 8245 f83b 0621 963c d1e9 2fbb
000002e0: c9d5 853c 4ce7 a1bc 8203 b6bc 248d a53c
000002f0: eea4 893c 1940 a7bc 67f8 13bc 8808 ea3c
00000300: bcfa 9c3c 0c8d 8f3b 0aca 4e3c 6a51 b8bc
00000310: 26f2 9f3c 4b8b 06bb 6333 723a e615 f6bc
00000320: 3ea9 a3bc f0d5 84bb f9d5 643c c3e0 6fbc
00000330: 9811 dd3c ebb7 263c 255c 90bb 3dd5 dc3c
00000340: a7a1 0d3c de0d cb3b 5217 19bd 4e0e 343c
00000350: 9229 febb d564 9dbb 349c 4b3c acf7 c63b
00000360: d0cc b33b 4745 e93c fe28 97bc 6d2d 36bb
00000370: 24ca 3ebc d580 013d 2674 d2bb 952a 8f3c
00000380: cf94 d43c a0d4 943c de0f 0b3c 1f52 a7bc
00000390: ac7c 1a3c 553f d43c d528 8d3c 3623 a5bb
000003a0: 653f b23c f3dc 843c 80b3 043d 7ece 133b
000003b0: d19f 123c 3fd1 8e3c 81ba 043c f9f6 0e3c
000003c0: 616f acbb b7d5 88bc b67e a43b f8cd 18bc
000003d0: 144d ac3c f452 cf3c ac51 863c 8dd5 35bb
000003e0: cf7e d53c 0e8f 1bbc fae0 833b 4290 b5bb
000003f0: eec7 5e3c 4c62 debb 3109 9bbb 84a4 6fbb

action_model._discrete_distribution.branches.2.bias f4 [2]
0.021466965 -0.021466967
00000000: 7ddb af3c 7edb afbc

action_model._discrete_distribution.branches.2.weight f4 [2, 256]
0.001957536 -0.0050470713 -0.014194609 0.0070755216 -0.0055522565 0.0026466236 0.03408215 0.00029863554
-0.0006338442 -0.007568786 0.014137109 -0.016815424 0.01674687 0.008074872 0.007484545 0.018312909
0.012625273 0.022804331 -0.003967132 -0.014926121 0.007981241 0.0055326424 0.0014406566 0.006146994
-0.019281475 0.0097017735 0.006504352 0.012103102 -0.006890827 0.03766692 0.027496405 -0.016646964
-0.018014701 0.002801774 0.005944998 -0.014417942 -0.008324584 0.027941503 0.019627636 0.014814203
0.00038615803 -0.036715943 -0.00586487 0.0009139984 0.010031551 0.0025657988 -0.012202984 -0.0073639206
0.016692009 -0.003580787 -0.0050183996 0.0005141013 -0.024912095 0.01214604 -0.016627526 -0.028437736
0.009848765 0.006581774 0.0060046697 -0.01143583 -0.0005480664 0.0019730907 -0.005558351 -0.0008160316
0.010110274 0.00243739 -0.0018458652 -0.017426556 -0.009286778 0.00627283 0.0061829765 -0.004897452
0.008561348 -0.0033467181 0.008127532 -0.001639922 -0.0062913992 0.0030167943 0.011628086 -0.0012272813
-0.032437976 -0.001628804 0.009482846 0.017135127 -0.0109689105 -0.0047788965 -0.003582958 0.009557837
-0.0008020888 0.004852406 0.022621531 0.034826238 -0.023576349 -0.0053892112 -0.02776215 -0.018226575
0.013401781 -0.0038540713 -0.00995285 0.0038540624 -0.0029555794 0.013184993 -0.01927371 -0.0144352475
-0.02669401 0.006661552 -0.01469443 -0.006064574 -0.007936049 0.018852154 -0.006202928 0.019090049
-0.037643343 0.009497082 0.014738032 -0.009792109 0.004013465 -0.0036119593 0.0047483286 -0.013472425
-0.011808444 -0.0136799775 0.0046275384 -0.047479525 -0.019004917 -0.0035186817 0.0009556168 -0.0031615256
-0.0016251858 -0.00044447373 0.017465724 -0.01081014 0.009601181 0.00920455 -0.02964363 -0.0025973066
0.011195824 0.017002746 0.011399549 -0.0085343495 0.016753642 0.014425774 0.005826009 0.026102822
0.013912795 -0.014120397 -0.015265627 0.001780671 0.0055670165 -0.0061803786 0.017340042 -0.0055334615
0.015029892 0.015605674 -0.009050199 0.014875062 -0.012089962 -0.010696669 0.010309344 0.004140794
-0.015244271 0.022101093 0.006708329 -0.0066248723 0.02577908 0.007308715 -0.012506022 0.009978694
-0.022287078 -0.0010634526 0.015092767 -0.0011610901 -0.036589224 0.0043511097 0.007645147 0.031612962
-0.0032475702 0.017062627 -0.017623983 -0.02725986 -0.011852208 0.0075217946 -0.0017511462 0.0122152455
0.0075381654 0.00067889027 0.0021857128 -0.00071913726 0.0010524065 0.005263192 0.010019328 -0.0016059018
0.00030092368 -0.0062153344 0.00745899 0.004000723 0.007287801 0.049297918 0.009426256 0.006949719
0.011889248 -0.0011908362 -0.0059100003 -0.009837597 -0.0043659657 0.008818558 -0.0010984374 -0.0047160266
0.01196418 0.006128448 -0.0055008186 0.012353533 0.01784265 0.012940177 0.0051525002 -0.007068357
0.0065504424 -0.00045974556 0.00039042588 -0.0042908653 0.0030056378 0.02139493 0.012728671 0.018383564
0.0051819826 0.018187309 0.020159135 0.033670966 0.012023585 0.0007436627 0.0007856567 -0.02939251
0.011475691 -0.010334981 0.0066315387 0.00915635 -0.019775186 0.017652338 -0.009821243 -0.003925191
0.004739218 0.029392403 0.018342882 -0.02243626 0.014916199 -0.023937419 0.0029462934 0.0022671411
-0.009846394 -0.0015111415 -0.0051035304 -0.0061409264 0.013641727 0.016171481 -0.012192721 -0.01978597
00000000: 014a 003b e761 a5bb 8190 68bc c7d9 e73b
00000010: b4ef b5bb fa72 2d3b b999 0b3d 2f92 9c39
00000020: 9028 26ba 9403 f8bb 559f 673c 80c0 89bc
00000030: bb30 893c 784c 043c ea40 f53b f404 963c
00000040: 3cda 4e3c 26d0 ba3c b7fe 81bb b08c 74bc
00000050: c0c3 023c 2b4b b53b 6ad4 bc3a b96c c93b
00000060: 2ff4 9dbc 30f4 1e3c 7622 d53b 174c 463c
00000070: 72cc e1bb a148 1a3d 2440 e13c 375f 88bc
00000080: 9193 93bc f89d 373b 42ce c23b 3b39 6cbc
00000090: d663 08bc 94e5 e43c 23ca a03c 45b7 723c
000000a0: 4175 ca39 7563 16bd 182e c0bb 6599 6f3a
000000b0: 605b 243c f626 283b 06ef 47bc 0b4d f1bb
000000c0: aebd 883c a3ab 6abb 6371 a4bb c1c4 063a
000000d0: 7314 ccbc 2f00 473c 7336 88bc 41f6 e8bc
000000e0: b75c 213c ecab d73b d2c2 c43b 595d 3bbc
000000f0: 1dac 0fba f84e 013b d422 b6bb f4ea 55ba
00000100: 90a5 253c 9ebc 1f3b f5f0 f1ba 23c2 8ebc
00000110: 9227 18bc 508c cd3b 919a ca3b ce7a a0bb
00000120: e544 0c3c 9d54 5bbb 5729 053c a7f2 d6ba
00000130: 1528 cebb 69b5 453b ba83 3e3c badc a0ba
00000140: afdd 04bd 987d d5ba f05d 1b3c f75e 8c3c
00000150: f2b6 33bc 4a98 9cbb 0fd0 6abb 7998 1c3c
00000160: 4543 52ba ef00 9f3b ca50 b93c f5a5 0e3d
00000170: 3023 c1bc fb97 b0bb 736d e3bc e64f 95bc
00000180: 2593 5b3c 9694 7cbb 4711 23bc 7094 7c3b
00000190: 65b2 41bb de05 583c e6e3 9dbc d181 6cbc
000001a0: 65ad dabc 2649 da3b e8c0 70bc 55b9 c6bb
000001b0: 3406 02bc d56f 9a3c ee41 cbbb bc62 9c3c
000001c0: e82f 1abd a699 1b3c c977 713c 156f 20bc
000001d0: 6283 833b 9fb6 6cbb de97 9b3b 72bb 5cbc
000001e0: 3478 41bc fc21 60bc 9ba2 973b e479 42bd
000001f0: 33b0 9bbc af99 66bb 5c82 7a3a 9931 4fbb
00000200: 3004 d5ba 4108 e9b9 4714 8f3c 031d 31bc
00000210: 464e 1d3c aece 163c 33d7 f2bc 9337 2abb
00000220: b06e 373c 5849 8b3c 2dc5 3a3c a8d3 0bbc
00000230: ef3e 893c 155a 6c3c 1be8 be3b 96d5 d53c
00000240: 7ef2 633c 3d59 67bc ae1c 7abc 6765 e93a
00000250: 856b b63b c684 cabb b40c 8e3c 0a52 b5bb
00000260: f03f 763c f1ae 7f3c 4947 14bc 88b6 733c
00000270: fa14 46bc 1541 2fbc 86e8 283c 7faf 873b
00000280: 1bc3 79bc 5a0d b53c 8bd1 db3b 7515 d9bb
00000290: a62e d33c f27d ef3b 0fe6 4cbc ad7d 233c
000002a0: 6493 b6bc 8c63 8bba a747 773c b82f 98ba
000002b0: 95de 15bd c193 8e3b 2484 fa3b 987c 013d
000002c0: 30d5 54bb ecc6 8b3c 2c60 90bc 1250 dfbc
000002d0: c32f 42bc 6379 f63b b786 e5ba 7422 483c
000002e0: b702 f73b 8ef7 313a 2d3e 0f3b 7c84 3cba
000002f0: e7f0 893a db76 ac3b 1c28 243c 1f7d d2ba
00000300: 4bc5 9d39 01aa cbbb 8b6a f43b 7f18 833b
00000310: 81ce ee3b 9dec 493d 9570 1a3c 78ba e33b
00000320: 1fcb 423c d515 9cba ada8 c1bb df2d 21bc
00000330: 6010 8fbb b77b 103c 71f9 8fba e688 9abb
00000340: 6805 443c 26d1 c83b 3640 b4bb 7966 4a3c
00000350: c02a 923c 0903 543c 4ed6 a83b ad9d e7bb
00000360: 18a5 d63b 010a f1b9 13b2 cc39 639a 8cbb
00000370: 3cfa 443b 6c44 af3c ea8b 503c 2199 963c
00000380: 9fcd a93b 8dfd 943c c524 a53c 91ea 093d
00000390: 92fe 443c 5cf2 423a 87f4 4d3a 90c8 f0bc
000003a0: 8904 3c3c 0d54 29bc 614d d93b 8404 163c
000003b0: 92ff a1bc a39b 903c 47e9 20bc e39e 80bb
000003c0: 714b 9b3b 56c8 f03c d043 963c 3fcc b7bc
000003d0: 1363 743c 6818 c4bc 9a16 413b 5194 143b
000003e0: c552 21bc 7f11 c6ba 843b a7bb d339 c9bb
000003f0: 8d81 5f3c 0e7a 843c fac3 47bc 3016 a2bc

action_model._discrete_distribution.branches.3.bias f4 [2]
-0.012266236 0.012266249
00000000: 53f8 48bc 61f8 483c

action_model._discrete_distribution.branches.3.weight f4 [2, 256]
-0.03355374 -0.010235901 -0.03213949 -0.012986892 0.033411447 -0.015401893 -0.010479726 0.0005169906
-0.0035833123 0.036407866 -0.010315975 -0.031148639 -0.0021126682 -0.024286935 -0.009571193 -0.009842526
-0.0022432078 0.015744407 0.008798339 0.0052574114 -0.0012781562 -0.00048501266 0.014702689 0.0063884975
-0.025452852 -0.00058004097 0.0050131325 0.007896005 -0.016304694 -0.0045888964 0.011792321 -0.031514004
-0.028839279 -0.004392215 -0.00017567156 -0.018751416 -0.0033786201 -0.015293144 0.0041030915 -0.0036413872
0.022825742 -0.010641926 0.0018601366 0.017356751 -0.0059684957 0.0027994635 -0.0001766554 0.032365028
-0.0072000585 0.009157213 -0.013129505 -0.013437205 -0.01699305 -0.012009894 0.004199084 -0.038416564
0.0024279752 -0.016001197 -0.008446939 -0.00247625 0.01530113 0.018390978 0.017912177 -0.006228715
-0.016597172 0.0016994588 0.023742797 0.012455142 -0.02118953 0.002270628 0.006110334 -0.0028770813
0.0038639184 -0.01965561 0.001586005 0.0023852235 0.00246244 0.0019128487 -0.007894097 0.008070332
-0.02181306 0.0016305624 0.018475242 0.0216628 0.01510612 -0.017855097 0.0058365962 -0.00347053
0.0029845922 0.017238595 -0.003604525 -0.012796955 -0.022888107 0.004720673 -0.030429725 0.0037592244
0.00066120276 0.01156991 0.027390989 -0.0038596531 -0.018977173 -0.015071404 0.005510096 -0.030535724
-0.014187243 -0.01357177 -0.02470219 0.011816517 0.00807188 0.0061366656 -0.015424976 0.0045501175
-0.022182623 -0.011787583 0.022875948 -0.02390806 -0.0079533355 -0.0028713807 -0.011501616 -0.0091332495
0.0004708721 -0.03216813 0.0041546477 -0.031143399 -0.020354098 -0.025889615 0.012331181 0.023724578
0.03258295 0.0018486503 0.0042686975 0.003505026 0.0057397443 -0.018338384 0.005918638 -0.028537575
0.005347795 -0.0013043126 -0.004178163 -0.010679787 0.002467169 0.021921158 -0.009813559 0.0038306022
-0.0024984777 0.006416236 -0.0044277296 -0.001640403 -0.021589676 0.0037403994 0.003870778 -0.0016273091
-0.013089114 0.00016511828 -0.00023474122 0.020000026 0.020155389 -0.0047782795 0.002985461 -0.0010294835
-0.02773669 -0.0016807399 0.005429903 -0.013953125 0.001333694 -0.011352443 -0.010724103 -9.832736e-05
0.0038613165 0.005119747 0.001067204 -0.017088251 -0.027247813 0.011439925 0.009899137 0.009546479
0.003101436 -0.002755035 -0.013333084 -0.02956291 0.001658422 -0.0153973345 -0.017891435 0.0043015103
0.0056605544 -0.008566748 -0.025111457 0.012339893 0.007329384 0.024270898 -0.018596623 0.007804643
-0.011530075 -0.020067181 0.0042365124 0.0019451851 -0.02623122 0.0091786375 -0.0054452443 0.006447329
0.0044870484 0.008529388 0.02025906 -0.042700037 0.019210836 0.031341363 0.012501503 -0.003859191
0.006806701 0.0018660438 -0.013497547 0.003125157 0.02560889 -0.0074087824 -0.011971101 0.006110108
0.03459061 0.012395519 0.010082404 -0.020281473 0.0010198795 0.0015439272 -0.018543405 0.0032987634
-0.00032316928 0.004682909 -0.0038790542 -0.0045200433 0.01571661 0.0057776757 -0.019226076 -0.011898534
-0.0056857383 -0.009134438 -0.018354334 -0.0093444595 0.02470161 0.012305647 -0.018750409 0.019303638
-0.013722657 0.010980589 0.012346517 -0.013870765 0.023450559 -0.0026089342 -0.02167181 0.0009859205
-0.013057152 -0.007499772 0.014401465 -0.0028332267 0.013121763 0.007469996 -0.0040720874 -0.021415388
00000000: a56f 09bd 7bb4 27bc b3a4 03bd f9c6 54bc
00000010: 71da 083d 3958 7cbc 28b3 2bbc a786 073a
00000020: 01d6 6abb 6a20 153d 5604 29bc 6e2b ffbc
00000030: b174 0abb 65f5 c6bc 7ed0 1cbc 8c42 21bc
00000040: c802 13bb 6afa 803c e926 103c 5d46 ac3b
00000050: ce87 a7ba 4c49 feb9 8ce3 703c 9a56 d13b
00000060: 8082 d0bc e40d 18ba 3445 a43b 3f5e 013c
00000070: 6c91 85bc 745e 96bb 9434 413c d414 01bd
00000080: 5a40 ecbc 92ec 8fbb 7a34 38b9 929c 99bc
00000090: d76b 5dbb 1890 7abc 3a73 863b 57a4 6ebb
000000a0: 0dfd ba3c 795b 2ebc d4cf f33a bf2f 8e3c
000000b0: 5f93 c3bb 3477 373b 933c 39b9 3191 043d
000000c0: 78ee ebbb 2308 163c 231d 57bc b927 5cbc
000000d0: 0235 8bbc 25c5 44bc 7898 893b b05a 1dbd
000000e0: aa1e 1f3b f114 83bc 0865 0abc 9548 22bb
000000f0: 97b1 7a3c ada8 963c 8fbc 923c 401a ccbb
00000100: cbf6 87bc 60c0 de3a 4180 c23c a710 4c3c
00000110: aa95 adbc d1ce 143b 3239 c83b 6a8d 3cbb
00000120: cb39 7d3b cd04 a1bc 7fe1 cf3a 6951 1c3b
00000130: e360 213b 8db8 fa3a 3e56 01bc 6d39 043c
00000140: 4db1 b2bc 98b8 d53a 6459 973c 2f76 b13c
00000150: a97f 773c da44 92bc eb40 bf3b d571 63bb
00000160: 2699 433b f437 8d3c e539 6cbb 52aa 51bc
00000170: d77f bbbc e0af 9a3b c247 f9bc 525d 763b
00000180: 9154 2d3a b88f 3d3c 1163 e03c 3cf2 7cbb
00000190: 0476 9bbc 0dee 76bc 098e b43b 0e26 fabc
000001a0: 9c71 68bc 215c 5ebc 3f5c cabc 119a 413c
000001b0: eb3f 043c 1516 c93b 0ab9 7cbc 2719 953b
000001c0: 55b8 b5bc b520 41bc 5766 bb3c d6da c3bc
000001d0: b54e 02bc c62d 3cbb 4671 3cbc a0a3 15bc
000001e0: 62df f639 bbc2 03bd b623 883b 7120 ffbc
000001f0: a3bd a6bc 7516 d4bc b908 4a3c 0c5a c23c
00000200: b375 053d 694e f23a 6ee0 8b3b 94b4 653b
00000210: 7714 bc3b 613a 96bc 22f1 c13b a2c7 e9bc
00000220: 8e3c af3b 78f5 aaba f9e8 88bb 46fa 2ebc
00000230: 3ab0 213b 0094 b33c 0dc9 20bc d70a 7b3b
00000240: 80bd 23bb 4a3f d23b 7d16 91bb ca02 d7ba
00000250: d5dc b0bc 7d21 753b e1ac 7d3b 6f4b d5ba
00000260: b973 56bc 9a23 2d39 de24 76b9 18d7 a33c
00000270: ea1c a53c 1d93 9cbb b9a7 433b bcef 86ba
00000280: 0e38 e3bc 464c dcba 54ed b13b a69b 64bc
00000290: 58cf ae3a 99ff 39bc 26b4 2fbc 1935 ceb8
000002a0: 240e 7d3b 8dc3 a73b 6de1 8b3a a9fc 8bbc
000002b0: ce36 dfbc 866e 3b3c fd2f 223c d668 1c3c
000002c0: 7641 4b3b d18d 34bb 0273 5abc ea2d f2bc
000002d0: 695f d93a 1a45 7cbc 0f91 92bc aff3 8c3b
000002e0: 2c7c b93b 8c5b 0cbc 8bb6 cdbc 432d 4a3c
000002f0: 542b f03b c3d3 c63c f257 98bc 17be ff3b
00000300: a4e8 3cbc ee63 a4bc 71d2 8a3b 95f5 fe3a
00000310: dbe2 d6bc ff61 163c 056e b2bb 1e44 d33b
00000320: 1708 933b d9be 0b3c 54f6 a53c 3ce6 2ebd
00000330: 0b60 9d3c cd5f 003d 1bd3 4c3c 7bea 7cbb
00000340: bf0a df3b 0a96 f43a d124 5dbc 6fcf 4c3b
00000350: bcc9 d13c 5fc5 f2bb 7022 44bc 4d37 c83b
00000360: e2ae 0d3d 9316 4b3c ab30 253c 5525 a6bc
00000370: 7aad 853a 9a5d ca3a 57e8 97bc 1130 583b
00000380: 0c6f a9b9 1773 993b bb37 7ebb df1c 94bb
00000390: 1fc0 803c a852 bd3b 0180 9dbc 12f2 42bc
000003a0: 6e4f babb 9ca8 15bc d45b 96bc 8119 19bc
000003b0: 085b ca3c a09d 493c 759a 99bc aa22 9e3c
000003c0: ffd4 60bc eee7 333c 0c49 4a3c 3542 63bc
000003d0: 631b c03c a7fa 2abb 1489 b1bc 013a 813a
000003e0: aaed 55bc a6c0 f5bb 1ff4 6b3c a8ad 39bb
000003f0: aafc 563c dec6 f43b 256f 85bb 536f afbc

action_model._discrete_distribution.branches.4.bias f4 [2]
0.003841666 -0.0038416556
00000000: 76c4 7b3b 49c4 7bbb

action_model._discrete_distribution.branches.4.weight f4 [2, 256]
0.004897248 -0.009004524 -0.014836187 0.017772725 -0.013350225 0.004558918 0.044337742 0.008996858
0.009727443 0.016010294 -0.0072811935 -0.011909404 0.00059909525 -0.01276928 -0.0032192268 -0.011703258
0.00015524015 0.006795267 -0.006596685 0.0050688335 -0.012773676 -0.008155154 0.0035581277 -0.0033254875
-0.026218241 0.016896527 -0.011043562 0.0005096686 -0.0044235727 -0.011103369 0.0018146029 -0.0020113632
0.003063888 0.010117097 -0.013538112 0.011960253 0.013143194 0.013163961 -0.021945136 0.018900163
0.0012324092 -0.008440104 0.0006783155 -0.0048882263 -0.0021684295 -0.017711546 0.011104659 -0.014057281
0.010515521 0.004153632 0.008543733 -0.003957477 -0.009405412 -0.0071796533 0.004135388 -0.0076078805
-0.005042217 -0.016564034 -0.022314424 -0.027881656 0.008560206 -0.01230772 0.0019278103 -0.005141283
0.003966672 0.002118845 -0.015984947 -0.016969228 0.017252205 -0.0012222206 0.022200286 -0.014672777
-0.023976771 -0.008643486 0.0006394957 -0.020709455 -0.026625063 0.00828669 -0.0051754722 0.012071093
-0.024484146 0.0040141577 0.00047775175 -0.0073275683 -0.010142435 -0.013361927 0.012837119 -0.0023797392
-0.0068502757 0.010229425 -0.020623319 -0.008350958 -0.011368501 -0.002789574 -0.027378812 0.005081012
0.0019288794 -0.0031560252 0.003924055 0.0024393275 0.0039918795 0.020099778 -0.0045368588 0.004132557
-0.016511027 0.0114831785 -0.011337814 0.0010501922 0.0023974415 -0.013239613 0.025644407 0.005853857
-0.03666776 -0.0045068003 0.012619148 0.015803482 0.011030269 0.0031518175 0.015201285 0.0068960576
0.024444109 -0.011379126 -0.015691364 -0.030929957 -0.0005430868 -0.0061594965 0.013883581 0.010614235
-0.001962174 -0.008044547 -0.0035922425 -0.012195533 -0.007437725 0.010702862 0.0063452204 -0.014875485
0.031527378 -0.006579885 0.0048310626 0.0024199279 0.012665385 -0.019044714 0.0042555653 -0.0002633643
0.0010294401 0.017067496 -0.015018261 -0.0066209733 0.004839507 0.012278519 -0.019841762 -0.0083047375
0.0039873454 0.03066513 0.0047432985 0.01670835 0.008753694 -0.02777527 0.0007108447 0.0070103873
0.004019921 0.020939453 -0.0093619805 0.013278494 0.0022100853 0.0071312394 0.010537099 -0.021515096
-0.00073436537 -0.0058571137 0.0024641126 -0.0010006287 -0.033638064 0.012213802 0.0018138336 0.0009528204
0.018898198 0.02161226 -0.017926717 0.00533867 0.0017841213 -0.0024601766 0.015827084 0.011599184
0.016601468 0.0035951291 -0.009442753 -0.006700843 0.009876054 -0.010948956 -0.005634536 0.021181751
-0.006793788 -0.0075333416 -0.010143299 -0.0133434525 0.012481092 -0.0033653234 0.0074344226 -0.0058437916
-0.042346887 0.004641563 -0.0043884753 -0.016446197 0.0021125234 0.0020307666 -0.011733538 0.014532649
0.012733212 -0.004038675 0.003030495 -0.0016086372 0.007038069 0.006337129 0.011703982 -0.015827077
0.013792299 -0.013812233 0.0029162758 -0.0022832826 -0.017469997 0.012803141 -0.00091228593 0.013609603
0.0076489863 0.008430676 0.010558054 -0.022374773 0.023856143 0.014412266 -0.01038384 -0.010326205
-0.0008690532 -0.017683813 0.021496778 0.026264517 -0.014120662 0.005821791 -0.004280608 -0.008633159
-0.012663167 -0.010576831 -0.0059217825 -0.021650003 0.003236425 0.02038319 -0.01723383 -0.031047551
-0.0022033618 -0.005900411 0.0024857137 0.006684941 0.024614714 0.009590117 -0.0026327735 -0.002386303
00000000: 1879 a03b b687 13bc 7a13 73bc 1b98 913c
00000010: e7ba 5abc fa62 953b 7e9b 353d 8f67 133c
00000020: da5f 1f3c 0528 833c 1497 eebb a91f 43bc
00000030: 9a0c 1d3a 3e36 51bc aaf9 52bb 06bf 3fbc
00000040: f6c7 2239 d5aa de3b 0129 d8bb 7518 a63b
00000050: ae48 51bc 329d 05bc 7a2f 693b 6cf0 59bb
00000060: a3c7 d6bc 966a 8a3c 0ef0 34bc 489b 053a
00000070: 9ef3 90bb e8ea 35bc f8d7 ed3a 13d1 03bb
00000080: 83cb 483b 2ec2 253c f5ce 5dbc f0f4 433c
00000090: 8d56 573c a7ad 573c 49c6 b3bc 84d4 9a3c
000000a0: ca88 a13a 5d48 0abc fcd0 313a 6a2d a0bb
000000b0: 361c 0ebb ce17 91bc 51f0 353c 8350 66bc
000000c0: 4b49 2c3c 311b 883b 03fb 0b3c b9ad 81bb
000000d0: 2819 1abc 4c43 ebbb 2682 873b 874b f9bb
000000e0: 2f39 a5bb 4cb1 87bc bdcc b6bc 1268 e4bc
000000f0: 1b40 0c3c 52a6 49bc 94ae fc3a 3578 a8bb
00000100: dbfa 813b 52dc 0a3b ddf2 82bc 0d03 8bbc
00000110: 7f54 8d3c eb32 a0ba 60dd b53c 1666 70bc
00000120: ef6a c4bc 689d 0dbc d4a3 273a e0a6 a9bc
00000130: ce1c dabc e6c4 073c 0297 a9bb d5c5 453c
00000140: fa92 c8bc 3289 833b c17a fa39 191c f0bb
00000150: 752c 26bc fceb 5abc c852 523c 66f5 1bbb
00000160: 4778 e0bb 5199 273c 3cf2 a8bc 75d2 08bc
00000170: f342 3abc 49d1 36bb 8849 e0bc 9e7e a63b
00000180: 74d2 fc3a 51d5 4ebb 5c95 803b 20dd 1f3b
00000190: 50ce 823b 4aa8 a43c eea9 94bb 676a 873b
000001a0: 2242 87bc f123 3c3c 3dc2 39bc 9aa6 893a
000001b0: 651e 1d3b f6ea 58bc 3814 d23c b6d1 bf3b
000001c0: ef30 16bd c8ad 93bb 8bc0 4e3c 4e76 813c
000001d0: 4db8 343c b98e 4e3b cf0e 793c 53f8 e13b
000001e0: 033f c83c 846f 3abc 2d8b 80bc d260 fdbc
000001f0: f05d 0eba 9ad5 c9bb f677 633c 54e7 2d3c
00000200: d197 00bb 47cd 03bc d46b 6bbb c6cf 47bc
00000210: 29b8 f3bb 0f5b 2f3c 91eb cf3b 4eb8 73bc
00000220: da22 013d 139c d7bb e44d 9e3b a797 1e3b
00000230: 7a82 4f3c a903 9cbc 4572 8b3b 2814 8ab9
00000240: 47ee 863a 22d1 8b3c 270f 76bc c0f4 d8bb
00000250: ba94 9e3b d72b 493c 318b a2bc 9810 08bc
00000260: 47a8 823b 7035 fb3c ac6d 9b3b f3df 883c
00000270: a76b 0f3c f788 e3bc fb57 3a3a 64b7 e53b
00000280: 8bb9 833b 3789 ab3c fe62 19bc 0a8e 593c
00000290: 14d7 103b 2cad e93b cca3 2c3c 6d40 b0bc
000002a0: 6d82 40ba 08ed bfbb f37c 213b 8727 83ba
000002b0: 11c8 09bd 661c 483c 28be ed3a b2c6 793a
000002c0: 65d0 9a3c 320c b13c 0ddb 92bc 03f0 ae3b
000002d0: 2dd9 e93a ea3a 21bb cda7 813c 810a 3e3c
000002e0: cdff 873c 429c 6b3b c7b5 1abc bf92 dbbb
000002f0: 2ccf 213c 4063 33bc eaa1 b8bb 5a85 ad3c
00000300: 6d9e debb 40da f6bb 1430 26bc 7f9e 5abc
00000310: 7e7d 4c3c c28c 5cbb 759c f33b 477d bfbb
00000320: ee73 2dbd 4118 983b 33cd 8fbb 2dba 86bc
00000330: 4372 0a3b 9c16 053b 063e 40bc 591a 6e3c
00000340: f69e 503c dd56 84bb 459b 463b e8d8 d2ba
00000350: 9a9f e63b b1a7 cf3b 0fc2 3f3c c9a7 81bc
00000360: 18f9 613c b44c 62bc fd1e 3f3b 20a3 15bb
00000370: 3d1d 8fbc 44c4 513c 7926 6fba d0fa 5e3c
00000380: 59a4 fa3b d120 0a3c b0fb 2c3c 4d4b b7bc
00000390: f56d c33c 6d21 6c3c fb20 2abc 3e2f 29bc
000003a0: 2cd1 63ba a5dd 90bc 031a b03c af28 d73c
000003b0: 595a 67bc b9c4 be3b 5844 8cbb 1872 0dbc
000003c0: 2c79 4fbc 724a 2dbc 830b c2bb 595b b1bc
000003d0: 341a 543b a6fa a63c f62d 8dbc 6f57 febc
000003e0: 4766 10bb 3c58 c1bb 5be7 223b 590d db3b
000003f0: cca4 c93c de1f 1d3c 9c8a 2cbb 8563 1cbb

discrete_action_output_shape f4 [1, 5]
3.0 3.0 2.0 2.0 2.0
00000000: 0000 4040 0000 4040 0000 0040 0000 0040
00000010: 0000 0040

network_body._body_endoder.seq_layers.0.bias f4 [256]
0.004877068 -0.0071032736 0.013075661 0.00030723843 -0.0055824183 0.004648452 0.0012393957 0.0030281325
0.019102843 -0.0037067244 0.009162278 0.0013320055 0.010041676 -0.0012578387 0.010276025 -0.0027866135
0.002366366 -0.004341989 0.0027373836 0.0066650803 -0.001613226 0.006870285 0.014891819 -0.0022665455
-0.00084932963 0.0015682253 -0.0054290276 0.017833777 0.008376279 0.002963625 0.0070676366 0.0032486953
-0.0016693968 -0.0054897876 0.010268579 0.008829181 -0.02611548 0.0054384307 0.008220056 -0.0015525296
-0.003041809 -0.037592936 0.005337474 0.0028585864 0.007730152 -0.0034541083 0.009115232 0.017616732
-0.009744031 -0.007214638 0.00034413638 0.004547593 0.004664788 -0.0026250149 -0.01241494 -0.0027601914
0.009092899 0.0029511694 0.0025874123 -0.00521712 0.0012651825 -0.0071236035 0.0087816855 -0.007120922
0.013611117 -0.001842594 -0.0077371867 0.009950896 0.0108997505 -0.0076399883 -0.0051560616 0.0130744325
0.0015446944 0.0021868886 -0.0024141753 -0.0040643457 0.009674001 0.0019228187 -0.0034958378 0.014040113
0.0028771476 0.00407949 -0.009118392 -0.0012457755 0.0016322908 0.005405528 -0.0014817745 -0.016806213
0.009743438 -0.0088281585 0.013263729 0.010626056 -0.005576807 -0.0060377764 -0.004630625 0.0009361272
-0.0012058179 0.0063385065 0.0021627715 0.006373554 -0.011734302 0.0014647666 -0.0026425757 -0.0013773938
-0.007674445 0.0010676242 0.0068043196 0.0026757207 0.0048550884 -0.012093322 -0.0047054654 -0.0016378217
0.00049164006 0.0028464918 0.004316587 -0.0011749034 0.00018592893 0.0017292774 -0.0073808725 -0.00029499523
0.020392314 0.011855403 -0.0071477853 -0.008351007 0.0009335159 0.0050975042 0.010869524 0.004616002
-0.012112211 0.016317014 0.001098475 -0.0043802126 0.005024373 -0.0026727167 -0.005600961 -0.0022570514
-0.007144511 -0.010591948 0.013580465 0.008988831 -0.004630946 -0.0099531375 -0.010511332 0.011238654
-0.004546036 0.004971546 0.003110092 0.01091473 -0.010359262 -0.0014875449 -0.0061825244 -0.009503241
0.0035778563 -0.004971896 -0.0046220543 0.0028271286 0.0046915193 0.008712077 -0.009545122 -0.0018375594
-0.009674209 -0.0012513989 -0.001877546 -0.005952134 0.0071162386 0.007811749 0.016843058 -0.0022919178
0.0029498318 0.015628943 0.0066243904 0.0029751882 -0.001348178 -0.0033621604 0.009628174 -0.00038633627
0.004427188 0.005076729 0.0026143687 -0.006177355 -0.020680979 0.00553181 -0.010332468 0.016492931
-0.004854475 -0.0021778548 -0.011231581 0.0025955355 -0.0022973332 0.0054308996 0.0013659169 0.011958169
0.000871648 -0.0014724892 0.011306506 0.00064980163 -0.0072239623 0.012400589 0.009915568 -0.008999506
0.01092572 -0.010246219 -0.01708946 -0.009185194 0.002711048 0.00059616927 0.0006468375 0.0002854994
0.004010895 0.00623706 0.0043667685 0.002865538 0.004464128 -0.0063679162 -0.004690974 -0.0004888245
-0.0014072418 -0.010994874 -0.0038998048 0.0038944029 0.003717566 -0.0071894675 -0.00020812715 -0.0043182373
-0.007969632 -0.01044308 0.009985663 -0.0048506428 -0.0027838808 -0.00556775 0.00504134 0.006502638
0.0070582046 -0.0029583701 0.008946445 -0.00036329703 0.0001873197 -0.031778917 0.007871635 -0.01210841
-0.0045600394 -0.0035308215 0.00050141366 0.00771408 0.0067503355 -0.0031742537 0.00918095 0.025859436
-0.0026535222 -0.013952335 -0.009859375 -0.03956232 0.013087866 0.0006314704 0.014461919 0.0016810774
00000000: d0cf 9f3b 94c2 e8bb 4c3b 563c d814 a139
00000010: b8ec b6bb 0b52 983b 3873 a23a a273 463b
00000020: 917d 9c3c 84ec 72bb 611d 163c b096 ae3a
00000030: d885 243c 10de a4ba c65c 283c 9e9f 36bb
00000040: 0915 1b3b 3e47 8ebb ad65 333b bf66 da3b
00000050: e272 d3ba 2120 e13b d1fc 733c 538a 14bb
00000060: 8ca5 5eba e98c cd3a fce5 b1bb 2418 923c
00000070: a93c 093c 6039 423b a297 e73b 10e8 543b
00000080: a9cf daba ade3 b3bb 8b3d 283c 45a8 103c
00000090: 22f0 d5bc dd34 b23b 6aad 063c 407e cbba
000000a0: 1659 47bb 0dfb 19bd fae5 ae3b 1f57 3b3b
000000b0: 374d fd3b 525e 62bb 0e58 153c f750 903c
000000c0: 6ea5 1fbc c568 ecbb 346d b439 fa03 953b
000000d0: 14db 983b 7108 2cbb 0868 4bbc 54e4 34bb
000000e0: 62fa 143c 6868 413b 9391 293b 60f4 aabb
000000f0: 7bd4 a53a 1e6d e9bb 0fe1 0f3c a056 e9bb
00000100: 2a01 5f3c 3283 f1ba 3a88 fdbb 1509 233c
00000110: de94 323c de58 fabb 2ef4 a8bb 2536 563c
00000120: 5877 ca3a e751 0f3b 2437 1ebb 342e 85bb
00000130: b37f 1e3c 1707 fc3a 6d1a 65bb 8108 663c
00000140: 878e 3c3b 3ead 853b 4f65 15bc 4a49 a3ba
00000150: 97f2 d53a db20 b13b 1a38 c2ba 2fad 89bc
00000160: f1a2 1f3c fba3 10bc 1d50 593c e918 2e3c
00000170: a6bd b6bb 8ad8 c5bb 7fbc 97bb 6f66 753a
00000180: 890c 9eba 3fb3 cf3b 49bd 0d3b 3fd9 d03b
00000190: 3b41 40bc 69fd bf3a 102f 2dbb ab89 b4ba
000001a0: e979 fbbb 86ef 8b3a c5f6 de3b 255b 2f3b
000001b0: 6f17 9f3b 1223 46bc 4e30 9abb 2dac d6ba
000001c0: 68e1 003a 358c 3a3b 2872 8d3b 37ff 99ba
000001d0: ebf5 4239 eca8 e23a 3fdb f1bb 97a9 9ab9
000001e0: c80d a73c 2a3d 423c f837 eabb a9d2 08bc
000001f0: 31b7 743a f708 a73b 1716 323c d541 973b
00000200: 4c72 46bc 42ab 853c b4fa 8f3a e387 8fbb
00000210: 7fa3 a43b bf28 2fbb 4488 b7bb 0aeb 13bb
00000220: 811c eabb da89 2dbc 9980 5e3c e445 133c
00000230: 31bf 97bb 7c12 23bc b937 2cbc 5522 383c
00000240: eaf6 94bb 5ae8 a23b afd2 4b3b b2d3 323c
00000250: e5b9 29bc b9f9 c2ba c696 cabb 7bb3 1bbc
00000260: 787a 6a3b 49eb a2bb 9a74 97bb 5947 393b
00000270: 51bb 993b 19bd 0e3c 2563 1cbc 43da f0ba
00000280: 9380 1ebc fb05 a4ba fd17 f6ba 1e0a c3bb
00000290: 562f e93b b3f9 ff3b 74fa 893c 0034 16bb
000002a0: f751 413b 4508 803c 6a11 d93b 60fb 423b
000002b0: 59b5 b0ba b157 5cbb 7dbf 1d3c 2d8d cab9
000002c0: f211 913b b15a a63b d455 2b3b 696b cabb
000002d0: 286b a9bc 3044 b53b 8349 29bc 2f1c 873c
000002e0: 4a12 9fbb 57ba 0ebb aa04 38bc dc19 2a3b
000002f0: db8e 16bb b0f5 b13b 9108 b33a 32ec 433c
00000300: 4f7f 643a 8a00 c1ba ec3e 393c 7357 2a3a
00000310: fdb6 ecbb d72b 4b3c e874 223c aa72 13bc
00000320: cb01 333c c2df 27bc 32ff 8bbc 7f7d 16bc
00000330: d6ab 313b 3e48 1c3a 8890 293a 15af 9539
00000340: d36d 833b 4060 cc3b 1c17 8f3b c0cb 3b3b
00000350: d247 923b f4a9 d0bb beb6 99bb 7524 00ba
00000360: 3373 b8ba d823 34bc de93 7fbb 3d39 7f3b
00000370: 68a2 733b a095 ebbb b53c 5ab9 0080 8dbb
00000380: 0f93 02bc 7419 2bbc e89a 233c 24f2 9ebb
00000390: c571 36bb ac71 b6bb d331 a53b 1514 d53b
000003a0: 8348 e73b 37e1 41bb 1c94 123c e778 beb9
000003b0: 406b 4439 9c2a 02bd 08f8 003c 5a62 46bc
000003c0: 626c 95bb 5b65 67bb 4d71 033a 65c6 fc3b
000003d0: eb31 dd3b 2407 50bb b26b 163c 2bd7 d33c
000003e0: b7e6 2dbb 5698 64bc 3789 21bc 190c 22bd
000003f0: 7d6e 563c 4389 253a aff1 6c3c 9957 dc3a

network_body._body_endoder.seq_layers.0.weight f4 [256, 390]
-0.06256805 -0.085024826 -0.047861718 -0.04179958 -0.040718205 -0.049853876 -0.11256574 -0.0061539756
0.053679883 0.07186065 0.045048736 0.046446804 -0.100753605 -0.0055497354 -0.068944566 -0.0042912015
0.008478296 0.018902844 0.0023524733 -0.015478913 0.017424487 -0.017699549 0.0049719205 -0.028734311
-0.0095546385 -0.018267613 -0.03675556 -0.068961576 -0.0015942665 0.054374117 -0.08067277 -0.039712295
-0.05675326 0.023323674 0.035096217 0.04549383 0.10236572 -0.14369804 -0.056852978 -0.030959811
-0.015885852 0.033086568 0.06858282 0.0446707 0.004268994 -0.0015644348 -0.10224753 -0.08990017
-0.06314172 -0.08227239 0.0079461625 0.010960567 0.04492668 -0.101552196 -0.058734853 -0.011932346
0.042007513 0.082272224 0.004486558 0.0711693 0.017777441 0.028194802 0.0027400348 -0.011837415
-0.02805066 0.018611327 0.0026613101 0.040141553 -0.078058966 -0.032018937 -0.010957812 0.020605432
-0.00702278 -0.012021631 0.048196312 0.016782146 -0.09457279 -0.080241464 -0.0011522718 0.011526941
0.01855745 0.02252966 0.07557822 -0.030708637 0.07764031 -0.081017375 0.01752849 -0.011320805
0.057550788 0.052665748 -0.07693182 0.008057787 0.026424965 -0.023573337 0.09029913 -0.030097662
0.019228682 -0.058004096 0.053335164 -0.053263914 0.05942402 0.035123948 0.07326521 -0.023055913
-0.040526617 0.009255419 0.034601558 0.015451315 0.02515524 -0.0041714716 -0.06549144 0.046824217
0.11688726 -0.005436522 -0.016443055 0.070624925 0.017283032 0.07393766 -0.06110848 -0.038884886
0.04061943 -0.005890407 0.022347625 0.0627973 0.010545264 -0.11525086 -0.041507766 0.026387691
0.035099052 -0.0516172 0.051327363 -0.03286523 -0.07571079 0.030535692 0.013449384 -0.08681269
0.03809776 -0.07432178 -0.017820949 -0.012285463 -0.057622485 0.110017724 -0.049138553 0.029662503
-0.06396787 -0.010778081 -0.09641969 0.060798462 0.026479613 0.018786695 0.032876488 0.009639079
-0.0005249097 0.0122821145 0.006783874 -0.0141840195 -0.14457616 -0.074809745 -0.0044337977 -0.016131744
0.08572873 -0.03520769 0.10979186 0.06677378 0.014184387 -0.034709215 0.017191445 -0.10907256
-0.026968045 0.042910703 0.084363684 -0.06920452 -0.049972873 -0.12039008 0.023183985 0.0071852608
0.017594915 0.024584819 0.039245367 -0.066523336 0.056441784 -0.05267082 0.04115027 0.016117942
0.043496568 0.055523247 0.05011611 -0.09215805 -0.037153862 -0.05516238 -0.041516256 0.034589715
0.10701539 -0.035546 0.026333677 -0.038542937 -0.051798176 -0.00017141223 -0.06879711 0.022760237
-0.061689317 0.004984082 -0.05995853 0.039193876 0.0063652615 0.0026229778 0.064032994 -0.03224303
-0.01780043 0.08338074 -0.07513169 -0.048218995 0.042923648 0.012850435 0.040056936 -0.0035160724
0.021473655 -0.022758817 0.007915274 0.0676592 -0.015568653 -0.13980067 -0.14331952 0.035435263
-0.0023744772 -0.010831335 0.016542077 0.03926299 0.048917394 -0.007958793 -0.12953202 -0.022542048
0.04255387 0.0064083813 0.052230958 -0.0024381967 0.039679095 -0.13227636 0.00798261 0.0029328999
-0.09490462 -0.047419596 -0.003881333 0.007749032 0.076408245 0.041680694 -0.014806107 -0.051809758
-0.09374119 -0.07964143 -0.013349952 0.09587584 0.010142133 0.057160843 0.009744825 -0.067881934
00000000: ae23 80bd 7f21 aebd a60a 44bd 0936 2bbd
00000010: 22c8 26bd 9433 4cbd de88 e6bd 4aa7 c9bb
00000020: 70df 5b3d ad2b 933d 0685 383d 013f 3e3d
00000030: e857 cebd 8eda b5bb cf32 8dbd 359d 8cbb
00000040: 8de8 0a3c 23da 9a3c f42b 1a3b 449b 7dbc
00000050: ccbd 8e3c a5fe 90bc 7eeb a23b 3864 ebbc
00000060: 0f8b 1cbc f6a5 95bc 008d 16bd ba3b 8dbd
00000070: b5f6 d0ba 65b7 5e3d c437 a5bd 5ca9 22bd
00000080: 1b76 68bd 4a11 bf3c 0dc1 0f3d bd57 3a3d
00000090: 1ea5 d13d 9425 13be abde 68bd 6e9f fdbc
000000a0: 0c23 82bc c885 073d 2675 8c3d a0f8 363d
000000b0: ebe2 8b3b b90d cdba 2767 d1bd 951d b8bd
000000c0: 7250 81bd 6d7e a8bd 9f30 023c f393 333c
000000d0: 0a05 383d 99fa cfbd f593 70bd e37f 43bc
000000e0: 1210 2c3d 577e a83d fa03 933b 36c1 913d
000000f0: ffa1 913c c9f8 e63c 2892 333b b8f1 41bc
00000100: 7fca e5bc c876 983c 6069 2e3b 786b 243d
00000110: 61dd 9fbd 4a26 03bd 6588 33bc b9cc a83c
00000120: 591f e6bb 60f6 44bc 7f69 453d b67a 893c
00000130: 61af c1bd a355 a4bd d307 97ba 7fdb 3c3c
00000140: cb05 983c 1f90 b83c c1c8 9a3d ae90 fbbc
00000150: e201 9f3d 70ec a5bd e897 8f3c e67a 39bc
00000160: 60ba 6b3d 0ab8 573d 6e8e 9dbd cf04 043c
00000170: 2b79 d83c df1c c1bc c0ee b83d 5f8f f6bc
00000180: 7885 9d3c b495 6dbd f975 5a3d 432b 5abd
00000190: 9a66 733d 21de 0f3d 120c 963d c1df bcbc
000001a0: 3dff 25bd 0aa4 173c 5dba 0d3d 8327 7d3c
000001b0: 5d12 ce3c d7b0 88bb 6020 86bd c0ca 3f3d
000001c0: 9662 ef3d da24 b2bb 96b3 86bc cda3 903d
000001d0: 2595 8d3c a16c 973d e34c 7abd c245 1fbd
000001e0: 8f60 263d 5104 c1bb 5e12 b73c df9b 803d
000001f0: 0bc6 2c3c a508 ecbd 0c04 2abd 002b d83c
00000200: 06c4 0f3d 8f6c 53bd a43c 523d b19d 06bd
00000210: 420e 9bbd fd25 fa3c ce5a 5c3c daca b1bd
00000220: 660c 1c3d 0436 98bd 3dfd 91bc f748 49bc
00000230: 8e05 6cbd f950 e13d 8245 49bd c7fe f23c
00000240: 9601 83bd 8c96 30bc b077 c5bd cf07 793d
00000250: c6eb d83c 8ee6 993c 7fa9 063d 3aed 1d3c
00000260: 189a 09ba ec3a 493c 424b de3b 1764 68bc
00000270: c60b 14be da35 99bd 6449 91bb b826 84bc
00000280: 8b92 af3d f035 10bd 8eda e03d b1c0 883d
00000290: a265 683c 402b 0ebd 13d5 8c3c 6f61 dfbd
000002a0: 17ec dcbc 22c3 2f3d dec6 ac3d 19bb 8dbd
000002b0: 5bb0 4cbd 138f f6bd 57ec bd3c 5672 eb3b
000002c0: 3623 903c 1a66 c93c c0bf 203d 633d 88bd
000002d0: 802f 673d 5cbd 57bd 2f8d 283d c609 843c
000002e0: 7529 323d 586c 633d 8d46 4d3d 5cbd bcbd
000002f0: a62e 18bd f3f1 61bd f30c 2abd f2ad 0d3d
00000300: e32a db3d af98 11bd b9b9 d73c 33df 1dbd
00000310: 532a 54bd 1fbd 33b9 80e5 8cbd ad73 ba3c
00000320: f0ad 7cbd 8351 a33b 1397 75bd c289 203d
00000330: af93 d03b 44e6 2b3b bb23 833d 4411 04bd
00000340: 35d2 91bc 85c3 aa3d a5de 99bd 4881 45bd
00000350: b5d0 2f3d a28a 523c be12 243d e86d 66bb
00000360: 85e9 af3c b370 babc 11af 013c e890 8a3d
00000370: aa13 7fbc e827 0fbe 5ac2 12be 9124 113d
00000380: 1e9d 1bbb e975 31bc 4083 873c 3bd2 203d
00000390: 9b5d 483d 9965 02bc 0ba4 04be 1aaa b8bc
000003a0: f74c 2e3d 66fd d13b 21f0 553d 27ca 1fbb
000003b0: 8c86 223d 7473 07be 7ec9 023c e535 403b
000003c0: 5a5d c2bd 0d3b 42bd f65d 7ebb 98eb fd3b
000003d0: ed7b 9c3d 60b9 2a3d 5095 72bc 7836 54bd
000003e0: 62fb bfbd 0c1b a3bd c2b9 5abc 8d5a c43d
000003f0: 302b 263c 7d21 6a3d c2a8 1f3c af05 8bbd
