Project/Assets/00_AIBrains/AgentCore/TestCar00_Truck_Monster_00.onnx (onnx, 825369 bytes, 17 tensors)

action_model._discrete_distribution.branches.0.bias f4 [3]
-0.020024022 0.06190264 -0.053678524
00000000: 6b09 a4bc 9f8d 7d3d 03de 5bbd

action_model._discrete_distribution.branches.0.weight f4 [3, 256]
0.03852152 -0.0067162113 0.058684412 -0.029604942 0.011695105 0.013986009 -0.02060094 0.003113089
-0.02837107 0.013626349 -0.0039272513 -0.0023170705 0.07080403 0.023759224 0.07091237 -0.013412886
0.01263275 0.044572126 -0.014090557 0.06278321 0.056919586 -0.027484538 0.0058661904 0.019109394
0.04150885 0.039528836 0.03392059 -0.014578028 0.0049795657 0.036938112 -0.044159573 0.011812051
0.014244694 -0.019222278 0.04269844 0.02089998 0.0555362 -0.074042335 0.043195162 0.04405232
0.01697873 0.016268315 0.035525635 -0.024678092 0.014672866 0.016634742 -0.03541718 -0.024593377
0.017923746 -0.049637258 0.021766847 0.08374285 -0.0043567303 0.03605076 -0.03444337 0.070270024
0.09330695 -0.056518182 0.0125457635 -0.0021062104 0.030167406 0.011211882 -0.03706837 0.065891996
0.035169557 -0.0121709965 -0.013005945 -0.005181018 0.014962061 0.026061337 -0.0022199398 0.032442246
-0.035154257 0.002353229 0.014970097 0.013268784 -0.0013313435 0.02180372 -0.013211969 0.021113586
0.041939415 0.047488853 -0.013978901 0.0057119615 -0.032901343 -0.050650947 0.050856248 0.003181335
0.028019443 -0.0132017275 -0.022739176 0.03417805 0.0036063432 0.018068116 0.06423604 -0.032399576
0.024533384 0.011774444 0.03437555 0.016186953 -0.038073525 0.08717018 -0.0245844 0.06115314
0.029905174 -0.12738416 -0.058896195 -0.06625297 -0.0045443685 0.01214228 0.03159315 0.030063534
-0.048779927 0.04259012 -0.017100677 0.013134806 -0.013414804 0.047099292 -0.0074552847 0.046688158
0.05171855 0.03329798 0.018028926 0.07362666 -0.0440461 0.02197661 0.029896814 0.026266338
-0.050820567 -0.0208596 -0.05358452 0.0114508355 -0.007928807 0.002733071 0.044399824 -0.043707132
-0.0032483179 -0.10289652 0.020944497 0.048094474 0.053648762 0.050404593 0.017157612 0.06278267
0.041154046 -0.004827707 0.10627464 -0.024192061 -0.01845337 0.06365317 0.026546465 -0.082621746
-0.023427062 0.0169409 0.0573012 -0.07775231 -0.0006493222 -0.0065481095 0.030895831 0.019746633
0.07693496 0.035236504 0.07666602 -0.0146794235 0.00889694 0.038756024 0.032907322 -0.03180669
-0.03954099 0.022938382 0.08657809 0.060946263 0.0064292345 0.017678853 -0.051872063 0.07531213
-0.05100443 0.04890783 0.042372096 -0.021608105 0.037828233 -0.0228854 -0.09238569 -0.028391883
-0.12187294 -0.06305869 0.03312927 -0.020167409 0.07409396 0.01176589 -0.01112755 0.024571965
-0.0050343866 0.05801933 0.052214537 0.04410056 0.060543835 0.05309778 0.030828139 0.029015087
0.061119203 0.006485076 0.017705519 0.044169415 -0.09170737 0.04709229 -0.01016984 0.025382552
0.08772144 0.04157496 -0.04915602 -0.043056797 -0.0023805294 0.0030853811 0.01760457 0.05360216
-0.017811792 0.004371689 -0.00093613815 0.04111835 -0.0001856625 -0.05995031 -0.05437643 -0.039461687
-0.0014713963 -0.04804178 0.040718157 0.07880185 0.034215167 -0.02122156 -0.085307844 0.032962844
0.02323402 0.023106039 0.028343925 -0.058891635 0.03214065 0.03292362 0.042520065 0.07750983
0.06561263 -0.02978036 0.011967985 0.05469737 -0.05378925 0.013741684 0.02210454 -0.024978245
-0.026085837 -0.0506351 -0.015664421 0.038421642 -0.019444171 0.05256477 -0.012023853 0.022472363
00000000: bec8 1d3d aa13 dcbb 115f 703d 1086 f2bc
00000010: d39c 3f3c 9325 653c 4dc3 a8bc f704 4c3b
00000020: 726a e8bc 0d41 5f3c 2cb0 80bb fed9 17bb
00000030: b401 913d b4a2 c23c 813a 913d b9c1 5bbc
00000040: 98f9 4e3c 4391 363d 14dc 66bc 7c94 803d
00000050: 8324 693d 4127 e1bc 2c39 c03b 4e8b 9c3c
00000060: 2f05 2a3d fde8 213d 51f0 0a3d aed8 6ebc
00000070: a02b a33b 6b4c 173d abe0 34bd 5587 413c
00000080: 9462 693c 0a78 9dbc 8fe4 2e3d 6f36 ab3c
00000090: ed79 633d 82a3 97bd 69ed 303d 3570 343d
000000a0: fa16 8b3c 2145 853c 5483 113d b629 cabc
000000b0: 7666 703c 9545 883c 9b11 11bd 0d78 c9bc
000000c0: d2d4 923c 7050 4bbd 6350 b23c 5f81 ab3d
000000d0: e7c2 8ebb f6a9 133d 7e14 0dbd bbe9 8f3d
000000e0: b717 bf3d 9c7f 67bd bf8c 4d3c 5908 0abb
000000f0: a321 f73c 0bb2 373c 01d5 17bd 62f2 863d
00000100: f40d 103d dc68 47bc e316 55bc 87c5 a9bb
00000110: 6f23 753c 967e d53c 697c 11bb 29e2 043d
00000120: e9fd 0fbd a238 1a3b 2345 753c 5065 593c
00000130: 7a80 aeba b79d b23c 0477 58bc 66f6 ac3c
00000140: aac8 2b3d ac83 423d c307 65bc 682b bb3b
00000150: 8fc3 06bd 5e77 4fbd a44e 503d f27d 503b
00000160: 0889 e53c 0f4c 58bc 8247 babc 48fe 0b3d
00000170: 6658 6c3b 9603 943c 2f8e 833d 6bb5 04bd
00000180: 3cfa c83c 99e9 403c 60cd 0c3d 809a 843c
00000190: fcf2 1bbd 4886 b23d 3965 c9bc b77b 7a3d
000001a0: b2fb f43c fe70 02be 233d 71bd a3af 87bd
000001b0: ede8 94bb 6af0 463c d267 013d cd47 f63c
000001c0: 76cd 47bd fa72 2e3d b816 8cbc 5f33 573c
000001d0: c4c9 5bbc 30eb 403d 764b f4bb 153c 3f3d
000001e0: d5d6 533d 7663 083d 66b1 933c 93c9 963d
000001f0: af69 34bd 4b08 b43c 2aea f43c 812c d73c
00000200: 3a29 50bd c0e1 aabc 717b 5bbd 499c 3b3c
00000210: d4e7 01bc 531d 333b 97dc 353d 4006 33bd
00000220: bbe1 54bb 69bb d2bd cb93 ab3c b6fe 443d
00000230: cebe 5b3d 0c75 4e3d 1f8e 8c3c 3394 803d
00000240: 2591 283d be31 9ebb 85a6 d93d 6e2e c6bc
00000250: 862b 97bc 985c 823d f977 d93c 9735 a9bd
00000260: 1cea bfbc a4c7 8a3c aab4 6a3d 9a3c 9fbd
00000270: 4637 2aba 8691 d6bb 4119 fd3c b1c3 a13c
00000280: 1490 9d3d 2754 103d 1303 9d3d f781 70bc
00000290: 79c4 113c a3be 1e3d d4c9 063d bb47 02bd
000002a0: bcf5 21bd 46e9 bb3c db4f b13d caa2 793d
000002b0: 54ac d23b 3ed3 903c cd77 54bd 3f3d 9a3d
000002c0: 05ea 50bd 9453 483d 5d8e 2d3d 7b03 b1bc
000002d0: c7f1 1a3d 2a7a bbbc b534 bdbd 1896 e8bc
000002e0: 8598 f9bd ea24 81bd 8fb2 073d 1f36 a5bc
000002f0: 93be 973d b8c5 403c 5450 36bc 254b c93c
00000300: 7ff7 a4bb ada5 6d3d e9de 553d caa2 343d
00000310: d0fc 773d 0f7d 593d 4b8b fc3c 0cb1 ed3c
00000320: 2158 7a3d c380 d43b 2a0b 913c fdea 343d
00000330: 13d1 bbbd d8e3 403d 679f 26bc 12ef cf3c
00000340: 4ca7 b33d 814a 2a3d d357 49bd 535c 30bd
00000350: a802 1cbb 1b34 4a3b 7637 903c f08d 5b3d
00000360: 09ea 91bc 6340 8f3b 2b67 75ba b76b 283d
00000370: 66ae 42b9 758e 75bd d2b9 5ebd 94a2 21bd
00000380: dedb c0ba 75c7 44bd 15c8 263d dd62 a13d
00000390: 3425 0c3d d6d8 adbc e1b5 aebd 0c04 073d
000003a0: 4655 be3c e048 bd3c 8531 e83c 5b38 71bd
000003b0: eaa5 033d ebda 063d 8529 2e3d 79bd 9e3d
000003c0: ea5f 863d f1f5 f3bc 5e15 443c 590a 603d
000003d0: 1e52 5cbd cd24 613c 9514 b53c 2d9f ccbc
000003e0: f7b1 d5bc c066 4fbd ac52 80bc 0360 1d3d
000003f0: 6249 9fbc 284e 573d b2ff 44bc f617 b83c

action_model._discrete_distribution.branches.1.bias f4 [3]
0.029449748 -0.002645283 -0.022878714
00000000: 9940 f13c 7c5c 2dbb 246c bbbc

action_model._discrete_distribution.branches.1.weight f4 [3, 256]
-0.072938904 -0.022823282 0.009248008 0.13238567 0.05742677 -0.076058134 0.02782743 0.011722297
-0.057685435 -0.001594632 0.013465979 0.0014564989 0.021476595 0.0063237743 -0.08330588 -0.034824856
0.018535733 -0.0037314047 -0.084368035 0.013449116 0.015373441 -0.061732076 -0.0065681725 -0.01750588
0.030789133 -0.0770325 0.014540741 0.020780565 0.031142568 -0.06938199 0.03139426 -0.05966109
-0.0037948596 0.060882825 0.018005505 -0.009969285 -0.07426818 -0.059324633 -0.0017956921 0.045631744
-0.061168484 -0.034799464 0.05480122 0.032220833 -0.05848079 0.04494151 0.0069036027 0.027042625
0.0125249205 0.03857484 0.008508493 0.019401517 0.039323755 -0.011726275 0.05662408 -0.054603275
-0.06891284 -0.0363678 0.0921262 -0.013272935 0.028993268 0.03895969 0.02708518 0.029949699
-0.014907557 -0.08630324 0.08971295 -0.04856215 -0.018050473 0.062368512 -0.021550005 0.016984684
0.046124738 -0.06889364 0.027426276 0.035516176 -0.100877926 -0.06863607 -0.0656955 0.04622918
0.015700422 0.005332849 0.002759685 0.07289782 0.001023415 -0.03035729 -0.061001774 -0.018252824
0.0047705006 0.13987459 0.067579046 0.011794722 -0.021398814 -0.0076947403 -0.038820844 -0.015689485
0.018925885 0.0011568796 0.004593522 -0.08599123 0.041193727 -0.05187272 -0.014252108 -0.015497811
0.018200465 0.040168524 -0.024422713 0.0035025235 -0.053174622 -0.031198429 -0.016370926 -0.07684973
-0.055475567 -0.011611225 -0.063581 -0.09418265 -0.041496 -0.040269423 0.013103038 -0.06498139
0.050968595 -0.011368914 0.057315234 0.04770324 0.07550092 -0.06935014 0.0650513 -0.010217988
0.051237337 -0.022067 0.031569906 -0.0061116666 -0.016564049 -0.01823984 0.0013494834 -0.0328736
-0.10023445 -0.0018425004 -0.057940125 0.0018014078 0.043578245 0.0017626864 0.03523503 -0.026854865
0.006455613 0.07270146 -0.0075351414 0.0073794546 0.07889668 -0.10510481 0.082456075 -0.01568195
-0.024736416 -0.0074107796 0.05593318 -0.063945435 0.04661783 -0.014879022 0.06474386 -0.03245217
0.009001427 -0.058835726 0.02586341 0.00682054 -0.016959134 0.03570105 0.08719622 0.0063541047
-0.022432756 0.04120518 -0.047369096 -0.0018389622 0.05260014 -0.0034555988 0.008688089 0.049198437
-0.003507004 -0.040126972 -0.08059329 0.028741492 -0.0342263 0.03149792 0.052031778 -0.01192215
-0.04391321 -0.05208239 -0.012702508 -0.016361274 0.032297455 -0.09979925 -0.0416602 -0.09753476
-0.040834036 -0.03380189 -0.09649165 0.0038456805 0.08662461 -0.028378975 -0.024133231 0.037014518
-0.04002219 0.028755773 -0.028074699 0.010004449 -0.047252018 0.016405873 0.03139759 0.009770642
-0.10104136 0.03502601 -0.003996187 -0.088329375 -0.066116676 0.012654838 -0.043293163 -0.08679831
0.018674273 -0.030642549 0.037631214 -0.11361559 -0.037168544 -0.011223127 0.033904236 -0.013044325
-0.02107926 0.025100494 -0.029387474 0.09752108 0.03187561 -0.047440793 -0.08153105 -0.05978944
-0.03673848 0.029840233 0.036232833 0.0265133 -0.07223963 -0.04221996 0.03967309 -0.024130179
-0.011153452 -0.03321406 0.0011740034 0.02781197 -0.04947126 0.00087796967 -0.015339345 -0.043861456
-0.07130985 -0.05270084 0.011054066 0.06667569 0.0056892494 -0.046564873 -0.002972979 0.008457182
00000000: fe60 95bd e4f7 babc f584 173c 1c90 073e
00000010: 5538 6b3d 5ec4 9bbd 5af6 e33c e10e 403c
00000020: 9047 6cbd f902 d1ba 69a0 5c3c fee7 be3a
00000030: afef af3c aa37 cf3b 469c aabd 82a4 0ebd
00000040: 40d8 973c 958a 74bb 26c9 acbd ae59 5c3c
00000050: e3e0 7b3c c6da 7cbd d339 d7bb 7e68 8fbc
00000060: 7e39 fc3c 37c3 9dbd 4a3c 6e3c 013c aa3c
00000070: b31e ff3c 2518 8ebd 4497 003d 305f 74bd
00000080: 2eb3 78bb 4560 793d 4880 933c 3656 23bc
00000090: ea19 98bd 63fe 72bd 6e5d ebba 5ae8 3a3d
000000a0: ce8b 7abd e289 0ebd 3e77 603d fef9 033d
000000b0: 8e89 6fbd 9714 383d 9e37 e23b 7f88 dd3c
000000c0: 5335 4d3c a700 1e3d 3567 0b3c eeef 9e3c
000000d0: f211 213d 901f 40bc a7ee 673d afa7 5fbd
000000e0: 2d22 8dbd 67f6 14bd a9ac bc3d b976 59bc
000000f0: 4a83 ed3c 3294 1f3d bde1 dd3c 1259 f53c
00000100: d33e 74bc c1bf b0bd 6cbb b73d 1be9 46bd
00000110: 96de 93bc 2076 7f3d a389 b0bc 7723 8b3c
00000120: 4bed 3c3d 1c18 8dbd 12ad e03c 6979 113d
00000130: 1699 cebd 1191 8cbd 5d8b 86bd cf5a 3d3d
00000140: 2c9e 803c 2ebf ae3b d5db 343b 744b 953d
00000150: 1c24 863a daaf f8bc ffdc 79bd f286 95bc
00000160: dc51 9c3b 493b 0f3e e266 8a3d a63e 413c
00000170: 914c afbc 2924 fcbb 9b02 1fbd 3c87 80bc
00000180: 750a 9b3c 70a2 973a 4185 963b 2c1c b0bd
00000190: c1ba 283d 7d78 54bd ac81 69bc 88ea 7dbc
000001a0: 2419 953c c087 243d 2412 c8bc 988a 653b
000001b0: a2cd 59bd d993 ffbc 521c 86bc 6463 9dbd
000001c0: 593a 63bd 023d 3ebc c136 82bd d5e2 c0bd
000001d0: b6f7 29bd 8df1 24bd 20ae 563c f714 85bd
000001e0: 72c4 503d ae44 3abc 61c3 6a3d 7964 433d
000001f0: 3aa0 9a3d 7207 8ebd 9e39 853d 5969 27bc
00000200: 3ede 513d dac5 b4bc 724f 013d 6044 c8bb
00000210: 54b1 87bc b86b 95bc 26e1 b03a 78a6 06bd
00000220: b847 cdbd 0e80 f1ba a052 6dbd 371d ec3a
00000230: 1a7f 323d f109 e73a 9b52 103d bcfe dbbc
00000240: 9b89 d33b 81e4 943d 59e9 f6bb 5acf f13b
00000250: 9594 a13d 3141 d7bd bbde a83d 6f77 80bc
00000260: 06a4 cabc 20d6 f2bb 311a 653d d3f5 82bd
00000270: 56f2 3e3d 24c7 73bc 6e98 843d 91ec 04bd
00000280: b97a 133c bbfd 70bd 81df d33c d67e df3b
00000290: e2ed 8abc 443b 123d ef93 b23d 1836 d03b
000002a0: e6c4 b7bc c3c6 283d 1906 42bd 5509 f1ba
000002b0: 3f73 573d 5477 62bb 7d58 0e3c 4d84 493d
000002c0: c3d5 65bb 2e5c 24bd 180e a5bd 4773 eb3c
000002d0: e030 0cbd f703 013d 461f 553d 1f55 43bc
000002e0: 57de 33bd 5854 55bd 2e1e 50bc 1408 86bc
000002f0: 564a 043d 8d63 ccbd e3a3 2abd 4ec0 c7bd
00000300: 9741 27bd da73 0abd 6a9d c5bd d007 7c3b
00000310: 3e68 b13d 067b e8bc 0eb3 c5bc 899c 173d
00000320: 4fee 23bd 3a91 eb3c e9fc e5bc b3e9 233c
00000330: 558b 41bd 9c65 863c c29a 003d 0b15 203c
00000340: c6ee cebd 6f77 0f3d 72f2 82bb 08e6 b4bd
00000350: 2e68 87bd 3d56 4f3c 2c54 31bd 50c3 b1bd
00000360: cafa 983c 1506 fbbc 3023 1a3d 4aaf e8bd
00000370: 0b3e 18bd 35e1 37bc 2bdf 0a3d ddb7 55bc
00000380: 6aae acbc 8d9f cd3c 00be f0bc 22b9 c73d
00000390: 0090 023d 4751 42bd c0f9 a6bd c6e5 74bd
000003a0: 177b 16bd 8173 f43c e168 143d 6c32 d93c
000003b0: 5ff2 93bd d6ee 2cbd 4080 223d a7ac c5bc
000003c0: f8bc 36bc 770b 08bd 04e1 993a eed5 e33c
000003d0: 60a2 4abd 8c27 663a e051 7bbc 12a8 33bd
000003e0: e60a 92bd d6dc 57bd 1d1c 353c 448d 883d
000003f0: e26c ba3b cfba 3ebd 50d6 42bb fe8f 0a3c

action_model._discrete_distribution.branches.2.bias f4 [2]
0.008024512 -0.008024477
00000000: 3e79 033c 1979 03bc

action_model._discrete_distribution.branches.2.weight f4 [2, 256]
0.034664508 0.032478698 0.05976777 -0.009065925 -0.01995358 -0.026782135 0.022000551 0.030534405
-0.00011742346 -0.031548332 0.037678957 0.010622976 -0.04519479 0.012452633 0.0019183175 0.00096199
0.007826714 -0.0491495 0.032867163 0.0173253 0.10091798 -0.013489119 0.020018332 -0.0003213711
0.00058184896 -0.032161057 -0.020967089 0.04498306 0.14655286 0.039905373 0.013985792 0.016310662
0.01691433 -0.03439411 0.00085820525 0.02229457 0.04873781 0.020106528 0.022687826 -0.011877656
-0.035636287 -0.0038997587 -0.03362648 0.016029805 0.057592854 -0.021366337 -0.030256271 0.0058067264
-0.014173195 -0.047281746 0.062054407 -0.061161567 0.007521209 0.002953465 -0.048588026 0.04896432
0.069771774 -0.038598556 0.009675923 0.025822766 0.004844953 0.042626914 0.01604696 0.097342424
0.027092585 0.01015093 -0.029415676 0.016939918 0.018205598 0.0014093914 0.023491858 0.007004658
0.07736947 -0.028151501 0.041541222 0.042240705 0.0036384382 0.035591464 0.023356605 -0.007970207
0.04250863 -0.011381179 0.08844965 0.04384459 -0.017383503 0.08502313 -0.020811321 -0.030276688
-0.002809957 0.012083525 -0.056014415 -0.008989403 0.048305508 0.0676796 -0.0056650736 0.033854187
0.0027687976 0.012954138 -0.0134472065 -0.06225571 0.037797906 -0.024341283 -0.001243202 -0.009158445
-0.028953576 -0.08535343 -0.020761928 -0.046891116 0.032461975 -0.004548422 0.021661894 0.029567428
0.0005024489 -0.026368076 0.007725191 0.040915795 0.026862653 -0.06477873 0.0069855424 0.02774352
0.03960909 -0.01089289 0.020524941 0.041434545 0.03881207 0.015136553 0.0028446505 -0.014333596
-0.0019933037 0.13988933 0.006156389 -0.0009052324 -0.06708732 -0.08038909 -0.016593536 0.02792681
-0.020042373 -0.044146024 0.017086705 -0.06173462 0.07388014 0.04471018 -0.035307605 0.02580519
-0.021213688 0.025918046 0.042852085 0.008713191 -0.04247327 0.020859156 -0.040341783 -0.028221797
-0.0058326353 -0.011600782 0.037341863 -0.0034953111 0.009856348 -0.00259286 0.06506582 0.021010341
0.09418814 -0.020141106 0.06354654 0.005596942 0.03023355 -0.0057662996 -0.015163418 0.063983776
0.013441792 -0.06785417 -0.023444122 0.058602408 -0.04169879 0.01771281 -0.08063761 0.070875354
-0.052533843 0.014166759 -0.02669682 0.04388813 0.02965314 0.014328318 -0.0008471681 0.016045975
0.02464298 -9.644622e-05 0.029032484 -0.061099343 0.112392075 0.053432997 -0.00766769 0.032768454
-0.017487738 -0.0007298749 0.04187685 -0.012613603 0.042730566 0.038010433 -0.00016171187 -0.017974623
0.007775385 -0.055996947 -0.005039148 0.032626025 0.002843935 0.05282092 -0.0061196564 0.031015268
0.021509232 0.12562665 -0.003718393 -0.06934023 -0.040382165 -0.030102039 0.031435266 0.05056071
0.010362126 -0.042147394 -0.0349621 -0.04102628 0.012375069 0.0023364963 0.05217007 -0.040645804
0.0354452 -0.03296948 0.03212016 -0.010212003 0.030581603 -0.032710757 -0.09800009 0.0352659
0.059448253 -0.040026292 0.08096488 0.0052204467 -0.03007846 -0.055918764 -0.002684267 0.041081965
0.040963016 0.025656097 0.027606726 0.04694541 0.06510039 0.030627077 -0.034357775 0.008238395
0.028201079 -0.07650805 -0.04195416 0.020618042 -0.00722114 0.04869516 0.020854933 -0.00080899696
00000000: 5ffc 0d3d 6208 053d 0dcf 743d 3f89 14bc
00000010: b175 a3bc 3566 dbbc 803a b43c 4a23 fa3c
00000020: 3d41 f6b8 d338 01bd 4055 1a3d fe0b 2e3c
00000030: 2c1e 39bd 2106 4c3c 0e70 fb3a 0e2e 7c3a
00000040: 9e3b 003c fc50 49bd b89f 063d caed 8d3c
00000050: 16ae ce3d 7701 5dbc 7cfd a33c b37d a8b9
00000060: 3987 183a 50bb 03bd 2cc3 abbc 2840 383d
00000070: f411 163e d173 233d aa24 653c f09d 853c
00000080: ec8f 8a3c d7e0 0cbd 2ef9 603a 1aa3 b63c
00000090: 4ca1 473d 72b6 a43c d2db b93c 809a 42bc
000000a0: 5bf7 11bd 1893 7fbb ebbb 09bd f050 833c
000000b0: 7ce6 6b3d 7508 afbc 00dc f7bc 5a46 be3b
000000c0: b036 68bc 81aa 41bd c32c 7e3d 8d84 7abd
000000d0: 7974 f63b ec8e 413b 3d04 47bd d08e 483d
000000e0: 81e4 8e3d 8519 1ebd c387 1e3c 448a d33c
000000f0: 69c2 9e3b 8f99 2e3d ea74 833c 775b c73d
00000100: 45f1 dd3c 1650 263c 25f9 f0bc 95c5 8a3c
00000110: e823 953c 54bb b83a ff71 c03c 5587 e53b
00000120: e273 9e3d fa9d e6bc 2127 2a3d 9704 2d3d
00000130: dd72 6e3b 5bc8 113d 5a56 bf3c 7995 02bc
00000140: 871d 2e3d 2078 3abc 1725 b53d 6396 333d
00000150: d967 8ebc 9b20 ae3d 817c aabc d106 f8bc
00000160: 4127 38bb faf9 453c 5f6f 65bd 4a48 13bc
00000170: ffdb 453d 9a9b 8a3d 15a2 b9bb b0aa 0a3d
00000180: b774 353b 983d 543c ac51 5cbc d8ff 7ebd
00000190: fad1 1a3d 5f67 c7bc f0f2 a2ba 4d0d 16bc
000001a0: 0d30 edbc c7cd aebd eb14 aabc e610 40bd
000001b0: d9f6 043d ee0a 95bb 4974 b13c 6437 f23c
000001c0: c6b6 033a dd01 d8bc 9923 fd3b 5297 273d
000001d0: 110f dc3c b6aa 84bd fae6 e43b 6146 e33c
000001e0: 243d 223d 1878 32bc ec23 a83c 45b7 293d
000001f0: 68f9 1e3d 4eff 773c 516d 3a3b 76d7 6abc
00000200: 16a2 02bb 263f 0f3e 89bb c93b 1e4d 6dba
00000210: 1465 89bd 09a3 a4bd 2bef 87bc c4c6 e43c
00000220: e72f a4bc 76d2 34bd 6bf9 8b3c 71dd 7cbd
00000230: 794e 973d 0622 373d b59e 10bd 6865 d33c
00000240: 54c8 adbc 1552 d43c ab85 2f3d c6c1 0e3c
00000250: 74f8 2dbd d2e0 aa3c 6d3d 25bd 6631 e7bc
00000260: b11f bfbb 3511 3ebc c8f3 183d 9711 65bb
00000270: 857c 213c f9ec 29bb 3b41 853d e11d ac3c
00000280: b6e5 c03d f6fe a4bc b024 823d 8d66 b73b
00000290: 5aac f73c 3af3 bcbb fc6f 78bc ed09 833d
000002a0: f63a 5c3c 21f7 8abd e30d c0bc 1409 703d
000002b0: 5acc 2abd 741a 913c 5525 a5bd 1927 913d
000002c0: ba2d 57bd b21b 683c 4ab3 dabc 0ac4 333d
000002d0: 24eb f23c 52c1 6a3c 7d14 5eba d972 833c
000002e0: 13e0 c93c 2c43 cab8 88d5 ed3c 4e43 7abd
000002f0: d12d e63d 8fdc 5a3d 3f41 fbbb 3738 063d
00000300: 7242 8fbc 1355 3fba 0f87 2b3d 49a9 4ebc
00000310: 3f06 2f3d d4b0 1b3d 3391 29b9 843f 93bc
00000320: a8c8 fe3b 0e5d 65bd 701f a5bb dea2 053d
00000330: 5061 3a3b c05a 583d 6687 c8bb bb13 fe3c
00000340: 2134 b03c 46a4 003e 48b0 73bb 4002 8ebd
00000350: c567 25bd 8d98 f6bc 44c2 003d bf18 4f3d
00000360: e8c5 293c bfa2 2cbd 6b34 0fbd 2c0b 28bd
00000370: cdc0 4a3c e71f 193b 49b0 553d 377c 26bd
00000380: fc2e 113d 010b 07bd 6e90 033d 3f50 27bc
00000390: 4586 fa3c b7fb 05bd 45b4 c8bd fa72 103d
000003a0: 0380 733d 9cf2 23bd ead0 a53d 4810 ab3b
000003b0: 1a67 f6bc 130b 65bd 87ea 2fbb 9045 283d
000003c0: d6c8 273d bc2c d23c 8027 e23c d549 403d
000003d0: 5a53 853d a3e5 fa3c bdba 0cbd 55fa 063c
000003e0: f305 e73c 41b0 9cbd 20d8 2bbd 2be7 a83c
000003f0: 509f ecbb 9374 473d f7d7 aa3c de12 54ba

action_model._discrete_distribution.branches.3.bias f4 [2]
0.042892814 -0.042892873
00000000: 60b0 2f3d 70b0 2fbd

action_model._discrete_distribution.branches.3.weight f4 [2, 256]
-0.023456946 -0.02809957 -0.018478991 -0.0011517389 -0.044528127 -0.0077879615 -0.013178407 -0.07842723
0.012239844 -0.035322163 -0.014587839 -0.0033355032 -0.020316582 0.04454453 0.057425156 0.011998581
0.004986363 -0.0049033235 0.0018122243 0.05333259 0.014149756 -0.011997018 -0.075927295 0.014020008
-0.018522289 -0.022532932 -0.016119076 0.021374878 0.053490836 0.059239037 -0.0045733503 0.031709023
-0.039487153 0.052878924 -0.017440265 0.022362957 0.009424461 0.009743755 -0.0093327565 -0.043801203
-0.029360637 0.028968882 -0.02043959 0.008407676 0.026280317 -0.046281353 0.10215458 -0.008489192
-0.019820785 0.01134811 0.018506838 -0.03833633 -0.010688986 0.011431038 0.01894479 0.010388099
-0.0058468906 -0.0021181433 -0.040498298 -0.018365646 0.008921558 -0.030002277 -0.00648952 0.0070223217
0.011641013 0.043010373 0.018090045 -0.0124593405 0.029815009 -0.027868563 0.0031620038 0.031305943
0.010380853 -0.008678395 0.024996627 0.004301535 -0.0089433305 -0.02128254 0.010031862 -0.0122849895
0.0016729198 -0.013291526 -0.008565586 0.0004081118 -0.002132172 0.015218699 0.06689557 0.006617596
-0.021817548 -0.028047998 -0.03247787 -0.013528727 -0.003447804 0.045136787 -0.040777437 -0.049184144
0.054371983 0.010766767 0.039832875 0.054051608 -0.008687336 -0.013013621 0.06392812 -0.0016803754
0.037793268 0.008933957 0.08417782 -0.020095322 -0.044693157 -0.028910197 -0.060180772 -0.02030055
-0.027000448 0.01135505 0.028618386 -0.033457316 0.022235265 -0.06736653 0.0017206711 0.046478253
0.0027020948 -0.008147991 -0.010951542 0.08873824 0.0054452824 -0.00085460936 -0.03491177 -0.0020995182
0.01555783 0.05118873 -0.074724734 0.04654991 -0.011770618 -0.01391074 0.010849046 0.008750249
0.01532733 -0.031786893 0.035511732 0.052182693 -0.024628272 -0.0053155012 -0.012027753 0.004992118
-0.0347792 0.010650407 -0.036179975 0.026594114 0.043153424 0.03548954 0.021379996 -0.048516575
-0.03142235 -0.018144488 -0.044477478 -0.11507234 0.001507979 -0.0016853226 -0.04692881 0.04162268
0.081803 0.049013674 -0.011428425 -0.0077866283 -0.020301519 0.08091537 0.015629234 0.026106661
-0.044888202 -0.00094748416 -0.05405954 -0.012747903 -0.020641908 -0.011420413 0.022088692 -0.037606716
0.08271762 -0.013999211 0.025951747 -0.07064554 0.008885109 -0.09760678 0.05767657 0.01602133
0.067881815 0.07228499 -0.0013932656 -0.01250251 -0.024786452 -0.019766046 -0.010267293 -0.021584313
0.027841879 -0.031278875 0.027974434 -0.014244491 -0.017684154 -0.015905518 0.0047875782 -0.032309175
0.009998844 0.0766286 0.022979533 0.02670885 0.035205588 -0.01882326 -0.0045219045 -0.0021402224
0.0331207 -0.01885264 -0.025049018 0.048501648 -0.0069153616 0.023684178 -0.014638208 0.024636386
0.050291665 -0.01796738 -0.04835394 0.056843184 -0.015823063 0.041476425 0.012883242 -0.05402396
0.024137665 -0.080514565 0.018327223 -0.037605274 -0.0012401779 -0.030550482 -0.03359111 -0.024221253
0.015672585 -0.0102822315 -0.048387747 0.0150891 -0.00020469172 -0.044617683 0.017405987 -0.015266462
-0.008346051 -0.020436643 -0.032359358 -0.017958192 0.0003298724 -0.042656757 -0.030607888 0.008710583
-0.023238452 0.0038222715 0.048960824 -0.0063615353 -0.029202359 -0.012211907 -0.051906597 0.044915587
00000000: c828 c0bc 1231 e6bc 4161 97bc f2f5 96ba
00000010: 2063 36bd 2832 ffbb 3fea 57bc 759e a0bd
00000020: a089 483c f9ad 10bd d501 6fbc 7598 5abb
00000030: f66e a6bc 5374 363d a436 6b3d b295 443c
00000040: a564 a33b 0fac a0bb 2888 ed3a 4673 5a3d
00000050: 61d4 673c 248f 44bc c57f 9bbd 2db4 653c
00000060: 0ebc 97bc fc96 b8bc 270c 84bc 5e1a af3c
00000070: 3519 5b3d a2a4 723d 0bdc 95bb 52e1 013d
00000080: 48bd 21bd 9297 583d e3de 8ebc 8532 b73c
00000090: 0e69 1a3c 45a4 1f3c 6be8 18bc e468 33bd
000000a0: b885 f0bc 2650 ed3c ed70 a7bc 59c0 093c
000000b0: d249 d73c 8491 3dbd 6c36 d13d 4116 0bbc
000000c0: 335f a2bc 6ced 393c a79b 973c 8e06 1dbd
000000d0: db20 2fbc 4049 3b3c 1b32 9b3c d832 2a3c
000000e0: 4697 bfbb 8cd0 0abb 8be1 25bd 8d73 96bc
000000f0: ba2b 123c 56c7 f5bc 0aa6 d4bb 811b e63b
00000100: f3b9 3e3c a52b 303d 9331 943c 4322 4cbc
00000110: 9b3e f43c 9d4c e4bc 9f39 4f3b a93a 003d
00000120: 7414 2a3c d42f 0ebc bac5 cc3c e4f3 8c3b
00000130: 0c87 12bc b958 aebc ae5c 243c fb46 49bc
00000140: e045 db3a b3c4 59bc ac56 0cbc d7f7 d539
00000150: e9bb 0bbb da57 793c 8b00 893d 6bd8 d83b
00000160: b7ba b2bc eac4 e5bc 8407 05bd 98a7 5dbc
00000170: 8df4 61bb 5ae1 383d 3e06 27bd 5075 49bd
00000180: 28b5 5e3d 1867 303c cc27 233d 3865 5d3d
00000190: 5455 0ebc 1537 55bc bfec 823d 0b40 dcba
000001a0: 1dcd 1a3d bb5f 123c 6c65 ac3d f29e a4bc
000001b0: 2c10 37bd 14d5 ecbc 1d80 76bd 574d a6bc
000001c0: 0b30 ddbc 880a 3a3c 1b71 ea3c 8a0a 09bd
000001d0: bb26 b63c 77f7 89bd 2488 e13a fb5f 3e3d
000001e0: a115 313b 277f 05bc 196e 33bc 65bc b53d
000001f0: 576e b23b dd07 60ba a5ff 0ebd 1298 09bb
00000200: 45e6 7e3c 46ab 513d 4809 99bd 1eab 3e3d
00000210: 8dd9 40bc dfe9 63bc 32c0 313c 345d 0f3c
00000220: 7b1f 7b3c f932 02bd c074 113d 85bd 553d
00000230: 3bc1 c9bc a82d aebb 0d10 45bc ec94 a33b
00000240: a274 0ebd 0b7f 2e3c 7431 14bd e6db d93c
00000250: a5c1 303d 7b5d 113d 1a25 af3c 51b9 46bd
00000260: b9b4 00bd c0a3 94bc 042e 36bd 0cab ebbd
00000270: 61a7 c53a 0be6 dcba 6d38 40bd 8b7c 2a3d
00000280: 5588 a73d 90c2 483d 4a3e 3bbc f926 ffbb
00000290: 5f4f a6bc f5b6 a53d e108 803c a3dd d53c
000002a0: b1dc 37bd 9660 78ba 896d 5dbd 95dc 50bc
000002b0: 3819 a9bc af1c 3bbc 58f3 b43c 8009 1abd
000002c0: db67 a93d f25c 65bc c298 d43c 9cae 90bd
000002d0: d992 113c 10e6 c7bd 443e 6c3d 2a3f 833c
000002e0: 9f05 8b3d 270a 943d 3c9e b6ba 54d7 4cbc
000002f0: f50c cbbc 67ec a1bc 2638 28bc 96d1 b0bc
00000300: a714 e43c 471e 00bd a42a e53c ba61 69bc
00000310: 5cde 90bc 4a4c 82bc 1ee1 9c3b a056 04bd
00000320: 31d2 233c 75ef 9c3d 933f bc3c 85cc da3c
00000330: bc33 103d 3d33 9abc 7c2c 94bb f942 0cbb
00000340: 92a9 073d da70 9abc 9933 cdbc aaa9 463d
00000350: 429a e2bb 5205 c23c 18d5 6fbc 3fd2 c93c
00000360: a2fe 4d3d 5430 93bc c80e 46bd 66d4 683d
00000370: 5e9f 81bc 2fe3 293d 3c14 533c 3a48 5dbd
00000380: 5abc c53c d2e4 a4bd f922 963c fd07 1abd
00000390: 778d a2ba 0145 fabc d596 09bd a66b c6bc
000003a0: cb63 803c ce76 28bc 3b32 46bd 4638 773c
000003b0: 84a2 56b9 08c1 36bd 0097 8e3c 2f20 7abc
000003c0: e0bd 08bc bf6a a7bc 3f8b 04bd 0f1d 93bc
000003d0: b9f2 ac39 dab8 2ebd 65bd fabc d5b6 0e3c
000003e0: 915e bebc 137f 7a3b 258b 483d 6d74 d0bb
000003f0: c939 efbc 7314 48bc 039c 54bd 68f9 373d

action_model._discrete_distribution.branches.4.bias f4 [2]
0.010943688 -0.010943692
00000000: 284d 333c 2c4d 33bc

action_model._discrete_distribution.branches.4.weight f4 [2, 256]
0.009546219 -0.017471634 0.013869772 0.03135694 0.011544817 -0.025345609 0.07441053 0.029855398
-0.028746642 -0.05318428 -0.03278036 0.010404794 -0.051957455 -0.042146582 -0.042412177 -0.046010535
-0.024947926 0.036230396 -0.048377763 0.00935179 0.10241297 0.022636458 0.014348016 -0.00051887793
-0.023577781 -0.038618058 0.030718412 -0.029012408 -0.0053376146 -0.02914423 0.0057388954 -0.013469207
-0.02663238 -0.011370535 0.018974753 -0.039822467 -0.029616307 -0.057518315 -0.016928297 0.0019498834
-0.0020795246 0.052868336 0.06132034 -0.03162345 -0.014454557 0.013249322 -0.03178932 -0.053443212
0.0057269842 -0.012338765 0.026979629 0.053858455 -0.00037344208 -0.020919628 0.01331099 -0.0051006316
0.006897662 0.04820812 0.06174686 -0.022718789 -0.000171471 0.030605763 0.07087509 0.021331858
-0.037175134 0.060135365 -0.00092722947 0.001833171 -0.017997686 0.002461229 0.0011813055 0.003055182
-0.014497225 0.013989615 -0.064716265 0.026651122 0.0152428 0.03465482 -0.015327729 0.021069977
0.036802705 -0.0015494771 0.04539225 0.035823267 -0.07180311 0.009943723 0.03447662 0.010810238
-0.019578174 0.043430246 -0.015231674 0.023285894 -0.04849586 -0.032003958 -0.030133342 -0.008941538
-0.023384044 0.011440975 0.012029487 0.02787868 0.014510681 -0.02589565 0.03526789 0.008666737
0.0011973032 -0.024108823 0.016090572 0.011880787 -0.031006783 -0.03595836 0.0042419666 -0.01348135
-0.048835013 0.026536701 -0.029083494 -0.030113684 -0.033127133 -0.0097726425 -0.0449406 0.02034123
0.032242507 -0.07860453 0.012566296 -0.06329271 0.019868584 0.017760774 0.0405891 -0.024095941
-0.057498712 -0.012882164 -0.024727076 -0.029958457 0.017497322 0.010473535 0.059920467 0.03310811
0.03314553 -0.033010386 -0.046670534 0.0028855274 0.012062375 -0.027835866 0.011451988 0.045533296
0.028603343 -0.045212712 0.05333026 0.040962063 -0.006147518 -0.027749702 -0.02100001 -0.05868353
-0.0350711 0.024572434 -0.023232898 -0.030072743 0.02565929 -0.0014562109 0.07073453 -0.029214077
0.022548646 0.07654821 0.0068075825 0.022264607 0.0019123852 -0.055764202 -0.042329036 0.034092896
-0.018294694 -0.059931017 -0.028421799 -0.030867644 0.08108775 0.0070770127 0.040948372 -0.017076127
0.040148176 0.020333417 0.08633759 -0.05748622 -0.04158925 -0.013004983 0.072756164 -0.015911687
0.057079937 0.0540657 0.007913779 -0.04640705 0.0065365476 0.028074857 -0.08634704 0.028777651
0.0021057935 -0.008258415 0.011028807 0.010991841 -0.039507177 0.03675917 -0.050720923 0.026389051
-0.001249915 -0.059953924 -0.020926451 -0.011829037 0.01962204 -0.013312227 0.025634604 -0.0041202856
-0.036461476 0.029683927 0.0018354197 -0.021588698 0.084693454 0.01874423 0.06954174 0.056063283
0.04631143 0.010128375 0.008402079 0.043769404 0.062181283 -0.02164855 -0.0025460948 0.08265221
-0.0028165164 -0.013096146 0.027546959 0.123860024 0.04056548 0.00029538415 0.081773795 0.013700274
-0.02651951 0.032123532 0.045574762 0.016931634 -0.10192784 -0.0016279359 -0.006914062 0.023339385
-0.018373234 -0.0122975465 -0.019931754 0.003337004 -0.06300187 0.0315764 -0.018372614 0.012707225
-0.06939301 -0.04149689 -0.012117633 0.0020296269 -0.06029198 -0.030608632 -0.09047 0.013768119
00000000: bf67 1c3c ac20 8fbc 0a3e 633c 2270 003d
00000010: 7926 3d3c 98a1 cfbc 8c64 983d 4f93 f43c
00000020: 147e ebbc c2d7 59bd b344 06bd de78 2a3c
00000030: 57d1 54bd e5a1 2cbd 64b8 2dbd 8b75 3cbd
00000040: 985f ccbc 5366 143d c327 46bd 4038 193c
00000050: e4bd d13d 1870 b93c f113 6b3c 4f05 08ba
00000060: 3126 c1bc f82d 1ebd 2ea5 fb3c 6eab edbc
00000070: 28e7 aebb e1bf eebc 580d bc3b f3ad 5cbc
00000080: 262c dabc 7b4b 3abc f170 9b3c e21c 23bd
00000090: e69d f2bc 5398 6bbd 36ad 8abc 3b93 ff3a
000000a0: a248 08bb 788c 583d 092b 7b3d 9787 01bd
000000b0: ced2 6cbc af13 593c 8535 02bd 45e7 5abd
000000c0: 6da9 bb3b 8828 4abc 6204 dd3c af9a 5c3d
000000d0: 8cca c3b9 a45f abbc 5716 5a3c 3323 a7bb
000000e0: c805 e23b e175 453d 47ea 7c3d c11c babc
000000f0: e5cc 33b9 f0b8 fa3c f626 913d 26c0 ae3c
00000100: f444 18bd 8050 763d 5111 73ba 0347 f03a
00000110: e26f 93bc 924c 213b 09d6 9a3a 7339 483b
00000120: c585 6dbc b334 653c f689 84bd 7453 da3c
00000130: f0bc 793c 36f2 0d3d 2821 7bbc f29a ac3c
00000140: 6fbe 163d d317 cbba 39ed 393d 6bbb 123d
00000150: 820d 93bd ffea 223c 5b37 0d3d 6d1d 313c
00000160: 6862 a0bc eae3 313d 458e 79bc 0fc2 be3c
00000170: 98a3 46bd 9516 03bd 33da f6bc 877f 12bc
00000180: e58f bfbc ed72 3b3c 5317 453c d461 e43c
00000190: 35be 6d3c 1d23 d4bc 1075 103d eefe 0d3c
000001a0: d4ee 9c3a de7f c5bc 60d0 833c a2a7 423c
000001b0: f001 febc 1349 13bd 3200 8b3b e1e0 5cbc
000001c0: 3907 48bd 7f63 d93c 8240 eebc f9b0 f6bc
000001d0: 51b0 07bd 6f1d 20bc a213 38bd a7a2 a63c
000001e0: b810 043d 69fb a0bd dee2 4d3c 9c9f 81bd
000001f0: 71c3 a23c 0b7f 913c c240 263d da64 c5bc
00000200: c583 6bbd b60f 53bc 7090 cabc 706b f5bc
00000210: 8b56 8f3c 3199 2b3c 2a6f 753d 5f9c 073d
00000220: 9bc3 073d e635 07bd 9a29 3fbd 1e1b 3d3b
00000230: 45a1 453c 0b08 e4bc 1ea1 3b3c 1f81 3a3d
00000240: 8f51 ea3c f730 39bd d570 5a3d d6c7 273d
00000250: 1e71 c9bb 5853 e3bc 3708 acbc 245e 70bd
00000260: b7a6 0fbd 214c c93c eb52 bebc 1d5b f6bc
00000270: 6e33 d23c 54de beba 44dd 903d 5c52 efbc
00000280: f0b7 b83c 4fc5 9c3d 2412 df3b 4464 b63c
00000290: 00a9 fa3a 0169 64bd 3661 2dbd fea4 0b3d
000002a0: c1de 95bc 3a7a 75bd d5d4 e8bc 24de fcbc
000002b0: 5611 a63d 49e6 e73b 7bb9 273d 3ce3 8bbc
000002c0: 6a72 243d 4492 a63c c3d1 b03d ac76 6bbd
000002d0: 7d59 2abd da12 55bc 2f01 953d 3a59 82bc
000002e0: a7cc 693d ff73 5d3d cba8 013c 5215 3ebd
000002f0: 8930 d63b 3efd e53c b8d6 b0bd 1cbf eb3c
00000300: 5a01 0a3b 4e4e 07bc 2bb2 343c 1f17 343c
00000310: 47d2 21bd c990 163d bec0 4fbd da2d d83c
00000320: 30d4 a3ba 3f92 75bd f36d abbc 94ce 41bc
00000330: 67be a03c 871b 5abc a9ff d13c 7603 87bb
00000340: a158 15bd b52b f33c 7792 f03a c8da b0bc
00000350: c373 ad3d 808d 993c e66b 8e3d 9da2 653d
00000360: 0eb1 3d3d 7cf1 253c e0a8 093c 8c47 333d
00000370: cdb1 7e3d 4d58 b1bc 62dc 26bb 9045 a93d
00000380: 4e95 38bb 3891 56bc 29aa e13c 53aa fd3d
00000390: fd27 263d cadd 9a39 0579 a73d 1d77 603c
000003a0: 723f d9bc f793 033d 9aac 3a3d 36b4 8a3c
000003b0: 8bbf d0bd 7760 d5ba 5b8f e2bb 3d32 bf3c
000003c0: 7783 96bc a67b 49bc eb47 a3bc a3b1 5a3b
000003d0: 2007 81bd 4156 013d 2a82 96bc f731 503c
000003e0: ec1d 8ebd a5f8 29bd 0989 46bc 7d03 053b
000003f0: b9f4 76bd f4be fabc 5648 b9bd ad93 613c

discrete_action_output_shape f4 [1, 5]
3.0 3.0 2.0 2.0 2.0
00000000: 0000 4040 0000 4040 0000 0040 0000 0040
00000010: 0000 0040

network_body._body_endoder.seq_layers.0.bias f4 [256]
-0.011750045 0.03932981 -0.01816848 0.0047093485 0.008928005 -0.01126983 0.0022585364 0.0044504227
0.012304405 -0.02849723 -0.024934622 -0.0064673144 0.059510224 -0.0041466365 -0.016774375 -0.0219367
0.03087697 -0.02284947 0.053977106 0.018305525 0.006281575 -0.023539927 0.0018477624 0.017830458
-0.025901983 -0.0042323065 0.040019345 -0.019017123 0.034921125 0.02094369 -0.0040012547 0.022887304
0.0007451534 0.0014289997 -0.010021179 0.005063393 -0.011664103 -0.011092768 0.03585857 -0.02291357
0.0070594917 0.009895892 0.014061324 -0.013253085 -0.074580304 0.015541585 0.0015022466 0.01913329
-0.020304792 0.010661018 -0.019247327 0.0070657954 0.005302334 -0.007131633 0.012948356 0.029250909
0.00055323745 0.009213768 -0.01695609 -0.024906311 0.02970119 -0.0074199135 -0.015476497 0.0074202125
0.013409169 0.0037704303 0.009901021 -0.014055153 0.039842118 -0.030287208 -0.0076781376 0.0072193043
0.01358732 0.00022206694 -0.016985154 -0.023455765 -0.061946195 0.0065056495 -0.009621972 0.003852864
0.016427252 0.002891136 0.017340172 0.017298352 -0.026696194 -0.005070001 -0.025011329 -0.05808659
0.044132173 0.040220816 0.011466522 -0.022520183 0.0007387944 0.012644749 0.015701685 -0.04415994
-0.033610016 -0.026447697 -0.03074931 -0.010405909 0.012221571 0.025101278 0.013784963 0.051217936
-0.0036569685 -0.040590934 -0.038515978 -0.036233634 -0.022081012 -0.031804178 -0.01586307 -0.005592646
0.0011459779 -0.003169171 0.028696008 0.05404201 -0.008845445 0.05515209 -0.04981754 -0.021306554
-0.015798718 0.020981934 -0.0012087153 -0.01265486 0.026274942 0.011023135 0.054668166 0.04542369
-0.0136662135 0.022799298 0.021139493 -0.012567867 0.03115014 0.011592303 -0.00078751595 -0.01372986
-0.015596423 0.03370119 -0.003344423 -0.00054989493 0.008178434 0.010664169 0.015801897 0.0016315008
0.011447004 -0.0018202084 -0.017043758 0.009596304 -0.015563098 -0.0119497655 0.0069383006 0.0050279647
-0.007043855 -0.0009604984 0.022242267 -0.005414347 -0.0066727996 0.016731624 -0.008366077 0.04360085
-0.014398593 0.0040086503 0.004329829 0.027172457 0.02501876 -0.03583685 -0.016276577 0.022389937
0.05490202 -0.030578792 0.045523312 -0.009001898 0.002644563 0.04808066 -0.016635407 0.0077403877
-0.002118461 -0.007892045 -0.030304613 0.011037323 0.02117555 0.021928059 -0.011655127 -0.023483153
-0.036259957 -0.05714616 -0.012918957 -0.030213628 0.009478742 -0.026181309 -0.0061099827 -0.019296726
-0.04452315 -0.019558817 -0.057172116 0.005179547 0.015291098 0.008440331 -0.0100770425 0.0076996502
0.004750084 -0.05389039 -0.06708419 -0.0034991396 -0.015652306 0.0031825693 0.012230805 -0.0007135426
0.004470581 -0.0090487795 -0.020124257 -0.032809917 -0.010695141 0.04800812 0.006794291 -0.0013627015
0.009203265 0.027168315 -0.009693156 0.0074393046 -0.027709046 0.031670623 -0.051922347 0.02390062
0.006884453 0.031168683 0.0043037776 0.015328361 0.004443153 0.030295331 -0.0007477125 -0.0034912967
-0.0053326245 0.009327342 -0.029522551 0.0061934097 0.0041765487 -0.046166558 0.013099747 0.024345705
0.010011897 -0.013955062 -0.034873758 -0.028199024 -0.011833848 -0.0022363148 -0.029020919 -0.00026088193
0.05508086 0.037858825 0.0027341684 -0.017973175 0.0038944199 -0.0047859256 0.027094215 0.0008163446
00000000: 4383 40bc 4b18 213d 10d6 94bc e150 9a3b
00000010: c446 123c 18a5 38bc f403 143b dad4 913b
00000020: 6a98 493c 0673 e9bc b143 ccbc c4eb d3bb
00000030: fec0 733d 82e0 87bb 6a6a 89bc 98b4 b3bc
00000040: b3f1 fc3c d02e bbbc 1917 5d3d 78f5 953c
00000050: acd5 cd3b ced6 c0bc 9e30 f23a 2e11 923c
00000060: 6530 d4bc 29af 8abb 53eb 233d ccc9 9bbc
00000070: 7409 0f3d 1a92 ab3c f51c 83bb 287e bb3c
00000080: 6656 433a 464d bb3a df2f 24bc d2ea a53b
00000090: cb1a 3fbc 71be 35bc 70e0 123d 3db5 bbbc
000000a0: 4f53 e73b 6122 223c 7861 663c 7823 59bc
000000b0: 8fbd 98bd 22a2 7e3c 08e7 c43a 6bbd 9c3c
000000c0: 3c56 a6bc 8dab 2e3c 92ac 9dbc 3088 e73b
000000d0: 34bf ad3b 79b0 e9bb 5725 543c 9a9f ef3c
000000e0: 2307 113a 58f5 163c 80e7 8abc 5208 ccbc
000000f0: e94f f33c bf22 f3bb 2291 7dbc 4125 f33b
00000100: 22b2 5b3c 5319 773b e437 223c 9647 66bc
00000110: 7d31 233d e11c f8bc e398 fbbb ea8f ec3b
00000120: 5a9d 5e3c a4da 6839 7324 8bbc 4e26 c0bc
00000130: 4bbb 7dbd 582d d53b 7aa5 1dbc 5580 7c3b
00000140: 7292 863c 3779 3d3b fa0c 8e3c 46b5 8d3c
00000150: fab1 dabc 4022 a6bb 8fe4 ccbc 34ec 6dbd
00000160: f0c3 343d 95be 243d 14de 3b3c 3f7c b8bc
00000170: a7ab 413a ec2b 4f3c d2a0 803c 0ee1 34bd
00000180: a8aa 09bd d7a8 d8bc fae5 fbbc 8c7d 2abc
00000190: fc3c 483c 32a1 cd3c 53da 613c e6c9 513d
000001a0: c0a9 6fbb ae42 26bd eec2 1dbd b869 14bd
000001b0: 3de3 b4bc 1945 02bd 45f3 81bc 8442 b7bb
000001c0: a334 963a deb1 4fbb e413 eb3c 285b 5d3d
000001d0: 7cec 10bc 28e7 613d 7a0d 4cbd 158b aebc
000001e0: 506c 81bc 4ee2 ab3c c16d 9eba 5456 4fbc
000001f0: 8c3e d73c 619a 343c baeb 5f3d 310e 3a3d
00000200: 41e8 5fbc 98c5 ba3c bb2c ad3c 74e9 4dbc
00000210: 942e ff3c a5ed 3d3c 4d71 4eba 35f3 60bc
00000220: 2488 7fbc 420a 0a3d 1b2e 5bbb d326 10ba
00000230: d7fe 053c c4b8 2e3c fb72 813c 15d8 d53a
00000240: 378c 3b3c 0f94 eeba 5a9f 8bbc d139 1d3c
00000250: 5dfc 7ebc f3c8 43bc af5a e33b a0c1 a43b
00000260: 23d0 e6bb f5c9 7bba 6a35 b63c d66a b1bb
00000270: 80a7 dabb c210 893c df11 09bc ce96 323d
00000280: 14e8 6bbc ff5a 833b 3de1 8d3b c698 de3c
00000290: 24f4 cc3c a9c9 12bd 7556 85bc 1a6b b73c
000002a0: f1e0 603d 6080 fabc a776 3a3d b27c 13bc
000002b0: 6850 2d3b 3af0 443d fa46 88bc 14a3 fd3b
000002c0: e1d5 0abb a34d 01bc 6141 f8bc e3d5 343c
000002d0: 5978 ad3c 79a2 b33c 25f5 3ebc be5f c0bc
000002e0: 5285 14bd 1812 6abd 08aa 53bc 9282 f7bc
000002f0: ba4c 1b3c 2f7a d6bc 4036 c8bb 2b14 9ebc
00000300: e85d 36bd d039 a0bc 4f2d 6abd 30b9 a93b
00000310: 8387 7a3c 5049 0a3c 2e1a 25bc 594d fc3b
00000320: 98a6 9b3b 2bbc 5cbd 7063 89bd d251 65bb
00000330: 4439 80bc a792 503b b763 483c 090d 3bba
00000340: f47d 923b 5541 14bc a0db a4bc b163 06bd
00000350: ac3a 2fbc 2aa4 443d a5a2 de3b ad9c b2ba
00000360: 4bc9 163c 1690 de3c 0bd0 1ebc 69c5 f33b
00000370: 15fe e2bc 0eb9 013d 87ac 54bd 3ccb c33c
00000380: fa96 e13b 7755 ff3c b406 8d3b ce23 7b3c
00000390: de97 913b ea2d f83c 2302 44ba 3dce 64bb
000003a0: 4cbd aebb b5d1 183c 47d9 f1bc 16f2 ca3b
000003b0: 6edb 883b 2519 3dbd 52a0 563c a570 c73c
000003c0: f108 243c c6a3 64bc c9d7 0ebd a401 e7bc
000003d0: c2e2 41bc 238f 12bb 47bd edbc fbc6 88b9
000003e0: 789c 613d db11 1b3d bc2f 333b 7b3c 93bc
000003f0: 8639 7f3b 41d3 9cbb b0f4 dd3c f5ff 553a

network_body._body_endoder.seq_layers.0.weight f4 [256, 273]
0.023183968 0.058676243 -0.022809867 -0.033601962 -0.04418689 -0.012235189 -0.017028714 -0.011758914
-0.034277175 0.11944987 -0.05917312 0.02308819 -0.04152863 -0.054416973 0.013263061 0.0019419293
0.022932313 0.0108845765 0.03941843 0.011216418 -0.066967845 0.025481086 0.1370197 0.017416721
0.062066164 0.088305034 -0.14136992 -0.092804104 0.018661587 -0.036052946 0.06564642 -0.06079727
-0.0042978884 0.09812985 0.025626058 0.012597236 -0.020425795 0.10434427 0.030831192 -0.033274118
-0.047643557 -0.15974739 -0.03574066 -0.1922746 -0.08493464 -0.14623846 0.14130533 0.056990508
-0.05481651 0.021045212 0.036327146 0.013734938 -0.012860777 -0.006161432 0.07059549 -0.10859519
0.06937062 -0.07799603 -0.04894425 -0.09644209 0.021982852 0.16503726 -0.16983944 0.01766537
-0.01810857 -0.0915259 -0.14989652 0.025015157 0.06646356 0.03465498 -0.010567631 -0.0030999382
-0.07483314 -0.046755645 0.039402764 -0.058794096 0.037308663 0.06646628 0.0040842453 0.063823596
0.024507478 0.07018623 0.19877443 0.11804894 -0.1136121 -0.064787574 -0.018258812 -0.031907376
-0.015675468 -0.09030959 0.118122905 0.123710975 0.017961754 -0.010915031 0.024749763 0.080605105
-0.11337967 -0.10409561 -0.044060208 0.07866286 0.04335699 0.043870736 -0.07089797 0.10592254
-0.04942277 9.784041e-05 -0.022221899 0.045613695 -0.24448535 0.04562088 0.07948562 -0.10500598
-0.10794101 -0.042612072 -0.0014401404 -0.0832526 -0.09236759 -0.02896331 -0.029901544 -0.11436689
0.0356539 0.14209858 -0.036947384 -0.17730412 -0.023428833 -0.12723212 0.059066106 -0.009174629
0.06951755 0.061092947 0.029666686 0.0367499 0.018084314 -0.103564285 0.096034914 0.049065962
0.19203906 -0.057235114 -0.12093531 -0.09391204 -0.053845543 0.0037148963 -0.10016429 0.123488285
0.038470395 0.1054661 0.02822259 0.15924712 0.056263562 -0.060042623 0.075301625 0.03778348
0.02017154 0.061626155 -0.028469091 -0.014606139 0.051645745 0.16062114 -0.1468526 0.011941915
0.114055224 0.12118743 -0.05851036 -0.0907058 0.036167517 -0.12148521 -0.11305319 -0.01625687
-0.035605162 0.09083479 0.046701044 0.07510403 0.08372587 -0.07104308 0.118660554 0.06939453
0.14327082 0.06564818 -0.13616149 0.06771683 0.01182375 -0.065769695 0.060772162 0.11702973
-0.009534729 -0.15377785 0.01974797 -0.11992514 -0.05366478 0.029900588 -0.040889747 -0.02760535
-0.095624045 0.0070130164 -0.04100657 0.0139236 -0.012723935 0.07432902 0.10802245 -0.12427836
-0.0641302 0.0043537635 0.17347726 -0.06430729 -0.009818055 -0.057074133 0.035448976 -0.03437574
-0.029964782 0.121255964 -0.09623776 0.09944213 -0.0010312037 0.1259487 0.031220663 -0.058263496
-0.022409476 -0.026527174 -0.12219548 0.022263829 -0.16625123 0.29258242 -0.1215199 0.04250579
-0.061921407 0.031555314 0.020736814 -0.08335576 0.11669219 0.04948378 0.026020942 -0.099034525
-0.06907039 0.06437874 -0.09693339 0.012564923 0.10116338 0.025883641 0.0689375 0.034467217
-0.0016235956 -0.13145843 0.15970479 -0.029783543 0.025193334 -0.04848157 -0.0023751596 0.024404645
0.089621715 0.12428376 0.028744087 0.013139348 -0.09085845 -0.035043478 -0.01609241 -0.1031032
00000000: 4eec bd3c 8056 703d c2db babc 36a2 09bd
00000010: 50fd 34bd 1a76 48bc cd7f 8bbc 76a8 40bc
00000020: 3966 0cbd 22a2 f43d 835f 72bd 7223 bd3c
00000030: ed19 2abd 55e4 5ebd 4f4d 593c 5688 fe3a
00000040: 8cdc bb3c 3955 323c 3875 213d 11c5 373c
00000050: 7026 89bd b6bd d03c e44e 0c3e 83ad 8e3c
00000060: 1739 7e3d 45d9 b43d 47c3 10be 1410 bebd
00000070: 2fe0 983c 41ac 13bd a171 863d 8f06 79bd
00000080: 4dd5 8cbb 4ef8 c83d bded d13c a364 4e3c
00000090: ff53 a7bc 73b2 d53d b291 fc3c 714a 08bd
000000a0: e425 43bd d294 23be cc64 12bd a2e3 44be
000000b0: 36f2 adbd 89bf 15be 58b2 103e e16e 693d
000000c0: 4787 60bd 0267 ac3c c6cb 143d 8108 613c
000000d0: 02b6 52bc d6e5 c9bb 5e94 903d 2867 debd
000000e0: 2f12 8e3d 62bc 9fbd c479 48bd 6e83 c5bd
000000f0: 6215 b43c 87ff 283e 64ea 2dbe f7b6 903c
00000100: 6c58 94bc ee71 bbbd 797e 19be 96ec cc3c
00000110: 0c1e 883d 61f2 0d3d db23 2dbc 5528 4bbb
00000120: 1e42 99bd d982 3fbd cb64 213d 14d2 70bd
00000130: f8d0 183d 791f 883d 22d5 853b f2b5 823d
00000140: e8c3 c83c ccbd 8f3d 868b 4b3e a5c3 f13d
00000150: 76ad e8bd 59af 84bd 8193 95bc 4fb1 02bd
00000160: d769 80bc 3cf4 b8bd 6cea f13d 2e5c fd3d
00000170: 8724 933c f5d4 32bc 04c0 ca3c 4a14 a53d
00000180: 9a33 e8bd 1430 d5bd 7a78 34bd fe19 a13d
00000190: 1997 313d cdb1 333d f432 91bd ebed d83d
000001a0: 886f 4abd ac2f cd38 b30a b6bc 6dd5 3a3d
000001b0: 5e5a 7abe f6dc 3a3d 5bc9 a23d 600d d7bd
000001c0: 2d10 ddbd ff89 2ebd 18c3 bcba 5780 aabd
000001d0: 382b bdbd 7744 edbc 15f4 f4bc 3039 eabd
000001e0: d309 123d 4a82 113e 2456 17bd 368f 35be
000001f0: d3ed bfbc 2349 02be 4def 713d 2f51 16bc
00000200: 385f 8e3d 993c 7a3d 8d07 f33c 1087 163d
00000210: 8e25 943c 8319 d4bd f4ad c43d 64f9 483d
00000220: e3a5 443e 5e6f 6abd efac f7bd f554 c0bd
00000230: 258d 5cbd 9e75 733b ef22 cdbd 6de7 fc3d
00000240: 2293 1d3d 9cfe d73d 1033 e73c ad11 233e
00000250: 9f74 663d 41ef 75bd bd37 9a3d dac2 1a3d
00000260: c93e a53c b56b 7c3d 0338 e9bc 964e 6fbc
00000270: 7d8a 533d de79 243e 8760 16be 06a8 433c
00000280: c995 e93d 1e31 f83d 8fa8 6fbd f6c3 b9bd
00000290: 6424 143d 3dcd f8bd 6e88 e7bd 212d 85bc
000002a0: b8d6 11bd 9707 ba3d 9849 3f3d 24d0 993d
000002b0: 7878 ab3d 097f 91bd 4e04 f33d b81e 8e3d
000002c0: 96b5 123e 8e72 863d eb6d 0bbe 1faf 8a3d
000002d0: 67b8 413c 43b2 86bd 3bec 783d 48ad ef3d
000002e0: 8d37 1cbc f177 1dbe 7fc6 a13c 509b f5bd
000002f0: 9acf 5bbd 14f2 f43c 027c 27bd 9d24 e2bc
00000300: 8ad6 c3bd 72cd e53b 81f6 27bd d01f 643c
00000310: 0d78 50bc d039 983d e03a dd3d a785 febd
00000320: b256 83bd 04aa 8e3b 06a4 313e 8ab3 83bd
00000330: e8db 20bc 91c6 69bd f232 113d 93cd 0cbd
00000340: b478 f5bc 0c55 f83d 4d18 c5bd 51a8 cb3d
00000350: 7429 87ba b2f8 003e 7ac2 ff3c b4a5 6ebd
00000360: 1494 b7bc 844f d9bc a041 fabd a262 b63c
00000370: c33d 2abe 5dcd 953e 6ddf f8bd 8d1a 2e3d
00000380: 4da1 7dbd 2540 013d 40e0 a93c 6db6 aabd
00000390: 51fc ee3d 81af 4a3d df29 d53c 9dd2 cabd
000003a0: c774 8dbd 00d9 833d 0385 c6bd 1bdd 4d3c
000003b0: bf2e cf3d ee09 d43c 1b2f 8d3d 7f2d 0d3d
000003c0: d4ce d4ba 0a9d 06be a789 233e 9efc f3bc
000003d0: 4062 ce3c 9c94 46bd 91a8 1bbb 40ec c73c
000003e0: 978b b73d 7c88 fe3d b878 eb3c 6b46 573c
000003f0: ff13 babd c089 0fbd 3bd4 83bc c527 d3bd
