Project/Assets/00_AIBrains/AgentCore/TestCar00_Car_Hot_00.onnx (onnx, 825369 bytes, 17 tensors)

action_model._discrete_distribution.branches.0.bias f4 [3]
00000000: 046f 373c 6aac 913c 1174 02bd
0.011195902 0.017782409 -0.03184897

action_model._discrete_distribution.branches.0.weight f4 [3, 256]
00000000: 86da 933c 83ff 86bc b7f4 333c d95d 58bb
00000010: b9b2 ee3c c8c8 c83b 22c2 13bc f245 81bc
00000020: 6b90 443a cb1b b23b c3fd 943b 4e4a 50bb
00000030: 4fc2 7d3d 9ec8 fcba 22b6 193d 91bf 383c
00000040: 77fa a23b 625c 31bc 06bc 96bb 10d7 833d
00000050: cad6 8bbd 26c7 993c 37a2 143d 6ee4 97bb
00000060: 42e3 363d 4e08 0e3c 8163 54bc 1559 f0bc
00000070: 9a70 86bc 7458 163d 1edd f7bc 73ce 843d
00000080: f703 5e3d 640f 96bd 9470 5f3c 6050 bf3d
00000090: 7d77 d73c 1847 5bbd ebaf a83d b54f 883c
000000a0: 3007 e7bb e38c a0bb 09b8 26bd 6bf5 273d
000000b0: ddfd 1a3b 8215 b7bd 2e2b f7bc bde6 973c
000000c0: 114f 1cbc a2df 0e3c 65a3 85bd f293 893b
000000d0: a8c8 14bb 1e69 2cbd db0f ecbc dd11 49bb
000000e0: 9d83 833c 5298 473a ada6 adbc d0fe 51bd
000000f0: c802 42bd 4914 30bc 0eb6 1cbd 9274 263c
00000100: 78c6 4c3c 529e 2a3d 8733 0c3d ea92 82bc
00000110: 11a1 b03c 13d5 71bd 984e cd3c 18ef d93c
00000120: fa64 0ebd bb9c e83c 98ad 053c a738 04bc
00000130: 2e1c 05bd 1694 2dbd e500 f13b 4d8c 3bbc
00000140: 4b95 de3c 3396 2ebd 87c8 3dbd 90be 5a3d
00000150: c47f 45bb 7147 dd3a f0a1 3dbc af13 04bb
00000160: 44a3 cb3c cfdf 013d a9c5 f73c f005 693d
00000170: 1de8 ec3c 11ac 00bc c965 0d3d c942 c73b
00000180: d944 4abd 0714 033b 6d9c 8d3d 70a7 c03c
00000190: 6abf 123c bc77 a03d 97ea 18bd d6c1 4839
000001a0: ac72 7abb b879 86bd 0d31 1dbd 8267 e83b
000001b0: 18b5 1cbd 829e 593d 3502 203d 4bc2 903c
000001c0: b864 4abd e0a9 ee3c 6c76 153d 1aab 933c
000001d0: 98cc f43c 8ae7 1ebc 8480 20bd 8ff6 833d
000001e0: c5ab 1d3d 33cd 1c3d 9396 3bbc 3a6c 6abb
000001f0: f5a1 07bd 1eae 773c f599 79bc 3ef3 74bd
00000200: 0c00 e13a 339b 59bd 0524 44bd ccff 213d
00000210: 3ae1 67bd 8669 89bd 4235 083d 5aa0 7dbc
00000220: ae08 e4bc bdaa 73bd 4a1b 7c3c bfe9 213d
00000230: 8243 de3c a8f8 d23c 97d1 cdbd 216e 42bb
00000240: 8f03 043c f066 10bd 95f1 d93c 94a0 87bd
00000250: 6cb2 aebc 8184 1a3d fac6 b4bc 095a 90bd
00000260: d5fb 1cbd 0cb9 95bc fa42 12bc b2e5 21bd
00000270: f0a5 4c3c aad2 573c a5b2 d73c 359c 07bd
00000280: 88a0 f93b 908c 76bb 57ff da3c 5cda 5e3c
00000290: 7b85 14bd 8ca7 8b3d 935e 683d cc3b b8bc
000002a0: 288c 4abd 42ac 173c 33be 3c3d 5092 8d3c
000002b0: b962 49bd 8705 1aba 52aa 6abd c817 8b3d
000002c0: 28cc 62bd a457 9a3c 515d 8b3c 0f1f c3bc
000002d0: 1413 1b3c 1741 e1bc 1c82 abbd 87cb 0f3c
000002e0: 44b2 f0bd a9bb 7abd 277f b1bc 7420 48bb
000002f0: e004 f03c 2b35 04bc 9902 17bd 187c e13c
00000300: 194e f23c 0600 193d 4df1 903c 4123 29bb
00000310: a617 183c 1e71 ac3d cd2a 153d f77f 8ebd
00000320: 0337 983c 8401 043c 0241 af3c aa88 daba
00000330: 5412 04bd 5bb7 82bc 65e3 80bd c0ce cdbb
00000340: 8189 0a3d e235 ddbc ef56 aebc f922 a9bc
00000350: 87cf e33c a8bd b73c 695d 873c 0ed6 073d
00000360: a877 15bd 6f4b 56bc 7e3a f1bc 73cf 353d
00000370: 5433 e83c a2d1 6abd 03e7 a6bc 6c38 b6bc
00000380: 1021 b8bd 56fa 1bbd 4565 233d b1ae b3bb
00000390: cb91 d8bc c2b3 85bc 4f3f 54bd f805 06bb
000003a0: 047e a73c 8606 1a3c 061e 813c 42ca 7fbd
000003b0: ad09 0c3c 1303 773c 031d e73b cfeb 153d
000003c0: 07b1 733d 04bd 46bd 3f00 dfbc 8e0e 043d
000003d0: dfa4 85bd 69f3 333a 5195 0ebd f78d 2bbd
000003e0: aff8 263c dd4f b4bc b7af 913c c2e5 babc
000003f0: 4e6d 52b9 274c 473d 4943 79bd 6c89 36bd
0.018048536 -0.01647926 0.0109836375 -0.0033014922 0.029137956 0.0061274506 -0.009018453 -0.015780423
0.00074983266 0.005435442 0.0045468523 -0.003178257 0.061952885 -0.0019285863 0.03752721 0.011276142
0.0049737054 -0.010825248 -0.004600051 0.06437504 -0.06828077 0.01877172 0.036287513 -0.0046353852
0.044650324 0.008668972 -0.012963177 -0.029339353 -0.016411114 0.03670545 -0.030256804 0.064846896
0.054203 -0.07327154 0.013637681 0.09341502 0.026302094 -0.053534597 0.08236679 0.01663957
-0.0070504174 -0.0048996075 -0.040702853 0.041005533 0.002364985 -0.08939649 -0.030171957 0.018542642
-0.009540335 0.00872031 -0.06525306 0.0041985447 -0.0022702608 -0.042092435 -0.028816154 -0.0030680813
0.016053969 0.0007613945 -0.021197641 -0.0512684 -0.047365934 -0.010747024 -0.03825956 0.0101596285
0.0124984905 0.041654892 0.034228828 -0.015939195 0.021561177 -0.059041094 0.02506189 0.026603267
-0.034764268 0.028395047 0.008159064 -0.008070148 -0.032497577 -0.042377554 0.007354843 -0.0114470245
0.027170798 -0.04262371 -0.046333816 0.05340439 -0.0030135969 0.0016882253 -0.011574253 -0.0020153334
0.024858125 0.03170758 0.030245619 0.056890428 0.028919274 -0.007853524 0.034520898 0.0060809595
-0.049382064 0.002000095 0.069146015 0.02351734 0.0089567695 0.078353375 -0.037333097 0.00019145696
-0.0038215322 -0.06566185 -0.038376857 0.007092417 -0.038258642 0.05312968 0.039064605 0.017670771
-0.04941246 0.029133737 0.03648989 0.018025924 0.029882714 -0.009698758 -0.039185062 0.06443512
0.03849389 0.03828163 -0.011449474 -0.0035770074 -0.03311344 0.015117196 -0.01523446 -0.059802286
0.0017166152 -0.053126525 -0.047885913 0.039550588 -0.056611277 -0.0670958 0.033253916 -0.015480125
-0.02783617 -0.059489 0.015387366 0.03952956 0.0271318 0.025753334 -0.10049742 -0.0029667693
0.008057489 -0.03525442 0.026604453 -0.06622425 -0.021325313 0.03772402 -0.022067536 -0.07048423
-0.038326103 -0.018276714 -0.008927101 -0.039525695 0.012490734 0.013172785 0.026330302 -0.033107955
0.007618014 -0.0037620403 0.026733084 0.013601866 -0.03626011 0.068190664 0.056730818 -0.02248945
-0.04945007 0.009257378 0.046079826 0.017281681 -0.049166415 -0.00058754574 -0.057291336 0.06791645
-0.05537048 0.018840618 0.01701227 -0.02381852 0.009464998 -0.027496858 -0.08374426 0.008776552
-0.117527515 -0.061214123 -0.021667076 -0.0030536922 0.0292992 -0.008069317 -0.03686771 0.027524993
0.029578255 0.037353538 0.017693186 -0.0025808366 0.009282982 0.08420013 0.03641777 -0.06958001
0.01858092 0.008057002 0.021393303 -0.0016672809 -0.03224404 -0.015956571 -0.06293372 -0.00628075
0.03382254 -0.027003232 -0.021281688 -0.02064656 0.027808918 0.022429302 0.016524034 0.033163123
-0.036491066 -0.013079508 -0.029446837 0.044387292 0.028344788 -0.057328828 -0.020373827 -0.0222437
-0.08990681 -0.038080536 0.0398915 -0.0054834713 -0.026436707 -0.016321067 -0.05181819 -0.0020450335
0.020445831 0.009400969 0.015761387 -0.062448747 0.008547229 0.015076417 0.007053019 0.036601838
0.059495 -0.048520103 -0.027221797 0.032240443 -0.06525587 0.0006864579 -0.034810368 -0.041883435
0.010191127 -0.022010738 0.017783983 -0.022814635 -0.0002006788 0.04865661 -0.060855184 -0.04456465

action_model._discrete_distribution.branches.1.bias f4 [3]
00000000: 67d4 6c3d 3174 01bc 9d2f 48bd
0.05781975 -0.007901237 -0.048873533

action_model._discrete_distribution.branches.1.weight f4 [3, 256]
00000000: 2846 523c af39 72bd d58f 413d fce4 973d
00000010: 0f6d 903c b7ea cbbc 41cd 96bb 6d2d 973b
00000020: 5d4c 413d 527a 47bc 19e8 073d ef81 b3bb
00000030: 3475 a03c 8ac0 a53b 3b79 58bd 9c0a a73c
00000040: 6aef e33c 825b c0bc 07f8 7ebd d08a 37bb
00000050: 7657 303d 808a d039 0807 633c a4b0 d8bc
00000060: 1298 33bd 4e4e 25bd e441 9dbc 4f66 12bb
00000070: 5025 433d db3a 74bc a923 3f3d 2055 2dbc
00000080: b131 87bb 022a 823c 6fb2 6e3c 802c abbc
00000090: 3ce6 42bd be68 853c bcef 19bd 5dd4 5fbc
000000a0: 0964 c3bc bb6f 4dbd 286d 0e3d ff4c c43c
000000b0: 1624 e5bc d00b 403d 2f97 4abd e6cd 083d
000000c0: 4f93 303d 6f0d 363d b4a0 8b3d c0ed 5cbd
000000d0: 9e3f 053d 6c74 8f3b dff2 8e3d 47a1 87bd
000000e0: f090 f73b 02f7 363d 7d60 e7bb 43c9 24bb
000000f0: fa98 bcbc 8022 6e3c 0d0b d8bb 0914 243c
00000100: 6399 373c 826f 8fbc 1c9f 903c be5b fb3c
00000110: 516c 553b 586c 043d c1dc 2d3b c917 8bba
00000120: 9d81 093d 1cd9 a8b9 33e5 923c 2992 d83d
00000130: d8b7 10bd 79e2 b83d e7db 1f3d 8b3f 0c3c
00000140: e528 133d bc40 f73c 6050 7a3c 8442 f93c
00000150: 43a4 e3bb 519f 4f3c 5f7b c9bc 603e 2bbd
00000160: b237 003c aad3 833d 4bfb 653d 3d48 133c
00000170: f35d e13c b64f 123d 8e4c c5ba 3a16 64bd
00000180: f3a0 a8bc 0b9a 753c 08b0 4b3c 4eba 33bd
00000190: 6780 1d3d 4f6c babc 3662 bebc 2370 2a3d
000001a0: 8bea a93d c2c8 5b3c a9b0 15bd cbb8 2f3d
000001b0: cb65 403c 82fa fa3c 3493 b73c 416f 49bd
000001c0: c7a0 85bd aa22 d3bb 5e11 19bb e420 5bbd
000001d0: c851 cbbc 3491 23bd 112e 33bd 011d 113c
000001e0: 8299 273d b2ef 253b 8835 953a de18 403b
000001f0: d185 b73d 6b64 c9bc 2d4b 0bbc 726c 103d
00000200: da0c bf3c 421f 543d 8be0 1bbc 8313 b1bb
00000210: 6661 9bbc f48d 34bc 5353 f03c b804 2cba
00000220: 9f92 8fbb 4f33 2b3d 4d60 2ebb 03d8 34bd
00000230: ec24 453d f667 4abc 9da8 f53c 1df3 e4bc
00000240: e8d6 163d 0bf7 bb3c 052c 4abc d9dc 69bc
00000250: fa10 1b3d 5353 c1bb 3fdb 1b3d 4c4e 82bc
00000260: 4946 c93c 7881 3f3d 4b57 283d 8ed3 6abd
00000270: 6033 093c 83cb 273d 536f 043d d878 393c
00000280: 0939 053d e472 0bbd 2bcf 13bd 69f8 11bd
00000290: 2f0f 80bc 706b 33bd 97ba 90bc a11c 813d
000002a0: 3ded be3b 8258 8f3c 6fab e6bc 3ec7 153b
000002b0: c043 48bc a885 cdbc 9f41 8f3c 3d3c ae3d
000002c0: 73f5 d7bc 8493 ea3c a538 a4bd 8c14 743d
000002d0: 88cc 56bd d17f ddbc 08ee 1f3d a4d8 1ebc
000002e0: f151 9fbb d4d1 0fbd e239 0fbd afa8 f03c
000002f0: 6a60 723c e370 32bc 4437 01bd c407 15bd
00000300: 740d 5fbd 601e 343b da9c ffbc 1312 abbc
00000310: c3c7 273d 4905 00bd 4577 9dbc 89f9 7d3d
00000320: a675 82bd 8eaf 0cbd 33ee a5bc 9e3d e1bb
00000330: 3ae7 12bd 886c 993c 00f5 db3c e0bb 3d3b
00000340: f543 8ebd eb6d 0c3c 8714 1a3d d8fb 89bc
00000350: 8e4f 6e3c 0e9c 4dbb f0e4 673b 8288 7abd
00000360: 2bdc c13b 7c11 663c 0453 063d b62a 82bd
00000370: 0e61 1d3d 206e 04bd cc59 1abd 2ad7 d33c
00000380: b534 743d e655 613b 3b74 8ebc 88e1 7c3d
00000390: f805 5b3d 3aaf 8ebc 75f6 e5bc 2960 0ebc
000003a0: d909 a7bc 78da 893d f621 cb3c 8704 f93c
000003b0: 5370 aa3c 5e8b 913b b425 a9bc 01d2 15bc
000003c0: 2da5 eebc e4d0 18bc f5ef 72bd d661 263d
000003d0: 42d0 0dbd c583 213d 6def ae3c 6169 e8bc
000003e0: a105 563b 372b 0ebd e336 acbc 85de 6d3d
000003f0: a3b6 5fbc de74 19bc 84fb abbb 9b8d 83bc
0.012834109 -0.059137043 0.04725631 0.07416722 0.017630128 -0.024892194 -0.004602105 0.0046135695
0.047191966 -0.0121751595 0.03318033 -0.005478136 0.019587137 0.005058353 -0.05284999 0.020390801
0.027824122 -0.023481134 -0.062248256 -0.0028006323 0.04305216 0.00039776042 0.013856657 -0.026451416
-0.043846197 -0.04035788 -0.019196458 -0.0022338813 0.047643006 -0.01490661 0.046664868 -0.010579377
-0.0041257967 0.015889172 0.014568909 -0.020895243 -0.04758285 0.016285297 -0.037582144 -0.013661471
-0.023851411 -0.050155383 0.03477207 0.023962496 -0.027971309 0.046886265 -0.049460586 0.033399485
0.043109234 0.044446405 0.06817761 -0.053937674 0.032531373 0.0043778922 0.06979918 -0.06622558
0.0075551197 0.04466916 -0.007061063 -0.0025144375 -0.023022164 0.014534593 -0.006593114 0.010014542
0.011206004 -0.017509226 0.017653994 0.030683395 0.0032565782 0.032329887 0.0026529285 -0.0010611947
0.033570874 -0.00032205216 0.017931556 0.10574753 -0.035331577 0.09027571 0.039028075 0.008560072
0.035927672 0.030182235 0.015277952 0.030427225 -0.0069470718 0.012672261 -0.02459496 -0.041807532
0.007825779 0.06436856 0.056147855 0.008989391 0.027510619 0.03572055 -0.0015052722 -0.05568526
-0.020584559 0.01499034 0.012432106 -0.043878846 0.038452532 -0.022756724 -0.02324019 0.04161085
0.08296689 0.013414564 -0.03654543 0.04290084 0.011743019 0.03063703 0.02240906 -0.049178366
-0.065248065 -0.0064433413 -0.00233563 -0.053498164 -0.02481927 -0.0399334 -0.043745104 0.008857013
0.04091788 0.0025319871 0.0011383751 0.0029311697 0.0896107 -0.024584016 -0.00850181 0.03525967
0.023321558 0.051787622 -0.009513984 -0.0054039373 -0.018967342 -0.011020172 0.029336607 -0.00065619824
-0.0043814923 0.04179698 -0.0026607693 -0.044151317 0.048130915 -0.012353888 0.029987628 -0.027947957
0.036826044 0.022944948 -0.012339597 -0.014273846 0.037857987 -0.0058998256 0.038050886 -0.015906475
0.024569647 0.04675433 0.041098874 -0.05733066 0.008374065 0.04096557 0.03233273 0.011320315
0.032525096 -0.034045115 -0.036086243 -0.035637293 -0.01563224 -0.043803632 -0.017667098 0.06304289
0.005826621 0.017498259 -0.028157918 0.0022854353 -0.012223184 -0.025088146 0.017487345 0.08507583
-0.026362156 0.028634794 -0.080186166 0.059589908 -0.05244115 -0.027038487 0.039045364 -0.009695206
-0.004862063 -0.035112217 -0.03496731 0.02937731 0.014793495 -0.010891172 -0.031546846 -0.03638436
-0.05445619 0.0027483925 -0.031202722 -0.020882642 0.040961992 -0.03125504 -0.019221911 0.062005553
-0.06370096 -0.03434711 -0.020255184 -0.0068738004 -0.035865046 0.01872851 0.026850224 0.0028951094
-0.069465555 0.008571128 0.037617233 -0.016843721 0.0145453345 -0.0031373533 0.003538426 -0.06116534
0.0059161386 0.014042255 0.032794014 -0.06355803 0.038422637 -0.032331586 -0.037683293 0.025859434
0.059620578 0.0034383475 -0.017389407 0.06173852 0.05347249 -0.017417539 -0.028071621 -0.008689919
-0.020390438 0.06731123 0.024796467 0.030397667 0.020805513 0.0044416627 -0.020647861 -0.009144307
-0.029131496 -0.009327147 -0.059310872 0.040620647 -0.03462244 0.039432306 0.021354401 -0.028370561
0.0032657164 -0.03470918 -0.021022266 0.05807354 -0.013654384 -0.009366242 -0.005248489 -0.016058734

action_model._discrete_distribution.branches.2.bias f4 [2]
00000000: 6067 ce3c 4c67 cebc
0.025195777 -0.02519574

action_model._discrete_distribution.branches.2.weight f4 [2, 256]
00000000: 03af b73c a553 ea3c 516a 283d 0628 efbc
00000010: 19e4 743b 0b7a 65bd f5a8 433d dfbe 1b3d
00000020: 7954 b4bc f4f4 45bc 9b04 473c 4df9 85bc
00000030: edbf 8c3b 0aea dfbb ddb1 d2bc b577 253c
00000040: dacd c1ba 4385 96bd 8a96 84bc 34db b73c
00000050: 9fa3 bd3c 331c 08bc ead3 473c edc3 233b
00000060: 954a 9b3c 5eb4 24bd 5bc7 a8bc f55e 313d
00000070: 26dd 843d 3d3e 843c 662d 95bb 40ac 993c
00000080: c21e b63b ab29 1fbd 5669 e1bb 7b98 883b
00000090: 55ef 4a3d 3e22 003d 7996 403c 7c60 12bc
000000a0: 7f1e ddbc df14 69ba 2ac4 17bd ab75 1d3c
000000b0: e4e6 023c 06ba 14bd 3999 123c 8dbc e53c
000000c0: ed4b 70bd a190 1bbd 61f7 353d 8224 8fbc
000000d0: 65fb a1bc 7fd0 21bd 7d00 c3bc d051 d8bb
000000e0: fbb2 773d 6c6e 48bd 8000 583d 420a 1b3d
000000f0: 59ee 343c 3022 d03b ae9c 84bb a633 243c
00000100: 7bee 583c 8e40 67bb ab5b 38bc 334b 9f3c
00000110: 58bf cebb a7fc 00bd 527c 503b 5c97 f83b
00000120: 3a38 f93a 6219 edbc 76d7 e63b a8d4 8b3c
00000130: 95e0 a9bc 9a26 5d3d 359f 04bc 77d0 a1bc
00000140: 3275 ab3c ab88 ecbc 1c27 783d 9881 2bbc
00000150: dd0a 613a f52e ae3d 13ec 993a 8d6d c8bc
00000160: 48c2 22bb ca1b 7dbd 3b33 de3b f1d2 0c3d
00000170: 1d93 523d b8e2 333d 3c19 b43c 26d3 ba3d
00000180: 21a4 1dbd 32e1 0d3c db06 35bc 3d48 0bbd
00000190: f04c cc3b 81f7 d8bc ba36 d0bb c816 17bc
000001a0: ca92 92bc d22c cfbd a65a b8bc 7240 15bc
000001b0: bdb2 693b 740d 8b3c 13ca 2f3d 28ce 933c
000001c0: c17a 31bb 610f 29bd 5b03 a8bc 191c 443d
000001d0: 538e e1bb 7a87 32bd d16e 8e3c 0905 843c
000001e0: e3eb 1e3b c345 f5bc 05d8 983c a490 003d
000001f0: 8c06 17bd 6062 c4bb 0393 d03c 2bb6 d7bc
00000200: 6a89 1abc 7980 a33d 34b4 d73b de6f 55bc
00000210: b10f 27bd 09d1 0cbd fb9b ebbc ffd8 0bbd
00000220: 5e8c babc 6b38 133d dfc8 4e3c 0b73 88bc
00000230: e250 89ba 6590 f73b 151a e5bc 914a 5b3c
00000240: 0fe6 91bc 4254 093d c1e0 ca3c 6a23 e6bc
00000250: 379b 68bc 1600 063d 6408 87bd 0d9d 84bc
00000260: 96ee b6bc 2c9f 11bd e07b f23c 6752 193d
00000270: 020a bd3c f327 51bc 6172 723d f228 f53b
00000280: bf36 483b 66dd 6dbc 3a4e 0b3d 4eea 13bb
00000290: 7bc2 c43c 9696 9bbb 188e 603c 2c15 9fbc
000002a0: af86 133c 9784 30bd ad90 3abc 21c4 0c3d
000002b0: f0cd 1bbd b791 893c ad11 8abd ae02 5b3d
000002c0: 592b ddbd 0099 5dbb 0731 51bd 0759 a93d
000002d0: 3eaf 2a3c d10f 7d3c 92c1 92bc 5f39 ef3c
000002e0: cb5e f23b 6546 4fbc a282 c53c 0339 2dbd
000002f0: 4855 c13d 05c3 823d 9d28 5dbd e296 bbbc
00000300: 501e 173c c84d 803c 52a9 d83c b401 d7bc
00000310: 14bf d83c 7277 7c3c 1042 d6bc 7973 3cbd
00000320: bc57 243c c7f2 dbbd 1207 c03c 2f05 013d
00000330: 00fe 433c 526b fe3c 5edc d4bc 93c8 a93c
00000340: 092f 383c dca8 263d d743 b8bb b48c 7fbd
00000350: a689 22bd 22fc 00bd f504 223d 10fb 9b3d
00000360: f1c6 243d 33ca 33bd 774c 12bd b10c c9bc
00000370: b5d9 143d be1a 2cb9 2726 553d 4ca2 32bd
00000380: ec33 603c 112f 0b3d 82ac 1c3d 7234 97bc
00000390: 4ac1 463c 1224 95bd 1424 5dbd 93da 1c3d
000003a0: e11a 023d b0d6 b2bc c213 8f3d ab5e 0bbd
000003b0: 9eba 01bc c4db c9bd dc49 8dbc c7ac 623d
000003c0: 9cf3 f13c b9ae 1bbd bfc2 ed3a c5b8 963c
000003d0: ee3e 5f3c 5fdc e43c 387f 23bc dfec febb
000003e0: de45 2d3c 643e 8bbd 45a7 0fbd 804c b63a
000003f0: 8754 e63c c7cc 2f3d d152 41bd a148 cfbc
0.02242232 0.028604338 0.041117016 -0.02919389 0.0037367402 -0.056024592 0.04776855 0.038023826
-0.022012936 -0.012082327 0.012147094 -0.016354227 0.0042953403 -0.0068333196 -0.025719577 0.010099341
-0.001478608 -0.073496364 -0.016185064 0.022443391 0.02314931 -0.0083075045 0.01219652 0.0024988607
0.018956462 -0.040211074 -0.020602873 0.04330345 0.06487493 0.016142959 -0.004552531 0.018758893
0.005557866 -0.038858097 -0.006879012 0.0041685677 0.04954465 0.031282656 0.0117546255 -0.0089341365
-0.02699208 -0.00088913547 -0.03705231 0.009610574 0.007989619 -0.03631022 0.008947664 0.02804401
-0.05866616 -0.037979726 0.044425372 -0.017473463 -0.019773195 -0.039505478 -0.023803944 -0.0066015497
0.060473423 -0.04893343 0.05273485 0.03785158 0.011043155 0.0063517317 -0.004046998 0.01002208
0.013240452 -0.003528628 -0.011252324 0.019445037 -0.006309431 -0.031490948 0.0031812382 0.007586403
0.0019013949 -0.028942768 0.007044728 0.017069176 -0.020736972 0.05399189 -0.008094599 -0.019752724
0.020929907 -0.028873762 0.060584173 -0.010467909 0.00085846876 0.0850505 0.0011743329 -0.0244663
-0.002483504 -0.06179408 0.0067810095 0.034380857 0.05140983 0.043917388 0.021984689 0.091223046
-0.038486604 0.008659648 -0.011048998 -0.03400444 0.0062347576 -0.026485207 -0.00635418 -0.00922174
-0.01789226 -0.10115971 -0.022504162 -0.009109603 0.0035659515 0.016974188 0.042917322 0.018042639
-0.0027081224 -0.041274432 -0.020509413 0.04787836 -0.0068834214 -0.04358623 0.017386826 0.016115682
0.0024249486 -0.029940492 0.018657694 0.03138794 -0.036871478 -0.0059931725 0.025460726 -0.026331982
-0.009432176 0.079834886 0.006582761 -0.0130271595 -0.04078645 -0.03437904 -0.0287609 -0.03414249
-0.02277201 0.035942476 0.012621134 -0.01665642 -0.0010476375 0.007555055 -0.027966538 0.013384477
-0.017809896 0.03352762 0.024765374 -0.028093059 -0.014197162 0.032714926 -0.06593397 -0.016188169
-0.022330564 -0.03555219 0.029600084 0.0374321 0.023076061 -0.012765872 0.05919111 0.0074816877
0.003055021 -0.0145181175 0.03401015 -0.0022570076 0.024018517 -0.004748176 0.013705753 -0.019419275
0.009004279 -0.043095198 -0.011387032 0.03436673 -0.038038194 0.016793115 -0.06741653 0.053469352
-0.107992835 -0.003381312 -0.051072147 0.08268934 0.010417758 0.015445665 -0.017914567 0.029202161
0.007396554 -0.012651061 0.024110142 -0.0422907 0.09440094 0.06384853 -0.05399381 -0.022899095
0.009223536 0.015662089 0.026447926 -0.02624593 0.0264583 0.015409337 -0.026154548 -0.04600856
0.010030683 -0.107396655 0.023440871 0.031499084 0.011962414 0.031057034 -0.025983986 0.020725524
0.011241683 0.04068838 -0.0056233215 -0.062390044 -0.039682053 -0.031490453 0.03955551 0.07616246
0.040228788 -0.043894004 -0.035717454 -0.024542185 0.036340434 -0.0001641316 0.052038338 -0.04361181
0.013684254 0.033980433 0.038250454 -0.018457625 0.012131045 -0.072822705 -0.053989485 0.038294386
0.031763915 -0.021830887 0.069861904 -0.03402583 -0.007918028 -0.0985637 -0.017247133 0.055340555
0.029535107 -0.038008425 0.0018139704 0.018398652 0.013625843 0.027937112 -0.009979062 -0.007779702
0.01057574 -0.067990094 -0.03507163 0.0013908297 0.028116478 0.0429199 -0.04719812 -0.025303187

action_model._discrete_distribution.branches.3.bias f4 [2]
00000000: 52f9 323d 53f9 32bd
0.0436948 -0.043694805

action_model._discrete_distribution.branches.3.weight f4 [2, 256]
00000000: 220f 9fbb 4bba 49bd 1185 983c 3f24 8cbd
00000010: 2bbb 05bd 8844 a33c ec0e 95bd 9b34 67bb
00000020: bb0f babc f4e2 5bbd b9cf 8abb 05bf 8e3b
00000030: ef19 e2ba d339 893b 982b dc3b 8a69 7d3c
00000040: 0cd2 64bc 3cf8 76bd 90f6 adbc 4be1 8e3d
00000050: ba95 ae3c 30f7 cb3c af26 ffbb f26c debb
00000060: c8ef 12bd 1ddf 5b3c f51f 1abd c54c 053d
00000070: 7806 943d 23fc 953d 18cb 823c 0ba0 4d3d
00000080: 277a 373b 26a3 e3bc 5d8a 66bc dd62 ab3b
00000090: 762d 1d3d 02fe 1f3d dbcc 593c 72a5 55bd
000000a0: 3c65 363c b86b ad3c 41fc 1cbd 5293 c6bc
000000b0: 4a25 58bc e0ec b0bd abc9 ba3d 9d59 db3c
000000c0: 4765 51bc 05d6 143c 7ae0 5c3d 732f 63bd
000000d0: a59f 2a3b 5f8d b2bc 0351 94bc e392 513d
000000e0: dd31 5bbd 6f14 debc bc40 213b d1e1 e9bc
000000f0: 638d 02bd 11c4 e9bb 26ec a0bd 96bd 89bc
00000100: 2af4 7b3c e244 953c b50e a6bc d520 afbc
00000110: ee6a c7bb 8f86 76bd 78f2 1b3c 3ec1 cd3c
00000120: fe53 9838 2258 0d3d 8130 0e3d d2d8 103d
00000130: f7e1 b33b 08a4 3dbc 5e8f 59bc c25b a6bc
00000140: 9716 8e3b 2003 9cbc ce1b aabc 6b09 45bc
00000150: c1ca 8bbb c99b e53c 323a f63c 626c 79bc
00000160: acc2 663c eb06 efbc 973d 5ebd 4867 0b3b
00000170: eee0 7abc cc47 803d 213a 06bd 72da a73c
00000180: 7406 a4bc 8c9a 813c e88a d9bc d4c3 583d
00000190: 7c50 b33b 31b1 df3b bf7f a1bc ead4 523c
000001a0: 74ef 993d b4cf 82ba cf6e 083d 9253 1f3d
000001b0: de11 63bd bbb9 9fbc b368 133c dd3d 62bd
000001c0: 2871 45bd f048 be3c b64d 943c 96e1 35bd
000001d0: 8773 fbbc e1c0 97bd 83d3 1ebc d088 de3a
000001e0: 98bd 9bbc 708d efbc 35dd f1bc 86fc c83d
000001f0: 843a 36bc 95ec ccb8 429c 14bd 09dd 94bd
00000200: 5ccd 51bc eaad f53c c5ef 60bd a884 2f3d
00000210: fa75 afbc b532 c2bc cb73 0f3d 5f76 783d
00000220: 16c2 883c 8de1 bbbd 5435 3b3d 0ad2 7cbb
00000230: b226 a7bc fafe ea3c 0ea5 27bd f05b 58bc
00000240: f280 9e3c 6e8e dc3c 277a b5bc 0574 8d3c
00000250: c22f b1bc 6b7f 3d3d 9388 63bd 220c 53bd
00000260: 900f 1a3d 7e8e 4a3c 7641 0838 c574 0dbd
00000270: 7ae6 873c 665b 1fbc 69ee 79bd 1323 22bc
00000280: af72 3f3d 83d9 ef3c fa01 653d d026 dbb9
00000290: beaa d03c 1c27 bdbc 8563 a4bc 3364 233b
000002a0: ffa0 dbbc 3757 4ebd a18f 9ebd 8a85 e13c
000002b0: 9ec1 ffbc 2e27 0139 3669 313c 0d27 2cbd
000002c0: 29f8 fc3c 6484 df3c 8dc7 53bc da81 a3bd
000002d0: 4660 ed3c 183e 88bd 1876 12bd 3808 2e3c
000002e0: 524d 01bd 8cee 05bd 0f73 7ebc 0a81 aebc
000002f0: 2325 923c e576 4abd f63c ecba e6d4 39bc
00000300: 969b a33c 000e 87bd 7da9 38bc 737b b1ba
00000310: b325 1d3c 6a55 17bc bf18 b2bc 86d5 2dbd
00000320: bad5 943c 7eb8 58bc 24c7 e23b 3aa7 92bc
00000330: 2209 79bd 7b67 68bb 79f3 fbbc b32a d63c
00000340: cd56 41bc 1704 c3bc 1b4d ac3a 3e8c 11bb
00000350: c4c0 54bc d70b f23c 7e04 913c cebf 4b3c
00000360: 682c 1dbd 4370 34bd 9d20 adbc e318 883d
00000370: d097 183c b7f1 09bc 8eca b8bc 81ed 9bbc
00000380: f3e5 d13c 1777 73bd 0f1d 17bb a7a2 05bd
00000390: 30eb 733c dc4f 1abd 5507 14bd 09ee 67bc
000003a0: 6f1e ef3c cab5 083c 8a28 1c3b fac7 92ba
000003b0: 8a94 96bd 0b86 babc 5e1d 6fbc a207 513b
000003c0: f3c3 a13b 3def a0bc 8d43 bdbc ef70 2abd
000003d0: 15ab 49bd d11d 1e3b 6c1e 7a3d 7289 573c
000003e0: 44f5 88bc 5c20 d83c 10c6 67bc be18 edbc
000003f0: 2482 48bc ab22 8a3c f69d 69bd d452 ea3c
-0.004854099 -0.04924993 0.018618139 -0.06842851 -0.0326492 0.01993014 -0.07278237 -0.0035279158
-0.022712579 -0.053683236 -0.0042361883 0.0043562674 -0.001725016 0.0041878014 0.006719064 0.015467057
-0.013966095 -0.06029533 -0.021235734 0.06976565 0.02131163 0.024898142 -0.007786594 -0.0067878896
-0.035873204 0.013419894 -0.037628133 0.032543916 0.07227796 0.07323482 0.015965983 0.050201457
0.0027996392 -0.027787756 -0.014071074 0.0052302913 0.038373433 0.0390606 0.01329347 -0.052159734
0.011132535 0.021169528 -0.038326506 -0.02424017 -0.013192484 -0.0863893 0.09120496 0.02677613
-0.012780494 0.009084229 0.053925015 -0.055465173 0.0026035097 -0.021795927 -0.018105036 0.051165473
-0.05351435 -0.027109353 0.0024605235 -0.02855006 -0.031873118 -0.0071339686 -0.07857542 -0.016814034
0.0153780375 0.018221322 -0.020270685 -0.02137796 -0.006085745 -0.06018692 0.009518258 0.02511656
7.2635696e-05 0.034507878 0.034714226 0.035363026 0.0054895836 -0.011574753 -0.01327881 -0.020307425
0.004336189 -0.019044459 -0.020765211 -0.012026171 -0.0042661135 0.028028386 0.030057047 -0.015223594
0.014084499 -0.029178103 -0.054257955 0.0021271277 -0.0153124165 0.06263694 -0.03277028 0.020489905
-0.020022608 0.015820764 -0.026555493 0.05292113 0.005472241 0.006826543 -0.019714234 0.0128681455
0.07516375 -0.0009980113 0.0333088 0.03889806 -0.05543696 -0.019497743 0.00899713 -0.05523478
-0.048203617 0.023228139 0.018103462 -0.04440459 -0.030694736 -0.074098356 -0.009693983 0.0016978029
-0.019011304 -0.029242247 -0.029524425 0.0981379 -0.01112235 -9.771545e-05 -0.03628183 -0.072687216
-0.012805309 0.029990155 -0.054916162 0.04285112 -0.02141856 -0.02370582 0.03502254 0.060659762
0.01669411 -0.0917388 0.045705155 -0.0038577341 -0.020404194 0.028686035 -0.040928893 -0.013205513
0.019348595 0.026923385 -0.022152973 0.017267236 -0.021629218 0.046264093 -0.05555017 -0.051525243
0.037612498 0.012363074 3.2485892e-05 -0.03453519 0.016589392 -0.009726381 -0.06101838 -0.009896058
0.04674023 0.029278522 0.055910088 -0.00041799853 0.025472041 -0.023089938 -0.020066986 0.002493155
-0.026810167 -0.050376143 -0.07742239 0.027529497 -0.031220254 0.00012316994 0.010828307 -0.04202943
0.03088005 0.027284808 -0.012925995 -0.079837516 0.02897657 -0.066524684 -0.035757154 0.010622077
-0.03156788 -0.0326982 -0.015530362 -0.021301765 0.017839974 -0.049429793 -0.0018023539 -0.011342263
0.01997165 -0.06594467 -0.011270878 -0.0013540819 0.009591508 -0.009236673 -0.021740315 -0.04243996
0.018168319 -0.01322758 0.006920712 -0.017902005 -0.060799725 -0.003546207 -0.030755745 0.026143407
-0.01180048 -0.023805661 0.0013145538 -0.0022208835 -0.012985412 0.029546661 0.017702337 0.0124358665
-0.038372427 -0.044052374 -0.021133715 0.06645372 0.009313539 -0.008419446 -0.022557523 -0.01903415
0.025622344 -0.059439745 -0.0023058092 -0.03262582 0.014887616 -0.037673816 -0.036139805 -0.014155873
0.029189317 0.008344123 0.0023827874 -0.0011198514 -0.0735255 -0.022768995 -0.014594404 0.0031895419
0.004936689 -0.019645328 -0.0231035 -0.041611608 -0.049235422 0.0024126659 0.06106417 0.013155328
-0.016718514 0.026382618 -0.014146343 -0.028942462 -0.012238059 0.016862234 -0.05703541 0.028603949

action_model._discrete_distribution.branches.4.bias f4 [2]
00000000: 0456 ad3c 0b56 adbc
0.02115918 -0.021159193

action_model._discrete_distribution.branches.4.weight f4 [2, 256]
00000000: df44 0a3c 4a64 20bd 01e8 69bc 8189 393c
00000010: 4183 543c cbcc c13c f134 06bd 3261 343b
00000020: 3d1c e53b 7aea c23c 6869 56bc ed43 df3c
00000030: 9627 3dbd f77c f8ba 4673 81bc ab5f 31bd
00000040: 4379 043d b235 663c 4be8 2ebd e4d2 dfba
00000050: 6fe4 813d e38d 223d e4ff 703d 3d37 b43c
00000060: 1bab 33bd c857 22bd 1f3d fdbc 5052 96bc
00000070: 4f3e 833b df20 78bc 76d6 3bbc 978a 303c
00000080: 2ba4 eabc 9520 86bb 0c2d 203c b4c5 b6ba
00000090: 0dba 513c cc1c 2ebd 6f77 623b e471 eb3c
000000a0: 2f0b 0f3d 4f4d 143c 166c 153d a423 3cba
000000b0: f317 03bc bb9e 013d c753 4a3c 6196 bebc
000000c0: d380 d73c 28d7 90bc 4c8e a13b 5b07 223d
000000d0: 6b97 f5bc 402c 0dbd 5682 2f3d f50f a13d
000000e0: 688e 2abd 9f1d b33c 96cc 883c 836c 40bb
000000f0: a6c1 763c 914b ecbc 83fa ae3d 676e a8bc
00000100: d619 05bd f3b1 aa3c 8952 4bbc a5bc b0bc
00000110: a047 53bc a1ab 3cbd 2d4b c2bc 9562 b4bb
00000120: e32c 65bb b40c 2e3d 91eb 94bd cdfe 0cbc
00000130: 78f5 0a3c 37a1 e03c 1a00 893b a9df 0ebd
00000140: 5348 c1bc 4ed7 4dbd 937f 3c3d c432 51bc
00000150: ba7f 06bd f419 013d 7d1f 0e3d 0ef5 23bc
00000160: da60 c83b 6996 183d 5f1f b33b c29e 3dbb
00000170: 8f9f 29bd 8fa5 77bd 2aa4 fabc 9c75 513d
00000180: 7aba 223d cef6 cbbc 7847 78ba 4807 103d
00000190: d9b7 1dbd 0e10 e53c 299b 463d 0579 69bc
000001a0: f7cb 58bd 3ecf 15bb 42ad 653d 1a89 e63c
000001b0: 36eb cabc 78cd 45bd d865 743b 3c5a d939
000001c0: e521 c23a 56ff 123c db6f 6a3c 6f45 10bb
000001d0: 011d 04bb 8d39 fa3b a671 c2bb 0d8b 3a3c
000001e0: b4a5 b5bc fe7c 9ebc dad2 753a 175a 50bc
000001f0: 6a77 bebb ca48 493d 3e9d d83c 4e68 10bd
00000200: 12f0 e63b cf5e 04bd de97 06bb 0ef0 f8bb
00000210: 554d d83b 10d8 573c b642 b63c fd14 b13d
00000220: 01fa 173b 81f8 c5bc 3c7f 813b 6220 1fbd
00000230: d4aa 923b 50b7 60bd af14 593c 854c 83bc
00000240: 5ce9 333d b84e eabc 487f 24bb 2664 573d
00000250: 29de 3a3d 3e46 0bbd 3079 5dbc f227 eebc
00000260: 7d72 0fbd 6eb6 773d 0e43 0fbd 5dcb 0bbd
00000270: 7820 373b 246b 25bc 58b6 9c3c 9639 bbbc
00000280: a9de 0cbd 0350 a33b 372f a7b9 5f1b fe3c
00000290: 556e c9bb 92be 1d3c b5aa d63c 3a2f ff3b
000002a0: 26a4 5dbc e60c 75bc d4a8 e6bc 22b6 8dbc
000002b0: e258 5a3d 9956 e73c 7a80 933d fa3d 24bd
000002c0: bbba 9d3d 8817 043d 114b 493d 92ce 42bd
000002d0: 7bff c4bc f21b b2bc 3824 883d 9a1e 0fbd
000002e0: 796a dd3d fc7d b43d 50f6 59bc b115 4b3d
000002f0: 5973 4fbc 6f10 373d 40ee 7ebd ed36 133c
00000300: d31b a03b 6461 8bbc bcf3 24bb bba4 ee3b
00000310: a9dc 463d c161 933d 002e cd3b 70b8 373b
00000320: 3009 32bd a3cf 8e3c 1791 a6bc 8f36 af3c
00000330: b86f 7b3d d505 cabc 47e8 973b 9ba9 a33c
00000340: 8e4d f0bc 2bfc 96bb 6baf a63c 4c7f 1c3d
00000350: 7e48 db3d f077 2dbb 485c ae3d 84ed b83c
00000360: 5e3a 1d3d 4422 c13c 0573 14bd 009b 653d
00000370: 379e 8f3d 792f 3f3b c281 143d c595 b93d
00000380: f2bf a0bc d1ba f33a 86e0 55bc cd55 ba3d
00000390: 6821 433d b538 113d 7a25 4b3d 3650 82bc
000003a0: 050c 81bd 302c 3d3d 28e6 dd3c abb0 b03c
000003b0: 0f0f dabd 6deb 053d d8a3 db3b a787 ae3c
000003c0: 1d23 33bd 9839 3cbc 73f3 d4ba acd0 02bb
000003d0: d36e dfbc b017 aaba 40b0 753b ad9a b33c
000003e0: d980 8dbc 3a4c ebbc 716b f4bc e1a4 123b
000003f0: a6bc 3bbd 862e 533c 0853 8cbd ce90 d53c
0.008439272 -0.039158143 -0.014276505 0.011324287 0.0129707465 0.023657223 -0.032765333 0.0027523753
0.0069918917 0.023793448 -0.013086654 0.02725407 -0.04618033 -0.0018958141 -0.015802037 -0.043304127
0.032342207 0.014050888 -0.042702 -0.00170764 0.063423984 0.039686095 0.058837786 0.021998996
-0.04386435 -0.039634496 -0.030912934 -0.018349797 0.0040052305 -0.015144556 -0.011464706 0.01077523
-0.028642735 -0.0040932395 0.009776365 -0.0013944418 0.012800706 -0.04250793 0.0034556051 0.02874083
0.034922775 0.009051635 0.036480032 -0.0007176942 -0.008001315 0.031645518 0.012349076 -0.023265066
0.026306545 -0.01768072 0.004930293 0.039557796 -0.029979428 -0.03446603 0.042848907 0.07864372
-0.041639715 0.02186471 0.016699117 -0.0029361553 0.015060818 -0.028844627 0.08543875 -0.020560456
-0.032495342 0.020836806 -0.012409815 -0.021574328 -0.012895495 -0.046062116 -0.023717487 -0.005504916
-0.0034969382 0.042492583 -0.07271493 -0.008605671 0.008481376 0.027420623 0.0041809203 -0.034881268
-0.023594057 -0.05025416 0.0460201 -0.012768451 -0.032836653 0.03151889 0.034698 -0.010007156
0.006115061 0.037252817 0.005466386 -0.0028933738 -0.041411933 -0.060460623 -0.030595858 0.05113755
0.03972862 -0.02489796 -0.0009471099 0.035163194 -0.03850541 0.027961757 0.048487816 -0.014250045
-0.05292889 -0.0022859122 0.056073435 0.028141547 -0.02477036 -0.048291653 0.003729215 0.00041456695
0.0014811127 0.00897201 0.014308895 -0.0022014042 -0.002015889 0.007636255 -0.005933958 0.011385691
-0.02217374 -0.01934671 0.00093774276 -0.012716792 -0.005812575 0.049141683 0.026442166 -0.035255723
0.0070476616 -0.03231698 -0.0020537297 -0.007596976 0.0066010156 0.013174072 0.022248607 0.08646581
0.0023189785 -0.024166347 0.003951935 -0.038849242 0.0044759307 -0.05486232 0.01324956 -0.016027698
0.04392372 -0.02860199 -0.002510028 0.052585743 0.045622025 -0.034002535 -0.013517663 -0.029071782
-0.035021294 0.060476713 -0.034976058 -0.03412949 0.0027942937 -0.010096345 0.019129917 -0.022854608
-0.034392033 0.0049839034 -0.000318879 0.03101891 -0.006147186 0.009627955 0.026204446 0.0077876123
-0.013527906 -0.0149566885 -0.028156675 -0.017298762 0.05330742 0.028239535 0.07202239 -0.040098168
0.07701632 0.032249004 0.049143855 -0.047560282 -0.024047604 -0.021741841 0.06647533 -0.034941293
0.10811324 0.08813092 -0.013303354 0.049581233 -0.012661778 0.044693407 -0.06223893 0.008985263
0.0048861294 -0.017014213 -0.002516969 0.007282821 0.04855028 0.071963795 0.006261587 0.0028033517
-0.043465793 0.017432993 -0.020332856 0.02138832 0.06138584 -0.024660984 0.004635844 0.019978335
-0.029333856 -0.0046076975 0.020347318 0.038207337 0.10707186 -0.0026469193 0.08513695 0.022574194
0.03838574 0.02357591 -0.036242504 0.056056023 0.07012599 0.0029172583 0.03625656 0.090617694
-0.019622777 0.0018595104 -0.013054019 0.090983965 0.04763928 0.03545447 0.049596287 -0.015907388
-0.06301121 0.04618472 0.027087286 0.021568617 -0.106474034 0.032695223 0.0067028813 0.021304918
-0.04373466 -0.011488341 -0.001624687 -0.0019960804 -0.027274525 -0.001297703 0.0037489086 0.021924341
-0.017273353 -0.028722871 -0.029836388 0.0022376108 -0.045834206 0.01288951 -0.068517745 0.026070025

discrete_action_output_shape f4 [1, 5]
00000000: 0000 4040 0000 4040 0000 0040 0000 0040
00000010: 0000 0040
3.0 3.0 2.0 2.0 2.0

network_body._body_endoder.seq_layers.0.bias f4 [256]
00000000: b318 81bc e249 933c fe39 97bb 0959 d43b
00000010: 377f e83b 0335 bdbc bc47 103c f97d 2a3c
00000020: 78ff d33b 98a4 c3bc c4cf 86bc 4e74 2bbc
00000030: 5e7f f83c 0237 86bc a3a3 6dbc b1ec 93bc
00000040: 8fba 003d 0be2 bfbc c925 403d 59af b43c
00000050: f4f0 2b3c 8352 48bd 932f 41bb 2a63 3e3c
00000060: 7c17 04bd dd48 04bc bbc0 1b3b fb1b 23bc
00000070: bc21 413c 13b2 933b bdcc 57bc b264 6a3c
00000080: fdf5 60bc e170 73bc 4153 14bb 737c 9bbc
00000090: 0499 913b 473a 9c3b 0e31 c43c 6ef0 ebbc
000000a0: 4081 313b e17a 583c a632 e93c 45a4 b7bb
000000b0: 64eb 75bd e04b 263b 8d68 66bc 438b dd3c
000000c0: 23db d3bc 6c52 743c a848 f5bc e6cd 213b
000000d0: d7f1 823c 456e 07bc fd27 f8ba b74b ce3c
000000e0: 67a5 c0bc 2827 87ba c036 29bc 5452 d7bc
000000f0: 2674 fc3c c1bc c4bb 2270 64bc f3a9 2abc
00000100: 866d 063c 6cc9 5d3a 65a7 a2bb 3b38 5fbc
00000110: 0524 a33c 89db ccbc 3d8c 273b 1311 a7bc
00000120: 4e7b 973c 2620 6abc a943 b9bc 1f84 0fbc
00000130: 3633 a1bd 6518 d63c f1d5 f2bb 9cbe f6ba
00000140: 059e 8f3c dc09 54bc f6f3 4fbc d7d2 a2bc
00000150: 6179 7cbc 0bf6 11ba 4d92 b0bc a5ef 15bd
00000160: 9781 af3c 31e9 a73c a1a4 dabc 3576 6cbc
00000170: e460 ef3a c30a af3c 7898 f23b 1e2f e3bc
00000180: 425a 95bc 98dc abbc 76ff c2bc 43f3 c33b
00000190: eba3 2f3b 0b54 d23b 9e5a ac3c 908f 103d
000001a0: 38c7 3fbb db9e 24bd 9550 d1bc 35b2 d2bc
000001b0: 5d91 09bd cb94 e3bc cebc 38bc 46bd 97bc
000001c0: 4431 6f3a 989c 91ba f31a d53c 3307 093d
000001d0: 56fe 89bc 2f3d 0c3d 2565 fbbc a5e1 91bb
000001e0: d459 98bc f766 333b 6688 08bb 8224 3ebc
000001f0: e9e3 883c f1dc c9ba 21d4 a63c fc7b d63c
00000200: 87fa 073b 528a 813b 56b1 b43c 52b8 b1bb
00000210: b2e7 44bc e446 d33a cb84 aebc 689f 1a3c
00000220: a80f 0abc 90f6 c83c 5fe2 2c3c d8ad e03b
00000230: 87ed c43c b054 443c 93b4 ac3b 1946 023c
00000240: e968 303b 1d56 4cbc cef9 cebb de80 083a
00000250: 5101 d7bc cd44 8eba 5904 433c 1c69 ec39
00000260: c78e 9e3b ea2c 25bc 3195 9d3c bd53 f6ba
00000270: 6feb 84bc 5948 533c 3284 993c bbff ef3c
00000280: 5935 f0bb 2961 933c 992c 99ba 12f8 dd3a
00000290: 3a4d b7bb c175 d1bc 6475 fd3b 9119 443c
000002a0: 4389 013d 2d50 debc 241b 003d 36b7 473b
000002b0: 312e da3b 8b29 043d e87f 553c fdeb 8ebc
000002c0: 5d78 ccba 63d9 ddba e21f d1bb c84b 113c
000002d0: a96b ba3c ea72 773c 4b2f a3bc 8c26 fbbc
000002e0: fc41 2abd b3e3 4abd 6d5c 95b9 2a2d dbbc
000002f0: c21e 423a fe68 52bc f6a7 8dba 18db 9dbc
00000300: 948d 1dbd c5a5 acbc 23ba 50bd 7eee aebb
00000310: 1cd0 9e3c ac16 c13c 9f4c c0bc 8be9 cbbc
00000320: 876c 01bd 420e 14bd 9c27 dfbc 930e e83b
00000330: c944 01bd dd3d c3bc 89ec 0f3c 8ef1 a93b
00000340: af84 cfba 7e56 88bc ffdf ae38 6292 9e3a
00000350: 89b6 6c3b 166b ee3c f81a b33a 3d3b 8fbc
00000360: dd66 613c 7b75 c73b faa4 24bc 80cf bf3b
00000370: 06fb 81bc ea0c 1b3c bdb9 1bbd fc18 3b3c
00000380: 6ccf 743b 87fb 023d 2b2f 80bb f9b0 823b
00000390: cc15 bd3b 6e0a 3f3c 4c69 65bc 3647 12bc
000003a0: c7c7 fbbc 66bd 793c 1736 f8bc c2a1 86ba
000003b0: 4fb8 1b3a 9d95 1bbd e5df 8e3c 3d5f 443c
000003c0: 51cc aa3c 8bab 84bc 7ce8 13bd 7cec 01bc
000003d0: 038d acbc 38f9 a63a e82b b9bc bbd2 663c
000003e0: 265b 2e3d c8b2 0e3c 0eaa 0dbd 469b cebc
000003f0: 02f1 41bc 62de 7e3b c4e9 963c b1bd 10bc
-0.015758848 0.017979566 -0.0046150675 0.0064803404 0.0070952433 -0.023096567 0.008806165 0.010406011
0.006469663 -0.023882195 -0.016456492 -0.010464741 0.03033417 -0.016383652 -0.014504346 -0.0180572
0.031427916 -0.023423215 0.046911035 0.022056269 0.010494459 -0.048906814 -0.002947782 0.011620322
-0.03224896 -0.008074013 0.0023766 -0.0099554015 0.011787828 0.004507312 -0.013171372 0.014306234
-0.013730523 -0.014858455 -0.002263263 -0.01898024 0.0044432897 0.0047676894 0.023949172 -0.02880117
0.0027085096 0.01321289 0.028466534 -0.0056042993 -0.06003894 0.0025374815 -0.014063013 0.027043944
-0.025861328 0.014912229 -0.029941872 0.0024689375 0.015984459 -0.008266036 -0.0018932816 0.025182588
-0.02351637 -0.0010311352 -0.010327995 -0.026284374 0.030817103 -0.0060039465 -0.01394275 -0.010416496
0.008204823 0.0008460495 -0.0049638026 -0.013624246 0.019914636 -0.025007026 0.0025565766 -0.020393884
0.018491413 -0.014289891 -0.02261527 -0.0087595275 -0.07871096 0.02613468 -0.0074107577 -0.0018825117
0.017531404 -0.012941804 -0.012692442 -0.019875927 -0.015409798 -0.00055679743 -0.021554137 -0.036605496
0.021424098 0.020496937 -0.02668983 -0.01443248 0.0018263129 0.021367436 0.0074034296 -0.027732428
-0.018231515 -0.02097921 -0.023803454 0.005979927 0.0026800584 0.00641871 0.021039303 0.035293162
-0.002926303 -0.04019056 -0.02555112 -0.025719741 -0.033585895 -0.027780911 -0.011275483 -0.01852287
0.00091244676 -0.0011109291 0.026013827 0.03345413 -0.01684491 0.034238037 -0.030687878 -0.0044519478
-0.01859752 0.0027374604 -0.0020833253 -0.011605384 0.016710239 -0.0015400929 0.020364823 0.026182167
0.0020748691 0.0039532566 0.022057217 -0.005423584 -0.012018131 0.001611915 -0.021303555 0.0094374195
-0.008426584 0.024531633 0.010552018 0.0068566613 0.024039043 0.011983082 0.0052705496 0.007951283
0.0026918 -0.012471703 -0.0063164 0.0005207191 -0.026245745 -0.0010854244 0.011902892 0.0004509174
0.0048387977 -0.010081509 0.01923618 -0.0018793266 -0.016225545 0.012895667 0.018739793 0.029296746
-0.0073305783 0.017990666 -0.0011686265 0.0016934893 -0.005593923 -0.025568845 0.0077349413 0.011968986
0.031625044 -0.02713784 0.031275883 0.0030474192 0.0066583385 0.03226618 0.0130309835 -0.017446512
-0.0015599836 -0.0016925748 -0.0063819746 0.008868165 0.022756414 0.015103081 -0.019920012 -0.030658029
-0.041566834 -0.049533557 -0.00028488357 -0.026754934 0.0007405096 -0.012842415 -0.0010807503 -0.019269511
-0.038465098 -0.021075139 -0.050958764 -0.005338489 0.019386344 0.023570381 -0.023474036 -0.024891635
-0.03159764 -0.03614641 -0.027240567 0.0070818155 -0.03155974 -0.02383321 0.008784422 0.0051862663
-0.001583239 -0.016642805 8.338689e-05 0.0012098069 0.0036119542 0.029103797 0.0013664654 -0.017484302
0.013757435 0.006087003 -0.010049099 0.0058535933 -0.015866768 0.009463528 -0.03801893 0.011419531
0.0037355078 0.031978156 -0.003911873 0.003988382 0.0057704207 0.0116602015 -0.0140021555 -0.008928111
-0.03073491 0.01524291 -0.03029923 -0.0010271596 0.0005940245 -0.03798448 0.017440746 0.011985597
0.020849379 -0.01619508 -0.036110386 -0.007929917 -0.021063333 0.0012739068 -0.022603944 0.014088328
0.042567395 0.008709617 -0.034586005 -0.025220525 -0.011837246 0.0038889875 0.018422015 -0.008834288

network_body._body_endoder.seq_layers.0.weight f4 [256, 273]
00000000: 3e04 6b3d 04d9 df3c c2db babc 7d82 76bd
00000010: 0058 54bd 7875 4cbb d391 f83b dae0 95bd
00000020: 4674 1ebd 22a2 f43d 8542 13bd fa4a ea3c
00000030: edc3 5bbd 0326 41bd 2ef9 213c 1399 7abc
00000040: 8cdc bb3c 7fcf 2f3d d436 283d a223 003c
00000050: 5a70 9dbd fa7a 773d 9d2e b03d 83ad 8e3c
00000060: cf40 243d e5b4 8b3d 469d 28be d11e f8bd
00000070: 4370 3e3d 6801 7ebd a171 863d 609e 203d
00000080: 387b a1bc 5db9 b93d dc79 493d a67d f83c
00000090: 5b28 22bd 73b2 d53d 59d1 bc3c 07a1 a5bc
000000a0: 0f37 99bc 30bd 33be 7e41 b03c c4a5 46be
000000b0: 36f2 adbd b8ed b1bd b88c d53d cd07 683d
000000c0: 00c5 48bc 6f0c aabc e025 0b3d 8108 613c
000000d0: 7068 12bc d314 383d 6a85 8b3a c095 0fbe
000000e0: 873a a83c 089e e1bd c479 48bd de43 2fbd
000000f0: 73ed 5f3c ef68 143e 9411 1fbe 95e3 b8bc
00000100: 3e43 dabc ee71 bbbd 358a 87bd 3b5d d83c
00000110: 5c48 1a3d b21b 793b c908 1e3c 8ec1 43bd
00000120: 1e42 99bd 6209 76bd dd4e 133d ec0a debd
00000130: 8221 f13b 91ec fdbb ef21 29bd f2b5 823d
00000140: 0c8e f83d 52e9 a03d 0d6a 443e e035 bc3d
00000150: 627d 30be ec95 a2bd 8193 95bc de44 053d
00000160: 0815 1ebd 5a32 fcbc 040a ee3d 7dc0 133e
00000170: aef4 abba f5d4 32bc 4b2d 5c3d 0a37 413d
00000180: 4bf3 cfbd def5 87bd 7e98 8cbd e393 b63d
00000190: 1997 313d bf01 2a3c 246e 80bd ffc2 bb3d
000001a0: 1361 34bd d0db b13c 15b3 93bd 6dd5 3a3d
000001b0: cdbb 34be 8562 443b 13c2 c23d 284d 82bd
000001c0: 7171 07be 308c 0cbd 18c3 bcba 1dce 0dbe
000001d0: 36cf d4bd 0a6d 61bc 3ea6 c2bc fb2f 30bd
000001e0: 86f9 b7bc 4a82 113e e923 73bd 99c8 55be
000001f0: 01e1 c03c 99f8 ecbd 0a24 85bc fb56 8dbd
00000200: 385f 8e3d 0ce6 103d 6e23 713d 7843 433c
00000210: 03ca cdbc 166c 59bd 5d3f d73c 64f9 483d
00000220: cad5 433e 051e d4bd 07ff c8bb 93e9 82bd
00000230: 3db3 99bd fcdb 393c ef22 cdbd 223e ce3d
00000240: d3d3 423d 27ab c23d 5e70 323d be14 543d
00000250: a6eb 173d 41ef 75bd 9117 603c 497f 4b3d
00000260: 66aa b53b 7e1b 8f3d 3d33 0bbe 945c 0abd
00000270: 7d8a 533d 2cbf ca3d 7931 0abe da02 30bb
00000280: 507b fa3d 53c5 603c a718 9fbd f6c3 b9bd
00000290: b589 d0bc 006f e0bd d1be 02be 6a2d 03bc
000002a0: 399e 01be 4963 123d 9849 3f3d 89b8 4d3d
000002b0: 476f b13d 4132 9fbd 3fed d93d 04c9 b0bc
000002c0: 5295 b43d 8e72 863d afe7 24be f4a5 903d
000002d0: 6138 a83b aec9 9fbd 526b f7bc a7ae 7d3d
000002e0: 8d37 1cbc c1f1 36be 83a1 b93c 4ba7 01be
000002f0: 37ff 86bd 6887 a4bd e58c f9bc 9d24 e2bc
00000300: 6427 2cbd 63b4 2ebd 2a1e c4bc 0ad1 c83c
00000310: 01d3 fbbd ae94 ad3d e03a dd3d b7c2 90bd
00000320: 6a0d e9bd 1b79 af3c 1b7c 3c3e bcbb 32be
00000330: 8fba 1f3a 91c6 69bd cf5c b63d bf1d acbd
00000340: 9a53 53bc bd02 073e 2adb 05be 0938 ba3d
00000350: 7429 87ba fed5 633d 31cf 1abd 449a 8fbc
00000360: e05a 11bc b7ae 29bd b010 01be a262 b63c
00000370: 3fd5 36be 76ca 7a3e 781d 7bbd 83ba 803d
00000380: 4031 fb3a 0832 813c 40e0 a93c 20d4 fdbd
00000390: 9d8d b63d a628 4d3d 3565 193d bfbc ecbd
000003a0: a1be 86bd 00d9 833d c017 c6bd 2bdb 32bc
000003b0: 55ce 8c3d 17b3 163c 5b00 ddbb 696d 843d
000003c0: d4ce d4ba d6e5 a6bc fcc4 f23d 62ad 0ebc
000003d0: e23b c83c 00cc 3a3c ec35 c13b 40ec c73c
000003e0: c227 373d d9d2 133e c702 dbbc 9ef8 263c
000003f0: 71e1 6dbd e10b b6bc 3bd4 83bc 1e76 b6bd
0.057377093 0.02732516 -0.022809867 -0.060183037 -0.051841736 -0.0031197947 0.007585743 -0.07318278
-0.038685106 0.11944987 -0.03595211 0.028600205 -0.053653646 -0.04715539 0.009886069 -0.015295285
0.022932313 0.042922493 0.041067913 0.0078209955 -0.07687445 0.060420014 0.08602641 0.017416721
0.04010087 0.06821612 -0.16466245 -0.12115253 0.04649378 -0.06201306 0.06564642 0.03921354
-0.019712076 0.09068558 0.04918848 0.030333351 -0.039589267 0.10434427 0.023049043 -0.020218385
-0.018703012 -0.17552638 0.021515604 -0.19399172 -0.08493464 -0.086879194 0.104272306 0.056648064
-0.012254 -0.020757882 0.033971667 0.013734938 -0.008936033 0.044941735 0.0010644619 -0.14021969
0.02053572 -0.1101647 -0.04894425 -0.042789333 0.013667452 0.14493154 -0.1553405 -0.022569457
-0.026643392 -0.0915259 -0.06618158 0.026411643 0.037666664 0.0038010892 0.009645649 -0.04779201
-0.07483314 -0.060067542 0.03596388 -0.10841927 0.007358731 -0.007749148 -0.041292127 0.063823596
0.12136468 0.07857002 0.1918108 0.09189963 -0.1723533 -0.079387516 -0.018258812 0.03253638
-0.038594276 -0.030785728 0.11623004 0.14428897 -0.0013119185 -0.010915031 0.053754132 0.04717163
-0.10153826 -0.06638692 -0.06865023 0.08914926 0.04335699 0.010376393 -0.06271008 0.09168052
-0.04403789 0.02171126 -0.072118916 0.045613695 -0.17649765 0.0029965949 0.09509673 -0.06362373
-0.13226868 -0.03431338 -0.0014401404 -0.13848157 -0.10391085 -0.013758907 -0.023760911 -0.043014508
-0.02245785 0.14209858 -0.05936042 -0.20877303 0.02354479 -0.11570854 -0.016252536 -0.06901356
0.06951755 0.03537564 0.05887168 0.011917941 -0.02512074 -0.053081594 0.026275331 0.049065962
0.19124523 -0.10357288 -0.0061339173 -0.06392207 -0.0750489 0.011343952 -0.10016429 0.10070445
0.047565293 0.09505301 0.043564193 0.051777594 0.037089966 -0.060042623 0.013677494 0.049681935
0.0055439947 0.069876656 -0.13593765 -0.033779696 0.051645745 0.098997444 -0.13495435 -0.0026857168
0.12230551 0.013718921 -0.07768374 -0.0907058 -0.025456289 -0.109586716 -0.12768103 -0.008006433
-0.12658013 0.035739217 0.046701044 0.050224815 0.086638026 -0.07773257 0.10640954 -0.021580227
0.08817543 0.06564818 -0.16104005 0.07062903 0.005133674 -0.07802139 -0.030202542 0.06193414
-0.009534729 -0.1786566 0.022660023 -0.12661473 -0.06591647 -0.08033639 -0.030462692 -0.02760535
-0.042029753 -0.0426525 -0.023940165 0.02451374 -0.12296105 0.08475624 0.10802245 -0.07068389
-0.11379512 0.021420052 0.18406717 -0.17454427 0.0006093168 -0.057074133 0.089044206 -0.08404111
-0.01289835 0.13184638 -0.13071886 0.09092719 -0.0010312037 0.055624 -0.03779525 -0.017529614
-0.008871764 -0.041426387 -0.12604022 0.022263829 -0.17854784 0.24491295 -0.0613074 0.06285574
0.0019164458 0.015770927 0.020736814 -0.12393975 0.08913729 0.050087593 0.037450034 -0.11559438
-0.06579328 0.06437874 -0.09672499 -0.0109165115 0.06875292 0.009197972 -0.006744427 0.06466181
-0.0016235956 -0.020373266 0.11853978 -0.00870833 0.024442617 0.011401176 0.0058963206 0.024404645
0.04471565 0.14435901 -0.026734723 0.010191111 -0.058076326 -0.022222461 -0.01609241 -0.08909248
