Project/Assets/00_AIBrains/AgentCore/TestCar00_BUS01_01.onnx (onnx, 825369 bytes, 17 tensors)

action_model._discrete_distribution.branches.0.bias f4 [3]
00000000: 9ae7 57bc 7008 5d3e 93b9 84be
-0.013177777 0.2158525 -0.25922832

action_model._discrete_distribution.branches.0.weight f4 [3, 256]
00000000: b508 eb3a d810 b63d 2ea9 19bd 326e 043e
00000010: 40b8 fcbb 4207 aebb 0d14 3f3d 382e 0abe
00000020: 46f5 743d 6a4a ccbc 9b53 103b 261d 553d
00000030: 05c7 453d 0263 2b3d acf0 b93d 1ede 603d
00000040: 646e 02bd 0588 363d 5574 80bc 8b3b f63d
00000050: fe51 73bd 8c61 6cbd 1e13 4b3d e236 c2bd
00000060: 8711 88bd 6bfc e13d 1df3 9bbd 6a08 34bc
00000070: 4a61 d3bc 9356 bbbd c960 48bb 6cfe 543d
00000080: 132a 933d 18e9 1cbd d9a8 a13d e9c9 043d
00000090: 53e8 1c3e a0f7 13bd 7b30 ac3d d92a 103c
000000a0: d057 093e 619d 8abd ba23 b9ba 60c5 e5bc
000000b0: 705c 1bbe bf76 59bd 0b22 83bb 1596 713d
000000c0: 00a7 f0bd eeb2 333a 36fa 56bd 5879 583d
000000d0: 847a 8cbd 5515 0fbb d69a 23bd afea 2c3d
000000e0: c826 d73c 5393 debc 0b8a f4bc 50bc 133e
000000f0: c22e d73d 7909 9cbd 7d26 acbd 87a6 d23d
00000100: 5166 d23b cac2 4e3d 0484 bfbb 32b8 cabc
00000110: c820 cd3c d2df 3abd 5a86 d2bc c295 203d
00000120: 80fd 9bbc 1ad0 ccbd bb8c 4d3d ae54 c43b
00000130: 3ffe 45bd 4081 853d dd42 9bbd fdf8 cc3b
00000140: 5b87 94bd 72bb b1bd 10c2 bc3d 0e8d 773d
00000150: cb67 13bc 3e28 973d 53c3 60bd 15b3 093d
00000160: a9de b4bb e054 06bd c898 333c 5390 cb3d
00000170: 399f b73d a5df 07bc eaa7 063e 7651 23bd
00000180: f071 42bc d7cc babd dc15 d5bc fa3d 4cbd
00000190: 84c7 993d 3dfb af3c 7daa 83bd a8d4 a33d
000001a0: 0d83 82bd 09f7 783c e0e4 17bd 3176 ef3c
000001b0: 80b9 0cbe 04c4 b63d 0026 663d 1b4d 873d
000001c0: 31f5 423d 65ba 65bd e39f 513d b853 69bd
000001d0: bc2c 653d 344b babd e92b ad3c c582 65bc
000001e0: 24f9 283e 6d6c f8bc 0292 5ebd cd41 00bd
000001f0: b9ea 7abd 61c0 813d b9b6 8e3d 6232 c73c
00000200: c679 03be 0595 6ebc 3de8 0a3d 3653 5e3c
00000210: e9b3 a63d cf0c 853d e284 853d 28fb f5bb
00000220: ce98 51be 8625 d03b 42bb a23d c40c a9bd
00000230: f217 9dbd 00bc 20bd 4819 843c a89b 233e
00000240: f5ed 913a bde1 b7bd d7a7 ae3d 2659 8bbd
00000250: 65a6 01be 41e4 ad3d ba4e ef3c 711a aebd
00000260: 46b4 f2bc 58a4 4f3d fd39 333d e199 71bd
00000270: 1e1b 57bc 5e97 d7bc cb18 1a3d 0b21 8f3c
00000280: 6f2b ad3c 4f08 203e 04cc 0a3d 497f 4b3e
00000290: 00bf bfbd 43ee ee3c 1cf0 943d 5232 343e
000002a0: a90e 74bc 133c 153c 19d9 013d 3366 b93d
000002b0: fefa 49bd b0d3 0dbd 7aec 03bd 18a8 e8bd
000002c0: 0897 8f3c 19dd f03c a316 52bc 9db1 4dbc
000002d0: 03ef 623d 7723 673d ad55 3fbe 0fad 2fbd
000002e0: 5fc1 f4bb 7fd3 0cbe 99a2 dd3d f6e1 24bc
000002f0: 1fe3 633d d393 1bbc e95a ff3d 8a13 623d
00000300: 0127 c53d 2c3e 063d 1d0b 463d ad87 abbc
00000310: 5063 3c3d 8b05 2a3e 8099 623d 0a3c 313d
00000320: 3f5b 093d 83b0 a03d 27ce 743d 13bd a2bc
00000330: 3005 8bbc 4802 763d 5717 1d3d b998 4d3c
00000340: 0fc2 333e 339e b63c 0e52 59bd baaf 51ba
00000350: cc48 cc3c a53e 80bd b152 d13c 6c1a 9f3d
00000360: 7528 973c 477a 54bd 0b28 3f3d 83b9 073c
00000370: 21ba 683d 883c f5bd 2f88 ee3b 29ee 943d
00000380: 60a6 e1ba 95b1 5ebd b7b9 883d 4ea3 493d
00000390: 8e8b bc3d a577 8abd e8b0 83bc 8b12 c93b
000003a0: 867a 42bd 35a8 12bd a96c 843d 2688 16be
000003b0: c68b 34bd 89e2 d93d a64e 9abd 7ce0 533d
000003c0: 82be 0c3c 3957 f0bc bd5e 7f3c 634b b63d
000003d0: 0501 16be e4f9 20bd 55ee 19bc 4c8b c73c
000003e0: 4b43 f2bd 1f07 6c3d a290 053c 2c7f d7bc
000003f0: bbe9 3d3d da14 cb3d 30b5 b3bd 249b e03c
0.0017931672 0.088899314 -0.037514858 0.12932661 -0.007712394 -0.005310924 0.04664998 -0.13494194
0.059804223 -0.024937827 0.002202249 0.05202975 0.048285503 0.041842468 0.09079108 0.054899327
-0.031843558 0.044563312 -0.015680471 0.12023076 -0.059404366 -0.057710215 0.04957878 -0.09483124
-0.06643968 0.11034473 -0.076147296 -0.010988334 -0.025803227 -0.09147372 -0.0030575267 0.052000448
0.071857594 -0.038308233 0.07893533 0.03241912 0.15323 -0.036124825 0.084076844 0.008799278
0.13412404 -0.06768299 -0.0014125027 -0.028048217 -0.15171981 -0.05309176 -0.004001861 0.05898102
-0.11750603 0.00068549707 -0.052484713 0.052850097 -0.068593055 -0.0021832783 -0.039942585 0.042216
0.02626361 -0.027169859 -0.02985098 0.14427304 0.10506965 -0.07618994 -0.084057786 0.10285669
0.0064208885 0.050478734 -0.005844595 -0.024746034 0.025040045 -0.045623608 -0.02569883 0.03920532
-0.019041777 -0.1000063 0.05018304 0.00599154 -0.04833817 0.06518793 -0.075811125 0.0062552677
-0.072523795 -0.086783305 0.09216702 0.060437255 -0.008996914 0.073807225 -0.054873776 0.03361805
-0.005519707 -0.032795787 0.010961719 0.09939637 0.08965916 -0.008293067 0.13149992 -0.03987261
-0.011867985 -0.09121101 -0.0260114 -0.049863793 0.07508758 0.021482104 -0.064290024 0.07999545
-0.06372652 0.0151956165 -0.037083507 0.029231163 -0.13742638 0.08924106 0.056188583 0.066065036
0.047597114 -0.056085963 0.05117787 -0.056964606 0.055950865 -0.09096375 0.021139102 -0.014008229
0.1650129 -0.030325139 -0.054338463 -0.031312753 -0.061259005 0.063355215 0.06968445 0.024316017
-0.12839422 -0.014561896 0.033912886 0.013569644 0.08139784 0.06496584 0.06519486 -0.007506747
-0.20468447 0.0063521294 0.07945873 -0.08254388 -0.07670583 -0.03924179 0.016125336 0.15977347
0.0011133539 -0.08978603 0.08528107 -0.06804113 -0.1266113 0.084908016 0.029212344 -0.08501137
-0.029626977 0.05069384 0.043756474 -0.05898464 -0.013129024 -0.026317295 0.0376213 0.01747181
0.021138875 0.1562817 0.03388597 0.19872774 -0.09362602 0.029166346 0.0727236 0.1759732
-0.014896073 0.009108561 0.03170118 0.09052696 -0.04931163 -0.03462571 -0.032207943 -0.11360186
0.017528072 0.029402303 -0.01282278 -0.012554553 0.05540372 0.056430306 -0.18685026 -0.04288965
-0.0074693407 -0.13752554 0.10822029 -0.010063639 0.05563652 -0.009495693 0.124685116 0.055194415
0.0962658 0.032774135 0.048350442 -0.020938719 0.04599315 0.16603677 0.05532217 0.04327015
0.033534285 0.07846167 0.059766915 -0.019865548 -0.016970247 0.06006077 0.038352337 0.012548619
0.17554496 0.022292232 -0.05305677 -0.00079989026 0.024937056 -0.062619485 0.025552126 0.077687114
0.018451909 -0.051874425 0.046669047 0.0082839755 0.05681813 -0.11974436 0.007279418 0.07271988
-0.0017215721 -0.054368574 0.06676047 0.049228005 0.092063054 -0.06761102 -0.016075566 0.0061362437
-0.04748013 -0.035804946 0.06466038 -0.14700374 -0.04407861 0.10638911 -0.07534532 0.051727757
0.0085903425 -0.029338466 0.015586552 0.089010976 -0.14648826 -0.039300814 -0.009395202 0.024358414
-0.11829241 0.05762398 0.008152159 -0.026305757 0.04636548 0.099160865 -0.08774793 0.027417727

action_model._discrete_distribution.branches.1.bias f4 [3]
00000000: 6c88 9dbd 6218 c23d 6605 18bb
-0.07692036 0.09477307 -0.0023196577

action_model._discrete_distribution.branches.1.weight f4 [3, 256]
00000000: 3693 82bd 7943 68be f5d5 a93d 87f5 ae3d
00000010: b733 f23d 2783 82be 2834 62be 9258 ccbd
00000020: 9a5d 4ebd 5cbb 0ebd ad25 3e3d 64aa b2bd
00000030: f7c0 aebb bcc8 933d 64a8 21bd fc03 183e
00000040: 3a4a a2bd fad0 0e3c ebdf 1abe ac65 d33b
00000050: 424d 343c 294b 1f3d cbbe 2f3d 72e9 91bd
00000060: e18c adbd 0c16 99bd 79f9 cbbb cb38 963d
00000070: 132a e03d 30f9 303d 431d a43c 7d26 04be
00000080: 15ac bd3d 1783 083e 76ae 7abd 6165 9a3d
00000090: fc35 a1be 13b1 27bc 424b 78be 0286 a53d
000000a0: a66d 02be 2ccc 56bd 6acc a23b f645 e2bc
000000b0: 9909 2fbc 36df b6ba 190d 9fbd e7b1 adbc
000000c0: bd65 463d f69f 20bd 3dd1 953d 23d6 1c3d
000000d0: c6d8 9f3d a11c 0a3d 5e1f e63d 3c4f 8ebe
000000e0: 3e74 62be aec8 fcbc afe1 3e3d bf85 d33b
000000f0: c221 45bd 6057 e33d 7040 713d 6551 f5bc
00000100: d07d 423d 4c92 ff3c 0c67 583e 9077 a6bd
00000110: 07c1 e7bd 9cc6 e03d 270a 4dbe a964 993d
00000120: 6951 8d3d 47d5 053c cf31 2cbd 7f82 c43c
00000130: 4367 f9bc 66f0 893d 9c12 abbc 5d09 fd3c
00000140: f470 be3b 618b ad3d ba64 4f3d 7f31 473e
00000150: bb8c d53d 52bc cebd ee54 d3bc 0d46 15be
00000160: 4583 4d3e 3a8c 7b3e 2305 353e 6df9 9f3d
00000170: ced4 adbc 5e28 f0bc 701c 66bd d6d5 29be
00000180: d41b b73c 3112 773d d690 ef3c 6492 a23c
00000190: 9b1b 0e3e 732b 71be deb5 943d 6d28 513d
000001a0: 6536 8b3d 2820 9e3d 092a b7bd 5099 a43d
000001b0: d282 3b3d 0eb8 8f3d d7b1 45bb 33c1 c7bd
000001c0: 9b8b 13be 135f 853d 81eb dcbd ff83 abbd
000001d0: 5f95 7f3c 62f3 103d 1aa4 9bbd 3012 1bbd
000001e0: 19bf b4bb afbb 1a3e c941 923d a80e 073c
000001f0: 7451 c73d 951a c33c 15fb c3bc 497c 153d
00000200: dc77 be3c 143b 403c 9bf3 503d 70c9 443d
00000210: 116e 183c 0a2e 9dbd 0848 133d fd55 e03d
00000220: 10b2 a9bd df58 d03d d841 fbbd 8498 8d3d
00000230: 05fc 753e 0ade ec3d b067 a8bc 9b7c 1f3c
00000240: fa35 773d 178b 0d3d 9086 e1bb 937b 73bd
00000250: d38b 153e f4c6 63bd 4bdf d93d 8348 de3d
00000260: 5e6b 983d bc8f 643d 7073 e03d 78e4 e7bc
00000270: dbbc 223c 2f05 123e 75d9 753d 1278 e9bc
00000280: 579d 80bd fc0c 68bc 90e2 173d 0a06 5a3e
00000290: a855 6dbd fbae e03b 50ed 69bc 4276 253e
000002a0: 033a 20bd a356 043e 700b 0abd 415b 3ebd
000002b0: d05b e33d b30a 22bd 2981 c4bc 6b6a b03d
000002c0: 2649 863d fe1d 383d 65fe 223c 26d8 253d
000002d0: 9ae1 79be 357e 703d f417 8e3c 0ef3 043d
000002e0: 3399 ad3c 674a 62bd 4524 86bd 54a9 183d
000002f0: 8ece a0bc 9e1c 2bbc 18c6 9bbd 0466 88bd
00000300: efe2 bebd b517 95bd 991b a0be fc7b 0cbd
00000310: faca 8d3c e257 0dbd e935 39bd ca5c 3f3c
00000320: 2cd8 b9bd bd72 993d 9508 76bd bc87 e0bc
00000330: e113 32bc 17b4 cc3c 4ca5 cd3c a7d9 3abc
00000340: f10d e5bd 9501 cdbd 837b 48bb cdb0 a8bd
00000350: 9b96 fdbd f0f4 973d 9a20 70be b905 66be
00000360: 8e9c 913d e136 593d 6150 a3bd 004d a6bd
00000370: 4e5f 5d3d 72d8 cb3b 79e8 12bd 3b02 47bd
00000380: d4fc 1d3e 8a71 163e 2bce cdbc 9d7d 55bd
00000390: fbf0 98bb 3802 e13d 33e8 763d a9e2 b6bd
000003a0: 1e1f d33a 45f4 a83d e593 1bbd d051 7e3e
000003b0: 5270 fcbc f208 bbbd 20bc a4bc 5a07 a5bd
000003c0: d151 82bd 7ce3 e6bd f256 843c 8b23 a8bc
000003d0: 2c56 bbbd 5feb 46bd b20e af3d 1374 053c
000003e0: 3b0c d8bd bb36 a5bd ce0e 16bc 9434 febc
000003f0: 0446 c1bd 5b21 a8bd d7d6 763c e3de 0dbd
-0.063757345 -0.22681989 0.08292762 0.085429244 0.1182627 -0.25490686 -0.22090209 -0.09977831
-0.050382234 -0.03484665 0.04642265 -0.08723906 -0.005333062 0.072160214 -0.03946723 0.1484527
-0.07924314 0.008716816 -0.1512448 0.006451329 0.011004748 0.038890038 0.042906564 -0.07124604
-0.08474136 -0.07474908 -0.006224808 0.07335051 0.10945525 0.043206394 0.020033484 -0.12905307
0.09261338 0.13331257 -0.061201535 0.07538868 -0.314865 -0.010235089 -0.24247459 0.080822006
-0.1273714 -0.052440807 0.0049682157 -0.02762125 -0.010683441 -0.001395202 -0.0776617 -0.021202995
0.04843687 -0.03921505 0.073153 0.038290154 0.07805018 0.03371871 0.112364516 -0.27794826
-0.22114655 -0.03085741 0.046601947 0.0064551528 -0.048127897 0.1110065 0.058899343 -0.029946038
0.047483265 0.03119769 0.2113306 -0.081282735 -0.11316114 0.10975382 -0.20023404 0.074899025
0.069002934 0.008168525 -0.04203969 0.023988007 -0.030444747 0.067353055 -0.020882897 0.030888254
0.005811805 0.0847385 0.05063317 0.19452475 0.10427233 -0.10094513 -0.025797334 -0.14577504
0.20069607 0.24565211 0.17677741 0.07811246 -0.021219637 -0.029316124 -0.056179464 -0.16585478
0.022352137 0.060320083 0.029243868 0.019845195 0.13877718 -0.23551731 0.07261251 0.051063944
0.06797484 0.07720977 -0.089435644 0.080370545 0.045779057 0.070175275 -0.0030165815 -0.09753647
-0.14408724 0.065122746 -0.10787106 -0.08374786 0.015599578 0.035388358 -0.07599659 -0.03785914
-0.0055159447 0.15110658 0.07141454 0.00824324 0.09732333 0.023816386 -0.023923436 0.03649548
0.023250513 0.011732835 0.05101357 0.04804367 0.009303586 -0.07674797 0.035957366 0.10953901
-0.08285916 0.10173201 -0.12268418 0.06913856 0.24021919 0.11565788 -0.020557255 0.009734298
0.06035421 0.034556475 -0.006882496 -0.05944402 0.1460412 -0.05560966 0.10638293 0.10853674
0.07442354 0.05580114 0.10959518 -0.028307185 0.009932722 0.1425979 0.060021836 -0.028499637
-0.0628001 -0.014163252 0.0370813 0.21291366 -0.057943016 0.006856797 -0.014277771 0.16158393
-0.039117824 0.12923674 -0.033702314 -0.046473745 0.11101496 -0.039560985 -0.02398737 0.086140476
0.06556921 0.044950478 0.009948348 0.04048934 -0.24402466 0.05871411 0.017345406 0.032458358
0.021191215 -0.055246737 -0.065498866 0.03727086 -0.019629743 -0.010443835 -0.07606143 -0.06660083
-0.09320628 -0.072799124 -0.31271055 -0.03429793 0.0173087 -0.03450764 -0.04521743 0.0116798375
-0.09074435 0.07492588 -0.06006678 -0.027408473 -0.010868997 0.024988217 0.025103234 -0.011404431
-0.111843 -0.100100674 -0.0030591197 -0.08236847 -0.12382241 0.07419765 -0.23449937 -0.2246312
0.071099386 0.053030852 -0.079743154 -0.08120155 0.054045968 0.0062208707 -0.035866234 -0.04858611
0.15428478 0.14691749 -0.025122723 -0.052121747 -0.004667399 0.10986751 0.060280036 -0.08929951
0.0016107296 0.08249716 -0.03798284 0.24835896 -0.030815277 -0.091325656 -0.020109236 -0.08058043
-0.063632615 -0.11273858 0.01615474 -0.02052476 -0.09147295 -0.04856431 0.08547725 0.00814535
-0.10549208 -0.0806708 -0.009158803 -0.03103093 -0.094371825 -0.08209487 0.01506587 -0.03463639

action_model._discrete_distribution.branches.2.bias f4 [2]
00000000: 9409 8fbb ed09 8f3b
-0.0043651555 0.004365197

action_model._discrete_distribution.branches.2.weight f4 [2, 256]
00000000: e072 d03d 61fe f23c c264 a83d 53f2 ccbd
00000010: 5d27 da3c 0909 4fbc a4fe 51bd 5ea2 17bd
00000020: 64ab 50bd b8d5 6abc 786b 9f3c 3f9d fb3d
00000030: 15e5 1ebd 2e43 b9bd a63a d3bc 6a42 71bd
00000040: f695 21bc e7a7 fbbc 88a0 16bc 40ab c33c
00000050: 03bc 5ebd 3c08 17bd 1453 dc3d e9ef ec3c
00000060: a02f 763d 8698 123d 42e5 dbbd 4e8a 7b3d
00000070: 9925 1b3e 11a3 77bc bbb9 353a 65ee ed3c
00000080: b9c1 863b ba75 8cbc 2d48 a9bd e748 683d
00000090: c5d2 873d 110c 6abd 61a3 bdbc 5369 6b3b
000000a0: 6a83 b6bb 6b5c a23c d637 19be c8d5 793c
000000b0: b449 03bd 3cde 3d3d b2bb 2d3d 0203 253b
000000c0: 4fd7 743d bb9a 92bd ebf6 973d af19 e6bd
000000d0: b15c 82bd 34ab f53d 9da5 04be 3af6 19bd
000000e0: 2426 5a3c 104e b63b 4554 f83d 0e9e 1b3e
000000f0: ff23 31be e958 313e a57e 743c 2a7f 8fbd
00000100: 34f7 97bd 445b d63b 1cad 0bbe 396b 8ebd
00000110: 5a98 e53c 6280 99bd 3461 be3d f6d8 933c
00000120: fe8d 713d 716c c8bd 18b0 233d 8a98 bf3c
00000130: 741e c7bd 8822 973d e7e2 b33c 20d4 a4bd
00000140: b6c2 f93c 38e2 13bd e93f 98bc 735e 06bd
00000150: 4283 1c3d eff7 c93d 9390 4c3d 5d8a 853d
00000160: e153 063d 7aa5 8ebd 018b db3d da4e 3d3e
00000170: e78e 83bd 5133 86bd 8c39 693c 6435 92bb
00000180: 3b04 a73d 1d0a 7bbd 8780 38bc 08d8 8f3c
00000190: 8be0 94bd 9200 dfbc 1feb a5bd 80ae babc
000001a0: d67b 0abe 9c48 55bd e07a bebd a308 873d
000001b0: 37da d7bd c796 b4bc b765 fa3d 6e55 243d
000001c0: e849 733d 847c 1cbc 92d4 8bbd 7d41 a33d
000001d0: 8a23 41be e252 3bbe cf54 95bd 1d35 db3d
000001e0: 1b77 dabc 8a82 edbc f764 093e aff1 f23b
000001f0: fcac 3a3c b73d 3cbe 57c7 1e3e 35e3 a33c
00000200: fcee 5cbd 4543 473e d578 99bd 4dfa ccbd
00000210: f447 c93c 5257 7c3d 5ea6 d4bd 85fd 9f3d
00000220: c1fc 2abe 834f cabd 33ab 9ebd 0083 c3bd
00000230: 619e afbc 6959 f3bb ce6f 803d 71a7 b3b9
00000240: 75f5 6e3d ea7a 90bd 9455 0abd f08b 7c3c
00000250: 14bd aebc 3417 b53d af7c e8bd a860 983d
00000260: cf51 be3c f8e6 7bbd 1adf 0cbd 6bec debd
00000270: b00c 853d 0509 9fbc 798a 3f3e a1bd e63d
00000280: c45a 483e c0d7 a73d 3511 46bd cc7d 86bd
00000290: c63c 74bd 7937 73bc e054 23bd 4543 443d
000002a0: ca85 5c3d 1d2e 8dbd 4f26 fabd 15a1 7e3d
000002b0: 6391 00bd 1b07 dc3b 1b2d 16bd ca71 453d
000002c0: 3bd4 bebd 939c 7cbd 1c5b cebd b9b3 f8bb
000002d0: d7fa 073d e89c 8f3d 051c c9bd aef0 edbb
000002e0: b1f7 643d 3eee e6bc c52a 263d 86ab 5fbe
000002f0: faf7 4e3e e4cc a43d e43e 09be 9d35 3e3d
00000300: fb48 243c 2365 573d c22f b0bb e3a9 e3bd
00000310: 8b8a f0ba 0aeb 393e 2b2e f9bc 5a73 dd3d
00000320: 8e5e 74bd ff32 a5bd a59a 00be 3da1 943d
00000330: aec5 e6bc 2196 a63d c017 273e 5422 af3c
00000340: 15c4 183d 9160 253d 9d72 b63c b5c0 45bd
00000350: 2a6e e4bc 2a39 60bd fd17 073d 5539 303d
00000360: a612 4dbd c0cb 11bd 9771 87bd 6640 923a
00000370: 7d06 fd3b b3a6 8bbd e530 3a3d ab10 f9bd
00000380: 95c0 083d 157a d3bd c918 fd3d 98c2 f93d
00000390: 1607 023e 6d6e 25bc b5d9 22be d33e c0bb
000003a0: 8960 22bd 3b96 bf3d 9373 473e cbe7 b2bb
000003b0: 81c6 c3bd 8d62 c0bd 7b31 9e3d fade adbd
000003c0: 98b0 343d 66b0 613c aa8f 333d 7360 993d
000003d0: d67b 4a3d 3eca 73bd 84e0 993d 204b 313d
000003e0: 5431 5f3d ddf8 ecbd 3a6f 78be ea41 86bb
000003f0: a0d6 adbd b1e4 95bc c04b 003d c857 bbbc
0.10178161 0.029662313 0.08222343 -0.10007157 0.026630098 -0.0126364315 -0.051268235 -0.03702008
-0.0509447 -0.014333181 0.019460425 0.12285852 -0.03879269 -0.09046017 -0.025784802 -0.058901228
-0.009862414 -0.03071971 -0.009193547 0.02388537 -0.05437852 -0.036873087 0.107580334 0.028922992
0.060104012 0.03578999 -0.10737087 0.061411195 0.15151061 -0.015114562 0.0006932278 0.02904434
0.004112449 -0.01714598 -0.082657196 0.05671015 0.06631998 -0.057140414 -0.023149194 0.0035920932
-0.005569865 0.019819459 -0.14962706 0.015248723 -0.03205271 0.046354517 0.04241533 0.0025178795
0.059775647 -0.07158419 0.07420143 -0.112353675 -0.06365336 0.11995545 -0.12953801 -0.037588336
0.0133147575 0.005563505 0.12125448 0.15197012 -0.17298888 0.17319073 0.0149227725 -0.070066765
-0.07420197 0.0065416414 -0.13640255 -0.06954045 0.028026748 -0.0749519 0.09295884 0.018047791
0.058973305 -0.097863086 0.039962858 0.023388166 -0.09722605 0.07379633 0.021958781 -0.08048272
0.030488353 -0.03610441 -0.018585162 -0.032804918 0.038211115 0.09861743 0.049942564 0.06520531
0.032794837 -0.06965156 0.10719872 0.1848711 -0.06423741 -0.065527566 0.014234912 -0.004461931
0.08155104 -0.06128894 -0.011261112 0.017559066 -0.07269391 -0.027221952 -0.081014864 -0.022788286
-0.13523802 -0.0520712 -0.0930078 0.06593444 -0.10539668 -0.022044552 0.12226432 0.040120535
0.059396654 -0.009551171 -0.06827654 0.07971475 -0.18861213 -0.18293336 -0.072915666 0.1070349
-0.026668122 -0.02899291 0.13417421 0.007414065 0.011393782 -0.18382917 0.1550573 0.020005802
-0.05393885 0.19459255 -0.0749375 -0.100086786 0.024570443 0.061606713 -0.103832945 0.07812027
-0.1669798 -0.09878447 -0.077474974 -0.09546471 -0.021437826 -0.00742643 0.06271325 -0.00034266294
0.058339555 -0.07054694 -0.03377302 0.015414223 -0.021330394 0.08842316 -0.113519065 0.07440311
0.023232369 -0.061499566 -0.034392454 -0.10884937 0.064965606 -0.01941348 0.18705167 0.112666376
0.19565874 0.08195448 -0.048356254 -0.065669626 -0.05962827 -0.014844769 -0.039875865 0.047915716
0.05383853 -0.06893561 -0.12214338 0.06216534 -0.03138865 0.006714714 -0.03666411 0.04820422
-0.093178235 -0.06167276 -0.100759715 -0.007589784 0.033198204 0.07012349 -0.098197974 -0.0072613573
0.05590028 -0.028189775 0.040568132 -0.21842775 0.20211783 0.08046892 -0.13402897 0.04643785
0.0100271655 0.052586686 -0.005376787 -0.11116388 -0.0018351836 0.18156067 -0.030417522 0.10813017
-0.059660487 -0.08066367 -0.12558992 0.07257316 -0.028170433 0.081341036 0.16317654 0.021378674
0.037296373 0.040375296 0.022271449 -0.048279483 -0.027884562 -0.054742016 0.03298186 0.043023426
-0.050066613 -0.0355947 -0.066134624 0.0011158108 0.0077217207 -0.06818905 0.045456786 -0.12161382
0.033386786 -0.1032602 0.12358243 0.12195319 0.12698016 -0.010097128 -0.15903361 -0.005866864
-0.039642844 0.09354826 0.19477682 -0.005459761 -0.09559346 -0.09393797 0.077242814 -0.08489795
0.044113725 0.013774967 0.04383818 0.07489099 0.049434505 -0.059519045 0.07513526 0.043284535
0.054490402 -0.115709044 -0.2426118 -0.004097213 -0.08488202 -0.018297525 0.03132224 -0.022869006

action_model._discrete_distribution.branches.3.bias f4 [2]
00000000: b837 9f3c 5637 9fbc
0.019435748 -0.019435566

action_model._discrete_distribution.branches.3.weight f4 [2, 256]
00000000: 8c5a 8fbc 52f6 bfbd 9884 973d fef3 abbd
00000010: da86 a73d 19a6 b6bc ab48 96bd 8158 d7bd
00000020: 958d b03c 975a 7abc 1259 f73c e846 12be
00000030: ca58 a93d f081 a93d 6572 4b3d 9470 f1bd
00000040: 311e c53d 0725 813d 4147 b2bd 33fb 203c
00000050: 6c6f f8bc 2dea df3d c8a6 ccbd 598f 0bbd
00000060: 3a22 17be fe1e 42bd cb66 d1bd 2aa8 903d
00000070: 54e4 243e 335d 2e3e 9852 5bbc 6ce1 9d3d
00000080: 25dd 813d 39b6 373e f4af f9bd 2d5f 9c3d
00000090: a2ef 05bd 1d7a 613d 990f c83c 1a45 de3b
000000a0: 474d 87bd 13b4 bc3b e5e8 db3d a403 43bd
000000b0: b331 14bd 5c17 9fbc f242 183e ac16 9e3d
000000c0: 2b93 9c3d 737b babb e906 2bbd 7258 2e3e
000000d0: 3347 633b cb65 c13d 6205 05bd 9387 27bd
000000e0: 3553 d7bd d52c 853c f0ac 25be 0177 803d
000000f0: 9957 4ebe 0906 cf3c eb03 ebbc 0031 cb3d
00000100: 4b86 0d3e b7a2 873e 0c3e e33d 27a7 813d
00000110: 112a 3fbc 753a 01bd 6461 a93c 3e82 523d
00000120: 5262 583c 25d1 1c3e b49a a9bd d236 233e
00000130: 926a 7abd 409a e4bd 9aa0 90bc 739f 413b
00000140: 1f25 c73d efa2 b13c e23b 09bd 4060 173c
00000150: 2b8b 3c3e 35e6 21bc 8ab0 3a3e d5c5 04bd
00000160: f4fc 1cbe f5b7 213d f9c7 54bd bc4a 753b
00000170: 8970 0a3d 2d3f 3e3e 7abb 49be a65b bfbd
00000180: cedc 4b3d d33a 38bd 27d3 5c3e c117 eb3d
00000190: c929 07be 8463 b8bd a355 8c3d b40e 37bd
000001a0: f85e 48bd 2a11 503d c3d5 66bc d406 f13d
000001b0: 54e2 35bc 76b1 9ebc c53c 4ebd c6a4 263d
000001c0: 6f83 bbbd d329 4a3d 217f 1c3d 82ef 9e3d
000001d0: 22ba 92bc 8448 c13c 16a3 1abe ae6e b03d
000001e0: b1fa 94bd 3031 14be 7f51 8cbd 9cc6 453e
000001f0: 2474 e3bc 81ac fa39 7693 05be 9388 00be
00000200: a517 aa3d 0ea1 4d3d 6f68 9e3c a8d5 ea3d
00000210: e5e9 20bd 4286 3b3e 9e51 733d f10a 053b
00000220: 9905 24bd 19e7 25be 0ebb 403c f384 173e
00000230: 5779 8bbd d632 e83d 7aad 2e3d d4d5 49be
00000240: 655b 7c3d 9d80 bd3d 7a6e f8bd fa47 51bd
00000250: 8113 c03c 69c8 683d 3d2f a23c f24c 9d3d
00000260: 03cb e33d 988e debd 8622 913c 9f20 b2bc
00000270: cd63 303c 003a a2bb ef9f dcbd 400f 443d
00000280: 166c 283e f048 b13d fb77 05bd 966c 6c3d
00000290: 8a4f dcbd 3081 b13d fb16 74bb cea0 113c
000002a0: b8e1 89bd ad2d e4bc e5eb 17be 4914 83bd
000002b0: e025 a73c b1b7 c5bd d913 90bd 00c9 343d
000002c0: dc82 8f3c 5bef 64bd c567 6d3b 83ef 69bd
000002d0: c0dd 9d3c 7356 79bd ddfe d53b ff3f 8a3d
000002e0: 292a 09be 6a64 8c3d 7055 15be 1e00 b43c
000002f0: 4bfb e9bd 0fb0 d23d 8025 a3bd 6937 4cbd
00000300: c684 c5bb 8546 80bd ee70 73bd 4ec8 03be
00000310: 4c53 80bd f889 8ebd 9e5f 16be bab0 8fbd
00000320: 24da e13d d45f 5f3d 1ede 2b3d 258f 983d
00000330: 1f57 72bd 57cd 00be 02c1 8ebd 0077 f1bb
00000340: bb6a 403d b0d5 58bd a580 463c efde 113e
00000350: b72d b7bc 4637 fa3c dc34 043d c1c4 a83c
00000360: b95f 8b3d b169 e73d 23e0 1ebd 55fc 0e3d
00000370: 99d2 e33c 1ae4 9c3d f8be 123d 9322 50be
00000380: 8096 b13c 4edd 68bd 374f af3c deed b93d
00000390: 06de 7fba 28f0 13be 31d6 83bd fd38 05bd
000003a0: afad 243b 8ec6 83bc 2da1 f5bc 8f89 6d3c
000003b0: ff07 e93d 9367 22be fad4 623c 5d5a 05bd
000003c0: 4f09 0bbe d217 4b3d b1de f4bc d973 98bd
000003d0: 9a23 b23c c69b f53c 1e48 c83d bc67 973d
000003e0: 1bbc 113d aaec 723d ce20 f9bd 2dbd 08bd
000003f0: 1f89 de3b 0153 103c 13ca 5e3e faa1 8c3d
-0.01749923 -0.09373154 0.07398337 -0.08396147 0.08180018 -0.022295998 -0.07338079 -0.10514928
0.021551887 -0.015280387 0.03019384 -0.14284861 0.08268888 0.08276737 0.049669642 -0.11789051
0.09624899 0.063058905 -0.08704997 0.009825516 -0.030326568 0.10933337 -0.099927485 -0.034072254
-0.1475915 -0.047392838 -0.10224684 0.07063325 0.16102725 0.1702774 -0.013386391 0.077090114
0.06341008 0.17940606 -0.121917635 0.07635341 -0.032699235 0.055048097 0.0244215 0.00678314
-0.06606536 0.005758771 0.107377805 -0.047610894 -0.03618021 -0.019420318 0.14869288 0.07719168
0.076452576 -0.005690986 -0.041754637 0.17025927 0.003467989 0.094432436 -0.032475837 -0.040900778
-0.10513917 0.01625673 -0.16179252 0.06272698 -0.20150603 0.025271432 -0.028688392 0.099214554
0.1382076 0.2649133 0.11095819 0.0633071 -0.011667744 -0.03154989 0.020676322 0.05139374
0.013207035 0.15314157 -0.082814604 0.15938881 -0.06113679 -0.11162233 -0.017654706 0.0029544502
0.09723877 0.021684138 -0.033504374 0.009239256 0.18412463 -0.009881546 0.18231407 -0.03241523
-0.15330869 0.039482076 -0.05194852 0.0037428578 0.03379873 0.18578787 -0.19700423 -0.093436524
0.049771123 -0.044977974 0.21564923 0.1147914 -0.13199534 -0.09003356 0.068522714 -0.044691756
-0.048918694 0.05079762 -0.014089051 0.117688805 -0.011101324 -0.01937173 -0.050350923 0.040684484
-0.09155928 0.049356293 0.038207177 0.07760526 -0.01791102 0.023594148 -0.15101275 0.086148605
-0.07274378 -0.14471889 -0.06851482 0.19314045 -0.027765341 0.0004781224 -0.13044533 -0.12552099
0.08305291 0.05020242 0.019336907 0.11466533 -0.03928556 0.18312934 0.059404008 0.002030071
-0.0400444 -0.16201438 0.011763347 0.1479681 -0.06810253 0.11337821 0.04264591 -0.19710475
0.061610598 0.09253047 -0.12130447 -0.051094033 0.0234468 0.05683175 0.019797916 0.07680692
0.11122706 -0.10867041 0.017716657 -0.02174407 0.010765982 -0.004950762 -0.107726924 0.047866106
0.16447482 0.0865649 -0.032585125 0.057720743 -0.10757358 0.08667219 -0.0037245143 0.0088884365
-0.067325056 -0.027853811 -0.1483608 -0.064003535 0.020403802 -0.09654177 -0.07035036 0.044137
0.017518453 -0.05589233 0.0036225182 -0.05711318 0.019270778 -0.06087346 0.006530626 0.067504875
-0.13394989 0.0685509 -0.14583373 0.021972712 -0.114248835 0.10287487 -0.07966137 -0.04985753
-0.0060277907 -0.062634505 -0.05943387 -0.12869379 -0.062658876 -0.06959909 -0.14684913 -0.0701613
0.11027935 0.05453475 0.041959874 0.07449178 -0.059165116 -0.12578331 -0.06970407 -0.0073689222
0.046976786 -0.052938163 0.012115632 0.14245199 -0.022360666 0.030543935 0.032276973 0.020601632
0.06805367 0.11299456 -0.038787972 0.03490861 0.027810382 0.076606944 0.035826653 -0.20325689
0.02167821 -0.056851678 0.021400077 0.09078573 -0.0009760562 -0.14447081 -0.06437338 -0.03252505
0.0025127938 -0.01608589 -0.029984081 0.014498129 0.11378478 -0.15859823 0.013844723 -0.03255688
-0.1357777 0.049583264 -0.029891344 -0.07443971 0.021745492 0.029981505 0.0977938 0.07392833
0.035579782 0.05930773 -0.1216446 -0.033383537 0.0067912485 0.008808852 0.21756773 0.06866832

action_model._discrete_distribution.branches.4.bias f4 [2]
00000000: 6693 92bc 4a93 923c
-0.01789255 0.017892499

action_model._discrete_distribution.branches.4.weight f4 [2, 256]
00000000: af47 9ebc b9d5 d63c 7dca a5bc 02fb bfbb
00000010: 94ae d4bc e2ad 99bc 23be 663d 829e e6bc
00000020: 9086 2bbb 13d7 323d b173 763c 6d5a 3a3d
00000030: 50bf ae3c bdcf 86bb c71b 10bd c591 81bb
00000040: a03f ddbc 6240 e1bd a67d 073b b824 313e
00000050: 427d 11bd 968d c6bc 6e30 833d a30d d0bc
00000060: 37c0 89bc de92 14be ea18 ca3d 691c 97bc
00000070: 7773 32be 69ea 943d 197f 6ebc c362 ae3d
00000080: b15d 1ebd 48e5 8b3d 0eb6 053e eca3 d5bd
00000090: 2a91 48be 4eaf d3bd 9719 25bd 8497 843c
000000a0: 4f95 c0bd 4e2b 033d 3a9a 143d ac7a d4bc
000000b0: 6f73 93bc eb5e 3f3d 1b55 343c bca7 b83d
000000c0: 27e1 c53d ced7 653c 6e50 4e3d 8f6c c03d
000000d0: 1dcf 413d b99a 0a3e 67b1 0ebd c575 96bd
000000e0: 8669 38bc 45f2 1c3e b2de 4d3d 9746 3c3c
000000f0: d4da 983a e8fb 1a3e a6a8 5c3d a573 663d
00000100: f624 7a3c 5fe2 893d 6c22 af3c cf21 9a3c
00000110: 585e d83c 9655 cc3c ce06 cebd 3339 09be
00000120: 7795 3c3c f6fb d13d 37ab 29be 85ec 113e
00000130: 98f1 dd3d cb79 533d 4d2b 0cbd d94b 873d
00000140: ba36 ef3c 2f03 d2bd 0782 a5bc 9641 e53c
00000150: 87c6 003d f57a 4e3d a1ba 13bd 59ce bdbd
00000160: 0097 8bbd 06f5 8f3c 0bea f63d cf71 0bbc
00000170: 814a debd 3989 423d 15fe afbd 9425 e13b
00000180: d017 0ebd b9df d63c cb6c f4bb 4419 a2bd
00000190: f45a 393d 80f4 613d e7e5 56bd 0c20 053d
000001a0: 0c80 b23d 4f91 2b3e a6d6 60bd ea82 97bc
000001b0: 296e 10bd 6316 953c 61e7 593d 0889 e93d
000001c0: 1170 00bd 7aed 3dbd 596c 38be 00ff 1fbd
000001d0: 57a5 a53d 0efb 983c c5c2 2dbd ff3f aa3c
000001e0: 3804 173d 1a09 053e 126f 9d3d 39af 84bc
000001f0: 2a53 a7ba 867c 4f3d 9555 3b3d 3c37 cc3c
00000200: 8b9e 633c a171 a43d 0150 d9bd 13ea b3bd
00000210: 1c04 2a3e 0c7f 7e3e b9a9 753d bd15 053e
00000220: ce2e 05be af60 cabc af1c 6fbc aff5 5e3d
00000230: b88f 14bc d0e7 9e3c 8168 f33d a854 0fbd
00000240: 88c1 383d 848c aabd e64f 483c 6ca6 1f3d
00000250: 1f9e 05be 0d5d 693d 9776 0d3e 01a8 d23b
00000260: e380 7fbd d7b4 fc3d 70e8 183d f335 babd
00000270: fe96 50bd 4a67 af3d 27ef a53d ea1e 8fbd
00000280: 1818 d7bd 7f10 9e3d 4831 08bc 8fd1 72bb
00000290: 6fe2 92bd 5004 2cbe 8b6b 003e 5cb9 9f3d
000002a0: c20a 23be 27d0 87bc ef3d 863d febb e5bc
000002b0: 2045 023e 8898 a23d bc55 873d b367 793b
000002c0: 2c1d 67bd 984a d13c eef7 20bc 9a9d 47be
000002d0: 0dc5 55bd f674 e0bc 082d d13d dfe1 debd
000002e0: 1bbc 803d 9550 cd3d fa89 453d db99 55bc
000002f0: 3083 acbc 1dea a9bc 86da a0bd 9968 983d
00000300: fd8f 733a 1ab0 84bc 912a 193d c21e 423d
00000310: e145 27bd 6bfc dbbc 0c54 853d ad9a 19be
00000320: 65f4 3ebe 782a a8bd 18f6 e9bb 3748 6dbd
00000330: 37f0 be3d a391 0b3e c3cc a33d ffd7 943b
00000340: 6fb9 0abc bf78 533e a255 4c3d ae5f e13d
00000350: b3d0 173d 6473 413c 3d7e 02bc 4d3d 583d
00000360: 5506 a13d fc18 a23d 33b5 9bbd 208a d1bd
00000370: ba3b e33d 4b46 6cbe 8372 633d d990 dfbb
00000380: fd1a 53bd 9cc6 b7bd e999 a83d 3bc3 7db9
00000390: 36a9 1f3e bf3a 0bbe 98bd b83d afd8 de3d
000003a0: 89e1 2cbe f6cf bcbc 07bc 183d c68a ce3a
000003b0: 0152 f5bd b338 c6bc e27c 9ebb 9d7a 9d3d
000003c0: ca23 a53b fcd0 42bd 31c5 fc3c 91b6 b9bc
000003d0: 140f 553c 4bb0 b33d d409 733d b413 4b3e
000003e0: 8a06 aa3d d200 4abd 537b 41bd 4a8f 2cbd
000003f0: b52b cebd 4e91 bfbd f986 1ebe ec89 39be
-0.01932129 0.026224958 -0.020238155 -0.00585878 -0.025962152 -0.018759672 0.056333672 -0.028151754
-0.0026172735 0.043662142 0.015042231 0.045496393 0.02133146 -0.00411412 -0.03518274 -0.0039541447
-0.027007878 -0.10998608 0.0020674258 0.17299163 -0.035519846 -0.024237435 0.064057216 -0.025397127
-0.016815288 -0.1450915 0.09868033 -0.018446164 -0.17426859 0.07271273 -0.01455667 0.08514931
-0.03866357 0.06830841 0.1305773 -0.10431656 -0.19586626 -0.10336171 -0.040307608 0.01618553
-0.09403478 0.03202372 0.036279894 -0.0259374 -0.017999379 0.04672138 0.011006619 0.09016368
0.09662085 0.014028503 0.050369672 0.09395706 0.04731666 0.13535585 -0.034837153 -0.073466815
-0.0112556275 0.15326793 0.050261207 0.011491439 0.0011661896 0.15135157 0.053871773 0.05626263
0.015267601 0.0673263 0.021378718 0.01881495 0.026412174 0.024943154 -0.10059892 -0.13400726
0.011510245 0.10253136 -0.1656922 0.14250381 0.10837096 0.051629823 -0.034220982 0.06606264
0.0292009 -0.102545135 -0.020203603 0.027985375 0.03143933 0.05041023 -0.036066655 -0.09267873
-0.0681591 0.017572891 0.12056359 -0.008511021 -0.10854054 0.047494147 -0.08593384 0.0068709347
-0.034690678 0.026229726 -0.007459258 -0.07914975 0.045252755 0.055164814 -0.052465346 0.032501265
0.08715829 0.1675465 -0.054892205 -0.018495042 -0.035261307 0.018199151 0.053199176 0.1140309
-0.031356875 -0.046369053 -0.18010081 -0.039061546 0.08088177 0.0186744 -0.042422075 0.020782469
0.036869258 0.12991753 0.076872006 -0.016196834 -0.0012765874 0.050655864 0.045735914 0.024928682
0.01389278 0.080294855 -0.10610963 -0.087848805 0.1660313 0.24853152 0.059976313 0.12996574
-0.13006136 -0.024704305 -0.014594241 0.05443352 -0.009067468 0.019397646 0.11885167 -0.034992844
0.04510644 -0.083275825 0.0122260805 0.03897707 -0.130486 0.056973506 0.1381477 0.006428719
-0.062378775 0.1233918 0.037331045 -0.09092321 -0.050925247 0.08564623 0.08102255 -0.06988318
-0.105026424 0.0771799 -0.008312531 -0.0037051176 -0.07172095 -0.1679852 0.12541024 0.07799026
-0.15922073 -0.016578747 0.06554782 -0.028043743 0.12721682 0.07939249 0.066081494 0.0038056194
-0.056424305 0.025548264 -0.009824736 -0.19493714 -0.052189875 -0.027399521 0.10213667 -0.10882925
0.06285878 0.100251354 0.048227288 -0.01303717 -0.021058649 -0.020741517 -0.0785418 0.074418254
0.000929117 -0.016197253 0.03739411 0.047392614 -0.040838126 -0.02685376 0.06510171 -0.1500041
-0.18647917 -0.08211225 -0.0071399324 -0.057930198 0.09323161 0.13629775 0.079980396 0.0045423503
-0.008467062 0.2065153 0.049886353 0.110045776 0.037064265 0.011807296 -0.007964668 0.052792836
0.07862536 0.07914922 -0.076029204 -0.102314234 0.11095376 -0.2307369 0.05552913 -0.006822687
-0.05153941 -0.089734286 0.08232481 -0.00024200689 0.15591893 -0.13596629 0.09020537 0.10881173
-0.1688291 -0.023048382 0.03728869 0.001575791 -0.11978532 -0.024196958 -0.0048366645 0.07689402
0.005039667 -0.047562584 0.030855747 -0.022670062 0.013004083 0.087738596 0.059335545 0.19831735
0.083020285 -0.04931719 -0.04723675 -0.04212884 -0.1006693 -0.093538865 -0.15481175 -0.1811902

discrete_action_output_shape f4 [1, 5]
00000000: 0000 4040 0000 4040 0000 0040 0000 0040
00000010: 0000 0040
3.0 3.0 2.0 2.0 2.0

network_body._body_endoder.seq_layers.0.bias f4 [256]
00000000: f438 6bbb 3305 623d cc1f 4bbb 274b 2a3c
00000010: c707 873b 976a 383c 6332 66bb c30a 183d
00000020: fef3 2f3c f762 3d38 582b 73bd 752f dbbb
00000030: 996a 293d e559 653c 6771 fdbc 9d4a 3fbd
00000040: cfac 023b 2c20 2ebd a5b5 593c 7a31 d73a
00000050: 3d94 01bb 5fb5 6abd 99f3 b7bc 6f9f 0d3d
00000060: 56ff d2bc 4dcf c43b adcd b03d 7e57 f93c
00000070: ba08 723d cb6c 9e3c 7894 303c 03da 693d
00000080: ec35 983c 5304 583a e310 a4bc 6927 a9bc
00000090: e1b5 b23c 241c 8a3c de9d 383d 6046 0fbd
000000a0: 528b 8dbc b336 cd3c a87a 273d 6aba 3d3d
000000b0: f28a 4abd dd8c c93c 917b 873d abda d63b
000000c0: 024e 153b e169 fc3c 638d 60bd ad43 9bbc
000000d0: b6ca d53b 115d 7b3c e277 9abb 74eb 0a3c
000000e0: 0395 0abd ee51 07bc 77c2 4fbc 2014 7cbd
000000f0: 1d5e 303d d92c 6dbc 8d34 3ebd 4c6d e63c
00000100: 878e a53b 6da9 793d 2874 993c 6c79 64bc
00000110: f254 863d 535d 09bc 0fbe 42bc 65b0 443c
00000120: 053d 4d3c 17e1 33bb cf58 fcbc dcdf 1abd
00000130: 0649 e4bd f1d5 813d 0785 7bbc a2f3 ddbb
00000140: 5fdb b23d 1834 aa3c 538d 193c bdef 55bc
00000150: 3724 45bd 95bb 18bd 5212 cbbb 0c60 57bd
00000160: e25a bb3d 7bc1 aa3d c4fc 3f3d a67d 41bd
00000170: 912d 25bb ab8d 0fbc fd1f e7bb 662a 73bd
00000180: 38cc 19bd 8441 a33c e3fd 15bd d4c3 1b3b
00000190: ebf0 963b 9ef1 133d 3b6a 723d 1d8d 8b3d
000001a0: 0559 c43c c64f 303c d259 08bc 22fb 0f3c
000001b0: 033a d8bc 8ac1 b7bd f399 c03c 00e2 f23c
000001c0: 74ac 0f3c fb78 3e3c e947 ba3c 9c1a b83d
000001d0: d03f 313d 51fd b73d a3d1 8e3c 5e10 8ebc
000001e0: ab09 d5bc 2b6a acbd eef1 803a bc87 ebbb
000001f0: 7b2c 6a3c f78f 9d3d 83b8 7a3d 16e9 953d
00000200: 905d 83bb 1d54 b03c 3b4d a43c e54f e5bc
00000210: 0287 1e3c 9a9a 1b3c 8798 a5bc 4a1f 5ebc
00000220: d12b 86bc c472 9f3d 8bdc 2bbb 74a9 133d
00000230: 9b22 2cbc 4193 df3b 9a30 b439 0780 863d
00000240: 1b27 3ebd 1e7b 9fbc 0b2a d0bc 16e8 c13c
00000250: 7268 97bc c0a8 d7bc e462 2b3d d75e 1c3d
00000260: 7c45 1bbd 620c 773b 534e 553d cdaa 2a3c
00000270: 5e80 99bc cb1b b8bc 47ea fd3b 8129 1f3d
00000280: 612d a3bc 3ba9 ae3d 6104 203d ddb2 b13d
00000290: c4cc c63c 532a 58bc aca5 113d 723b 063d
000002a0: da1e 773d 56ae b4bb c3c4 843c 43c6 a6ba
000002b0: bbbe b53b 83d8 d73c 3552 153c 67e8 153d
000002c0: dd45 e1bc 1cee 96bb 1a52 903c dcf6 853c
000002d0: dc58 613d 1f72 903c e998 b13c b689 50ba
000002e0: 9c21 a938 e398 61bb 66ca 903c f60c 063b
000002f0: 9faa f93c 11c7 56bd c6ea de3b e7d5 89bc
00000300: 173e c9bd 0f5e 98bc 77fa 80bd a41f 073d
00000310: 5c94 0c3d 8d2e 1c3d ef74 cebc 408c 2e3d
00000320: 3f9d 523b 35ba 95bc 7b04 69bd f456 c1bc
00000330: fc20 2fbc 2757 72bd 0e4c 213c 4efa dc3c
00000340: 469c 113d 52d6 7ebc cead 253d dc15 41bc
00000350: 1974 34bb fcb0 0d3d 390c 103d eea7 3dbd
00000360: cbe1 8b3c 46fc 4e3d dae4 c7bc 7505 6a3d
00000370: 1202 42bc d53a 8c3d b2fa c5bc 210a 533c
00000380: f7c2 873c 5764 6c3d 216b c73b c10c 9f3c
00000390: b275 b13c 0de1 f33c ba27 2b3d b791 15bd
000003a0: 23b6 6cbc e695 fbbb d3c9 90bd f220 abbd
000003b0: c4a4 fa3c 33aa bbbb 6cd6 7a3d 7103 043d
000003c0: 4d6a 8d3d ff59 103d 58ee 933d 9635 85bc
000003d0: 1686 86bc 9423 263d 91d5 c5bc d189 a5b9
000003e0: 63a5 493d 95c7 783c 84cb 04bc b6da 503b
000003f0: 9488 fdbc aa76 4abb 4b3e 90bc 03b3 baba
-0.00358921 0.05518074 -0.0030994294 0.010393894 0.0041208 0.011255882 -0.0035125248 0.03711964
0.010739325 4.515328e-05 -0.059367508 -0.006689007 0.041361425 0.013998483 -0.030937864 -0.046702016
0.0019939428 -0.04251115 0.013287936 0.0016417943 -0.0019772195 -0.057301875 -0.022455024 0.034575876
-0.02575652 0.0060061575 0.086329795 0.030437227 0.059090354 0.019338986 0.010777585 0.057092678
0.0185804 0.00082403905 -0.020027583 -0.020648675 0.021815242 0.016859122 0.04507243 -0.034979224
-0.017278347 0.025050497 0.04088846 0.046320356 -0.049448915 0.024603302 0.06615365 0.006556829
0.0022782092 0.030812206 -0.054822337 -0.018953169 0.006524409 0.015342013 -0.004713998 0.008478988
-0.033833515 -0.00825928 -0.012680641 -0.06154263 0.043058503 -0.014476025 -0.046436835 0.028128289
0.005052391 0.060952593 0.018732145 -0.013944965 0.06559171 -0.008384067 -0.011886134 0.012004946
0.012526755 -0.0027447396 -0.030804066 -0.037811145 -0.111467406 0.06339634 -0.01535154 -0.006773428
0.08733248 0.020776793 0.009372073 -0.013057646 -0.04813024 -0.037288267 -0.0061972523 -0.05258183
0.09148194 0.08337685 0.046871915 -0.04723897 -0.0025204162 -0.008761804 -0.007053374 -0.059366606
-0.037548274 0.019928701 -0.03661908 0.0023767846 0.0046063564 0.036119096 0.05918334 0.068140246
0.02396823 0.010761207 -0.008322196 0.008787902 -0.02639485 -0.089724615 0.023510909 0.02964878
0.008769143 0.011625524 0.022739368 0.0898945 0.043273747 0.08983863 0.017433947 -0.017341789
-0.026005587 -0.084186874 0.0009837726 -0.0071878117 0.0142928315 0.07693475 0.06121112 0.07319848
-0.0040089563 0.021524483 0.020056358 -0.027992198 0.009675743 0.009497309 -0.020214332 -0.013557265
-0.016378315 0.07785562 -0.0026223983 0.036050275 -0.010506297 0.006822974 0.00034368486 0.06567388
-0.046424013 -0.019467887 -0.025410673 0.023670238 -0.01848242 -0.026325583 0.041842356 0.038176384
-0.037908062 0.003769659 0.05207665 0.010416699 -0.018737968 -0.02247419 0.0077488753 0.03885794
-0.0199191 0.08528372 0.039066676 0.086766936 0.024267562 -0.013193685 0.035558388 0.032771535
0.060332157 -0.0055139465 0.016207105 -0.0012723882 0.0055464185 0.026348358 0.009113838 0.03659859
-0.027499134 -0.0046060216 0.017617274 0.016353063 0.055016384 0.017632542 0.021679359 -0.0007955091
8.064808e-05 -0.0034423403 0.017674636 0.0020454503 0.030476866 -0.05243594 0.0068028895 -0.01682563
-0.09826296 -0.018599538 -0.062977724 0.03298916 0.034321174 0.03813033 -0.025202243 0.04261422
0.0032137183 -0.018277267 -0.05688904 -0.023601033 -0.010689016 -0.059165146 0.009844793 0.026974823
0.035549425 -0.015554028 0.040448956 -0.011784997 -0.002753502 0.034592614 0.035167906 -0.04630273
0.01707544 0.050533555 -0.024401117 0.05713411 -0.011841314 0.06847159 -0.024167392 0.012880833
0.016572459 0.05771288 0.006085769 0.019415261 0.021662567 0.029770399 0.041785933 -0.036515918
-0.014447722 -0.0076777814 -0.07069745 -0.08355893 0.030596144 -0.0057270764 0.061239645 0.032229844
0.06905041 0.035242077 0.07223195 -0.016260903 -0.016421359 0.040561274 -0.024149688 -0.00031573934
0.04922999 0.015184303 -0.0081051625 0.0031868643 -0.030948915 -0.0030893483 -0.017607829 -0.0014244023

network_body._body_endoder.seq_layers.0.weight f4 [256, 273]
00000000: 8da7 39bd cc08 1bbd c2db babc a936 52bd
00000010: 46f0 dcbc fd34 8f3d 544c 423c 634a f0bd
00000020: 5605 cebd 22a2 f43d 8c1f 04be 8c77 37bd
00000030: dc4f 313d 3ba2 e4bc 50d2 dcbc 8b99 33be
00000040: 8cdc bb3c 2949 9f3c 4c3f 833d de55 4b3d
00000050: 8da3 49bd 154d aebd a499 263e 83ad 8e3c
00000060: 550b fcbb 1769 4dbd bf66 6ebc e415 94bd
00000070: b3f1 243c 3a4b b6bd a171 863d 723b e6bc
00000080: add8 6e3b 2de3 143e 6b7f 0a3e 09bb 02be
00000090: e970 263d 73b2 d53d c7bc 9d3d 8a42 debd
000000a0: 456f 293d 6599 2bbe 5b6c 81bd 06d2 88be
000000b0: 36f2 adbd 49e6 a0bd 7f38 0b3e feb0 423e
000000c0: 2b29 f93d 08b4 ecbd 5675 f33c 8108 613c
000000d0: 7fe0 993c 81b4 dabc 6fa7 133e 5d1e dbbd
000000e0: cbc2 2a3d 6ef1 55be c479 48bd ed29 fbbd
000000f0: 3634 82bd 395b 5f3e e786 b9bd a23c a13b
00000100: 86a4 7bbd ee71 bbbd c3cf 23bc b9c5 023d
00000110: 6920 3e3d 2ed2 343d 3a5a 36bd 9d4c 08be
00000120: 1e42 99bd b0e1 59bd 882b 0dbe dc7b 85bd
00000130: 9514 673d 5d81 52bd 6917 563d f2b5 823d
00000140: c533 083d aca3 523c b395 623e 0c10 353e
00000150: b21c 8cbe e6e2 61bd 8193 95bc 2d86 953c
00000160: 0f41 0abe 4e6e e0bd 46e9 253d b104 b53d
00000170: 131d e13d f5d4 32bc 029f dd3d 1f1f 713d
00000180: 1429 7bbd d871 183d 8398 debd a138 a3bd
00000190: 1997 313d a90a 26bc 9914 a9bd 631f 073e
000001a0: 498e bbbd 968e 193d 6bfc 11be 6dd5 3a3d
000001b0: fb4d 50be 4ef5 14bd b838 933d 78b4 c1bc
000001c0: d49d 9cbd f892 743d 18c3 bcba 9494 afbc
000001d0: a5b6 0ebe 1fce 93bd 062b 81bd 66d1 1fbe
000001e0: 1b87 04bd 4a82 113e 5287 5bbc eee9 e1be
000001f0: e042 273d 16f3 04bd fe03 96bc b010 463e
00000200: 385f 8e3d f7f6 883d a879 40bd 3e87 b03d
00000210: 4020 243d 39d0 94be 1d3d 9d3c 64f9 483d
00000220: 5e56 4d3e a2e9 41be ad9b 0d3e 2e97 a9bd
00000230: 2e08 14be fbed 3e3c ef22 cdbd 244b 593e
00000240: 0a3b 0f3d 5e3a 533e 4abe c63d 4b78 7a3d
00000250: a815 2c3d 41ef 75bd b2f1 b13d af4e 8c3d
00000260: 18df 06bd 876d bd3d 5f9a 01be 8465 ecbc
00000270: 7d8a 533d ec56 303e bad3 edbd 7194 28bd
00000280: 5a66 143e 452a bd3c 9503 95bd f6c3 b9bd
00000290: cb98 433d 33e0 b9bd 9f23 2abe 9560 6f3c
000002a0: ca8c 5abd b2a7 8bbd 9849 3f3d ed21 8a3c
000002b0: 969e e43d 6d83 9abd 6b86 ce3d 9087 533d
000002c0: 0a11 81bc 8e72 863d 8d11 47be 73d5 c33d
000002d0: 1e29 f33b 992f abbd f535 303d e204 2cbd
000002e0: 8d37 1cbc ac1b 59be 4f2f 433d 809f febd
000002f0: 1d65 92bd 597d 76bd 8a91 a2bd 9d24 e2bc
00000300: 268e 05be c22a 1e3c 3d26 cdbd 5155 32bd
00000310: fc89 d2bd eecd 123d e03a dd3d dfe5 22be
00000320: 07dc 7bbd 8580 60bd 9499 ed3d a816 1ebe
00000330: 43dc 45bd 91c6 69bd 6c47 2a3a 83fc 01bd
00000340: fb88 b6bd 18a7 823d fa9f 80bd 3e50 123e
00000350: 7429 87ba e8fa 4a3e 9e73 2f3c eb30 2abd
00000360: 13ba 5b3d 2d14 3ebc bfaf a93c a262 b63c
00000370: 299d d7bd 25f7 133f 8087 fbbd cf81 763d
00000380: 58f7 fabd d2ed 703d 40e0 a93c e43b 0fbe
00000390: dacc 973e 81ab 403e 355d 073e 0d23 86bd
000003a0: 649c 8fbc 00d9 833d b8d8 6a3d 5cac 9cbc
000003b0: b6ce 9c3d a8f3 473d ef91 0cbc 1c11 d9bc
000003c0: d4ce d4ba 2dd4 d7bd 06dd a43e 083d febd
000003d0: 4f28 9b3c 2380 72be 5f9e 4a3d 40ec c73c
000003e0: c8c0 46bb b31a 6c3e c389 c73d cb91 db3d
000003f0: bee5 21be 726b 08bd 3bd4 83bc b139 d6bd
-0.045325805 -0.037850186 -0.022809867 -0.05132166 -0.02697004 0.069925286 0.011859018 -0.11732938
-0.100596115 0.11944987 -0.12902659 -0.044791743 0.04328905 -0.027909389 -0.026955754 -0.1753904
0.022932313 0.019444065 0.06408557 0.049642436 -0.04922824 -0.08510796 0.16269547 0.017416721
-0.0076917806 -0.05014905 -0.014550864 -0.07230738 0.010067391 -0.08901067 0.06564642 -0.028104518
0.0036445067 0.14539786 0.13525169 -0.12766661 0.040635023 0.10434427 0.07702022 -0.10852535
0.04136588 -0.16757734 -0.06319495 -0.26722735 -0.08493464 -0.078564234 0.1359577 0.1901283
0.12166055 -0.11557776 0.029719036 0.013734938 0.018783806 -0.0266974 0.1441934 -0.10699151
0.041689675 -0.2089288 -0.04894425 -0.12263856 -0.06357615 0.21812142 -0.09058934 0.004920558
-0.0614362 -0.0915259 -0.009998265 0.031926844 0.046417627 0.044145755 -0.04451964 -0.13310476
-0.07483314 -0.053193748 -0.13786137 -0.06517765 0.056416113 -0.0513929 0.05226842 0.063823596
0.033252496 0.012856405 0.22127418 0.17681903 -0.27365643 -0.055148028 -0.018258812 0.018252457
-0.1350138 -0.10958539 0.04050567 0.088387854 0.109918736 -0.010915031 0.10821344 0.05886757
-0.061318472 0.037217945 -0.10868933 -0.079697855 0.04335699 -0.0101343775 -0.08255882 0.13195567
-0.09157998 0.037489496 -0.14256446 0.045613695 -0.20342247 -0.036366753 0.071885526 -0.023645625
-0.07647291 0.059710473 -0.0014401404 -0.021433152 -0.13936861 -0.07217049 -0.06307034 -0.15607223
-0.03235541 0.14209858 -0.013398962 -0.44123787 0.04083526 -0.032458387 -0.01831245 0.19342303
0.06951755 0.0668773 -0.04699102 0.086195454 0.04006982 -0.2906511 0.01919418 0.049065962
0.20052478 -0.1893678 0.13828917 -0.08280788 -0.14456245 0.011653419 -0.10016429 0.2122007
0.034968413 0.20627734 0.097042635 0.061149877 0.04201284 -0.060042623 0.08688678 0.06850945
-0.032927603 0.09249406 -0.12656544 -0.028857 0.051645745 0.17220658 -0.11612649 -0.04115719
0.14492169 0.023091445 -0.07276074 -0.0907058 0.047753137 -0.09075966 -0.16615151 0.014610429
-0.053356923 -0.06819095 0.046701044 0.01686188 0.1116306 -0.07544599 0.10084232 0.051642954
-0.015755195 0.06564818 -0.19440289 0.095621966 0.007420673 -0.08358688 0.043020207 -0.041996844
-0.009534729 -0.21201962 0.04765254 -0.12432766 -0.07148192 -0.060178135 -0.079379156 -0.02760535
-0.13042507 0.009653749 -0.10017059 -0.043538395 -0.10280225 0.03584092 0.10802245 -0.15908001
-0.06148913 -0.054810066 0.11601558 -0.1543833 -0.04830576 -0.057074133 0.0006495628 -0.031734955
-0.08912846 0.06379527 -0.06280513 0.14288422 -0.0010312037 0.19822276 0.010708718 -0.041550558
0.05364425 -0.01160149 0.020713685 0.022263829 -0.10528023 0.5779899 -0.12281704 0.06018239
-0.12254208 0.058820553 0.020736814 -0.1398769 0.29648477 0.18815424 0.1321915 -0.06549654
-0.017530628 0.06437874 0.057335585 -0.019125156 0.076566145 0.048816353 -0.008579715 -0.026497416
-0.0016235956 -0.10538516 0.32199878 -0.124139845 0.01894012 -0.23681693 0.04946744 0.024404645
-0.003032731 0.2305706 0.09743073 0.10721167 -0.15810296 -0.033305593 -0.01609241 -0.104602225
