Project/Assets/00_AIBrains/01_TESTED/Sumo_Bus00_B06.onnx (onnx, 564905 bytes, 21 tensors)

133 f4 [147]
000000 bc 1a 68 3e dd f3 27 3e 58 9e f0 3e 89 15 11 3a
       0.22666448 0.1640162 0.46995807 0.000553452
000010 89 15 11 3a 72 14 fd 3e 5c aa d5 3e 05 21 84 3e
       0.000553452 0.4942966 0.41731536 0.25806442
000020 c2 78 03 3e a2 78 dc 3e 89 15 11 3a 89 15 11 3a
       0.12839034 0.43060786 0.000553452 0.000553452
000030 8c d9 f3 3e 9c 6e d1 3e 06 17 79 3e 25 97 76 3e
       0.47626913 0.409047 0.24325189 0.24081095
000040 02 5b ca 3e 89 15 11 3a 89 15 11 3a f1 22 f1 3e
       0.39522558 0.000553452 0.000553452 0.4709697
000050 4b ac c5 3e f1 4e 5c 3e 1a 7b 04 3e 28 88 9b 3e
       0.38608012 0.21514489 0.12937585 0.30377316
000060 89 15 11 3a 89 15 11 3a c0 86 c5 3e 20 38 a0 3e
       0.000553452 0.000553452 0.3857937 0.3129282
000070 2b b0 60 3e 48 2a 96 3e 2e a0 8d 3e 89 15 11 3a
       0.21942203 0.29329133 0.2766127 0.000553452
000080 89 15 11 3a 22 7d db 3e cd 1d a0 3e 3f 0b 08 3e
       0.000553452 0.42868906 0.31272736 0.1328554
000090 83 6c 0f 3e 63 c3 59 3e 89 15 11 3a 89 15 11 3a
       0.14006238 0.2126594 0.000553452 0.000553452
0000a0 39 d3 98 3e fe 3e 80 3e 8b e6 0d 3e 6f c8 a4 3e
       0.2984865 0.2504806 0.13857476 0.3218417
0000b0 e4 82 62 3e 89 15 11 3a 89 15 11 3a c3 89 cd 3e
       0.22120243 0.000553452 0.000553452 0.40144166
0000c0 db 47 99 3e 1a ad 68 3e 69 c7 29 3e be b5 f0 3e
       0.29937634 0.22722283 0.16579975 0.47013658
0000d0 89 15 11 3a 89 15 11 3a 03 a7 fc 3e e4 31 d4 3e
       0.000553452 0.000553452 0.4934617 0.41444314
0000e0 23 5f 84 3e 31 d8 05 3e d0 89 dc 3e 89 15 11 3a
       0.25853834 0.13070752 0.43073893 0.000553452
0000f0 89 15 11 3a b7 eb f2 3e 44 86 cf 3e b0 98 79 3e
       0.000553452 0.4744546 0.40532124 0.24374652
000100 e9 e4 77 3e df 6b ca 3e 89 15 11 3a 89 15 11 3a
       0.24208416 0.39535424 0.000553452 0.000553452
000110 d5 1a f0 3e 67 72 c3 3e 24 9a 5c 3e 7d dd 06 3e
       0.4689547 0.3817322 0.21543175 0.13170429
000120 35 95 9b 3e 89 15 11 3a 89 15 11 3a d8 04 c3 3e
       0.30387273 0.000553452 0.000553452 0.38089633
000130 6a 62 9c 3e c9 11 61 3e 95 b3 96 3e fb b6 8d 3e
       0.30543834 0.21979441 0.29433885 0.27678666
000140 89 15 11 3a 89 15 11 3a 3d bb d9 3e c6 8b 9c 3e
       0.000553452 0.000553452 0.42525664 0.3057539
000150 81 52 08 3e c4 78 11 3e 91 d6 59 3e 89 15 11 3a
       0.13312723 0.14206225 0.21273257 0.000553452
000160 89 15 11 3a 6e 9c 94 3e 94 55 75 3e b6 5f 0e 3e
       0.000553452 0.29025596 0.23958427 0.13903698
000170 34 39 a5 3e 83 a6 62 3e 89 15 11 3a 89 15 11 3a
       0.32270205 0.22133832 0.000553452 0.000553452
000180 11 50 cb 3e ee 58 95 3e e0 3b 69 3e 26 14 2c 3e
       0.39709523 0.2916941 0.22776747 0.16804561
000190 b6 ce f0 3e 89 15 11 3a 89 15 11 3a 02 36 fc 3e
       0.47032708 0.000553452 0.000553452 0.49259955
0001a0 8f b1 d2 3e ff 9b 84 3e f3 cc 08 3e e8 9b dc 3e
       0.4115109 0.25900266 0.13359432 0.43087697
0001b0 89 15 11 3a 89 15 11 3a f0 fb f1 3e ea 94 cd 3e
       0.000553452 0.000553452 0.47262526 0.40152675
0001c0 3b 17 7a 3e 4a 81 79 3e d2 7c ca 3e 89 15 11 3a
       0.24422924 0.24365726 0.39548355 0.000553452
0001d0 89 15 11 3a a3 10 ef 3e 20 2d c1 3e 07 df 5c 3e
       0.000553452 0.4669238 0.3772974 0.21569453
0001e0 6e cf 09 3e 79 a2 9b 3e 89 15 11 3a 89 15 11 3a
       0.13458034 0.30397394 0.000553452 0.000553452
0001f0 cd 7e c0 3e 33 72 98 3e ed 6f 61 3e 42 58 97 3e
       0.3759674 0.29774627 0.22015353 0.29559523
000200 ec cb 8d 3e 89 15 11 3a 89 15 11 3a 5f f6 d7 3e
       0.27694643 0.000553452 0.000553452 0.42180154
000210 83 df 98 3e 90 96 08 3e 66 ee 13 3e 31 ea 59 3e
       0.29858026 0.13338685 0.1444641 0.21280743
000220 89 15 11 3a 89 15 11 3a 43 4b 90 3e bf 98 69 3e
       0.000553452 0.000553452 0.2818242 0.22812174
000230 ee d0 0e 3e 81 b8 a5 3e 96 c9 62 3e 89 15 11 3a
       0.13946888 0.32367328 0.22147211 0.000553452
000240 89 15 11 3a 93 0c c9 3e 7c 45 91 3e
       0.000553452 0.39267406 0.28373325

136 f4 [63]
000000 9a 3c 3c 3c 4a 0e e7 3e 4d 3e d7 3e 89 15 11 3a
       0.011489058 0.4512809 0.4203972 0.000553452
000010 89 15 11 3a 70 9c ff 3e b9 24 c9 3e 9a 3c 3c 3c
       0.000553452 0.4992404 0.3928583 0.011489058
000020 4a 0e e7 3e 4d 3e d7 3e 89 15 11 3a 89 15 11 3a
       0.4512809 0.4203972 0.000553452 0.000553452
000030 70 9c ff 3e b9 24 c9 3e 9a 3c 3c 3c 4a 0e e7 3e
       0.4992404 0.3928583 0.011489058 0.4512809
000040 4d 3e d7 3e 89 15 11 3a 89 15 11 3a 70 9c ff 3e
       0.4203972 0.000553452 0.000553452 0.4992404
000050 b9 24 c9 3e 3f ac 3c 3c 72 69 e7 3e 25 58 d7 3e
       0.3928583 0.011515676 0.45197636 0.42059436
000060 89 15 11 3a 89 15 11 3a c5 bc ff 3e e9 1c c8 3e
       0.000553452 0.000553452 0.49948707 0.39084557
000070 3f ac 3c 3c 72 69 e7 3e 25 58 d7 3e 89 15 11 3a
       0.011515676 0.45197636 0.42059436 0.000553452
000080 89 15 11 3a c5 bc ff 3e e9 1c c8 3e 3f ac 3c 3c
       0.000553452 0.49948707 0.39084557 0.011515676
000090 72 69 e7 3e 25 58 d7 3e 89 15 11 3a 89 15 11 3a
       0.45197636 0.42059436 0.000553452 0.000553452
0000a0 c5 bc ff 3e e9 1c c8 3e cc 8a 3d 3c 3a cd e7 3e
       0.49948707 0.39084557 0.011568736 0.45273763
0000b0 ae 74 d7 3e 89 15 11 3a 89 15 11 3a 0a d6 ff 3e
       0.42081207 0.000553452 0.000553452 0.49967986
0000c0 f8 05 c7 3e cc 8a 3d 3c 3a cd e7 3e ae 74 d7 3e
       0.3887174 0.011568736 0.45273763 0.42081207
0000d0 89 15 11 3a 89 15 11 3a 0a d6 ff 3e f8 05 c7 3e
       0.000553452 0.000553452 0.49967986 0.3887174
0000e0 cc 8a 3d 3c 3a cd e7 3e ae 74 d7 3e 89 15 11 3a
       0.011568736 0.45273763 0.42081207 0.000553452
0000f0 89 15 11 3a 0a d6 ff 3e f8 05 c7 3e
       0.000553452 0.49967986 0.3887174

139 f4 [63]
000000 d6 69 5b 3d 09 23 7d 3e a5 fb 00 3e 89 15 11 3a
       0.05356773 0.24720396 0.12595995 0.000553452
000010 89 15 11 3a 00 14 98 3e fd 59 50 3e 1a 37 c3 3d
       0.000553452 0.2970276 0.20346828 0.09531994
000020 d9 9c be 3e c0 a9 19 3e 89 15 11 3a 89 15 11 3a
       0.3722904 0.1500616 0.000553452 0.000553452
000030 be 36 d1 3e 29 8f 78 3e ac e5 df 3d 89 0a 42 3e
       0.40862077 0.24273361 0.10932478 0.18949331
000040 1e 52 17 3e 89 15 11 3a 89 15 11 3a 58 e3 8e 3e
       0.14777419 0.000553452 0.000553452 0.27907825
000050 7e ae 4c 3e a1 9b 6b 3d 3c 9a 7d 3e 4c 0c 01 3e
       0.19988438 0.057521466 0.24765867 0.12602347
000060 89 15 11 3a 89 15 11 3a a6 d8 93 3e e6 88 41 3e
       0.000553452 0.000553452 0.28876227 0.18899879
000070 69 11 c9 3d 99 d7 be 3e 26 be 19 3e 89 15 11 3a
       0.09817774 0.37273863 0.15013942 0.000553452
000080 89 15 11 3a 32 29 cf 3e 9f 86 6d 3e 9d 2a e4 3d
       0.000553452 0.40461117 0.23195885 0.1114094
000090 de ca 42 3e f6 5b 17 3e 89 15 11 3a 89 15 11 3a
       0.190227 0.14781174 0.000553452 0.000553452
0000a0 13 49 8a 3e ee 28 3d 3e bc 47 7a 3d ef 13 7e 3e
       0.27008876 0.18472645 0.061103567 0.24812292
0000b0 65 1b 01 3e 89 15 11 3a 89 15 11 3a c8 67 8f 3e
       0.12608106 0.000553452 0.000553452 0.28008866
0000c0 0d 3c 31 3e d6 17 ce 3d 31 13 bf 3e 58 d3 19 3e
       0.17308064 0.1006314 0.3731933 0.15022027
0000d0 89 15 11 3a 89 15 11 3a 19 05 cd 3e 01 c2 61 3e
       0.000553452 0.000553452 0.40042952 0.22046663
0000e0 61 b0 e7 3d e0 8b 43 3e 48 64 17 3e 89 15 11 3a
       0.113129385 0.19096327 0.14784348 0.000553452
0000f0 89 15 11 3a 64 61 85 3e 1f f6 2b 3e
       0.000553452 0.26050866 0.16793106

action_model._discrete_distribution.branches.0.bias f4 [3]
000000 05 27 11 3b 16 99 ce 3b 1e 66 03 bc
       0.0022148502 0.0063048704 -0.008019952

action_model._discrete_distribution.branches.0.weight f4 [3, 256]
000000 bf 90 ec bc b4 ed 06 bd e0 d9 e0 bc 01 40 24 3d
       -0.028877614 -0.032941535 -0.02744764 0.0401001
000010 b4 75 83 bd b5 11 93 bc 4d 64 24 3d e1 d4 59 3c
       -0.064189345 -0.01795278 0.040134717 0.013295383
000020 24 ff 2a 3d c5 6e 21 bc 8c 99 c7 bc 16 85 07 3d
       0.041747227 -0.00985307 -0.024365209 0.033085905
000030 33 17 06 3c 0d 78 43 3c 2a 37 30 3c d1 d0 26 3c
       0.008184242 0.011930478 0.01075534 0.010181622
000040 b9 ea b7 3b 8a 9c be 3c dd 49 69 3c 86 a9 2a bc
       0.005612698 0.023268003 0.014238802 -0.010416394
000050 57 09 96 3c 33 5e 69 bc e5 07 18 3d 26 22 bd 3c
       0.018315 -0.01424365 0.037116904 0.023087572
000060 3f 43 0a bc 36 5a b2 3a 40 7d 49 3c a5 bf 75 3c
       -0.008438884 0.0013607207 0.012297928 0.014999305
000070 a9 8e d5 bb 75 cd a6 3c 6d a6 4d bc 6f 5f 57 bd
       -0.0065172506 0.020361641 -0.012551886 -0.052581247
000080 5a 3e 60 3d 1c 04 74 bc f9 96 27 bc 18 93 0e bd
       0.054746963 -0.014893558 -0.010228866 -0.03480825
000090 65 b4 ad bb 7c 7d 61 3d e6 4c 37 b9 dd ed ce 3c
       -0.0053010457 0.05505131 -0.00017480887 0.025259906
0000a0 b8 4c e6 bc c0 f3 ad bb 21 c7 cf bc 82 c7 1c bc
       -0.028112754 -0.0053085983 -0.025363507 -0.009569051
0000b0 f4 e5 c4 bc 6d 64 10 bd b8 a9 c7 bc 3f dd 19 bd
       -0.024035431 -0.035252023 -0.02437292 -0.037564512
0000c0 bb c6 6c bc 04 f9 fe 3c 14 43 a7 3b 47 b2 0b 3c
       -0.014451678 0.0311246 0.005104432 0.008526391
0000d0 8f a7 a7 3c 7a a6 2f 3d 4a 85 bc 3c 66 8a 47 3c
       0.02046564 0.042883374 0.023012776 0.012178993
0000e0 40 a3 21 3d e7 64 46 3d 82 35 19 bc 91 94 b7 3c
       0.039462328 0.04843607 -0.009351136 0.02240971
0000f0 9f 5b 89 3c 06 8f 20 bd 11 59 2a bc 40 d7 86 bc
       0.016767321 -0.039198898 -0.010397212 -0.016460061
000100 f5 97 f2 3c af 87 86 bc 46 39 94 b9 9c 14 b1 bb
       0.029613474 -0.01642212 -0.00028271432 -0.005404068
000110 20 24 f6 3b 0e cb c7 bc 79 b2 73 bc 5d 7a 08 3d
       0.0075116307 -0.024388816 -0.014874094 0.03331982
000120 ff c9 29 ba dc 9d ae 3c 21 e9 61 3c 9d c7 8b 3c
       -0.0006476938 0.021315508 0.013788492 0.017062956
000130 15 f7 4c 3c d7 1f db bc 4f a7 d5 3b 19 7d 9e 3a
       0.012510081 -0.02674858 0.006520189 0.0012091725
000140 54 e7 0e bb 93 36 6a bc d4 c6 98 3c 82 98 0f bc
       -0.0021805363 -0.014295238 0.018649496 -0.008764388
000150 85 5d 7d bc 1b 94 c0 bc 5c 57 c2 3b 82 83 a8 3c
       -0.015464191 -0.023508122 0.005930824 0.02057052
000160 4d 69 2e 3c 1f a8 65 bc 5f b9 c0 bc 98 36 df 3c
       0.010645223 -0.014017134 -0.023525892 0.027247712
000170 ac 8b cd bc 12 07 8a 3c 8b f8 af bb 96 e9 4b bc
       -0.025091015 0.016849075 -0.005370205 -0.012445828
000180 66 cc db bc 89 a2 8b 3c 01 53 00 bc 43 d5 a3 3c
       -0.026830863 0.017045276 -0.00783229 0.019999152
000190 6e 65 e9 bb 0b 22 02 bc 5f ed 41 bc 6d eb 9c bc
       -0.007122687 -0.007942687 -0.011836379 -0.019155229
0001a0 71 4a c8 b9 6e 55 06 3c 1a 89 a7 3c 5c 5c 1a 3d
       -0.00038202436 0.008199079 0.020451117 0.037685737
0001b0 ff 55 e5 bb 84 93 c5 3c 25 ac b5 3c b4 2d 4e bc
       -0.006998777 0.024118192 0.022176811 -0.012584139
0001c0 d1 73 81 3a 9e 5f 88 bb 73 a3 0d bd 7b 57 2c bd
       0.0009876435 -0.004161789 -0.034579705 -0.042075615
0001d0 d3 f5 77 3b de 43 c9 bc 63 c2 e8 3c 3a ee d2 3c
       0.0037835732 -0.024568494 0.028413003 0.02574836
0001e0 d4 f2 19 3c ae 17 87 bc 70 86 a9 bc 47 fc 91 3b
       0.009396274 -0.016490784 -0.020693988 0.0044551226
0001f0 ed 5c 32 39 9a 57 be bc 28 fe a2 3b f2 15 49 3c
       0.0001701002 -0.023235131 0.0049741454 0.012273299
000200 5f d7 a5 bc f3 cb c2 3b 47 fd 3e 3c 7e c7 a6 ba
       -0.020244299 0.005944723 0.011657066 -0.0012724248
000210 81 5c 76 3c c4 23 7e bc 61 38 81 3c a7 f0 da 3a
       0.015036703 -0.015511457 0.015773954 0.00167038
000220 58 e4 81 3c 93 84 f7 3c 9c 80 b5 bb 59 bb 6c 3c
       0.015855953 0.030214584 -0.005539013 0.014448964
000230 21 17 a6 3c f1 b4 84 bc 95 72 f6 3b 7d ef 37 bc
       0.0202747 -0.01619956 0.0075209835 -0.011226532
000240 e2 6b e3 bc 40 a3 54 3c 0f de ea bb c9 b6 a0 3c
       -0.027761403 0.012978375 -0.0071675847 0.019618409
000250 22 63 fe bc a9 eb e6 bc e9 5d 14 3c 12 8e d2 bb
       -0.03105313 -0.028188543 0.009055593 -0.0064256275
000260 2d 51 9e bc 36 5e 40 3c a7 d9 9c bc c7 0e 89 3c
       -0.019325817 0.011741212 -0.019146753 0.01673068
000270 86 43 89 3c f8 d8 0c 3c bd 39 b7 3c 02 22 63 3c
       0.01675583 0.008596651 0.022366399 0.013863089
000280 55 22 13 bd f3 f3 8e bc d2 0f e4 3c 26 a6 a9 bb
       -0.035921413 -0.017450308 0.027839575 -0.005177277
000290 40 a0 88 3b 7e f3 8e 3c 88 e4 0d bd 28 d7 94 3c
       0.004169494 0.01745009 -0.034641773 0.018169
0002a0 ef 45 29 3c f0 93 39 bd 74 ca 0a bd 6f 5f d4 3b
       0.010331615 -0.0453071 -0.03388448 0.006481103
0002b0 ca 2d 86 bc 1d cf a9 b7 7e 50 a4 3c 52 97 a1 bb
       -0.016379256 -2.0242815e-05 0.020057913 -0.004931369
0002c0 6d 9b f4 bc 0b f9 08 bb 03 80 c6 3b 1d ca 2b 3b
       -0.029859269 -0.0020900394 0.0060577407 0.0026212998
0002d0 09 91 4f 3b 37 17 19 bc 59 8e 0c bc 13 de 4a bd
       0.003167214 -0.009343914 -0.00857886 -0.049528193
0002e0 72 64 a6 3c 08 29 bb 3c b2 6a fc 3b 0b 34 8a bc
       0.020311568 0.022846714 0.0077031488 -0.01687052
0002f0 7d 95 23 3b 2c 13 51 3c 03 74 ed bc cf fb 82 bc
       0.0024960928 0.012760919 -0.028985983 -0.015989212
000300 05 93 ad bb 30 23 09 3d 25 62 f4 3b 2e 90 ae bc
       -0.005297067 0.033480823 0.007457989 -0.021308985
000310 17 a3 fe bc 07 0e d3 bb f1 04 80 3c eb c5 a8 3a
       -0.031083627 -0.006440881 0.015627356 0.0012876367
000320 0a e5 07 3c 3a e3 05 3d cb de 63 bc 20 fe e7 3b
       0.008294353 0.032687403 -0.013908098 0.0070798546
000330 a8 77 f8 bc 36 57 5b 3c 06 58 b7 bc 62 b6 b6 bb
       -0.030330494 0.013387492 -0.02238084 -0.005575941
000340 d7 fb 30 bc a0 c3 c5 bc f5 87 d4 ba a8 dd 82 bc
       -0.010802231 -0.024141133 -0.0016214835 -0.015974835
000350 80 51 de 3b 37 2b 9c bc f3 95 d5 3a 1e 77 57 bc
       0.006784618 -0.019063575 0.0016295299 -0.013150958
000360 9a 04 0b 3d fb 44 8b bc 80 1d 49 3c 9e 5e 5d 3b
       0.033939935 -0.017000666 0.0122751 0.003377832
000370 86 f6 a1 3c 73 99 bb bb 43 6b 02 bc e2 7a 04 bd
       0.019770872 -0.0057250797 -0.0079601435 -0.032343753
000380 c4 1e 94 bc d2 a1 16 bb 97 41 38 bc fe 38 ab 3a
       -0.018081076 -0.0022984636 -0.011246107 0.001306325
000390 57 fd c9 3c db c3 e6 bc e8 45 31 3c 01 01 2d 3c
       0.024656935 -0.028169563 0.01081989 0.010559321
0003a0 c2 34 38 bd e9 91 16 3c 77 3a 8f 3c 6d 79 77 bb
       -0.04497219 0.009190061 0.017483933 -0.0037761584
0003b0 9a 89 d7 bc e3 54 10 3d 1e be 07 3c 64 02 02 3d
       -0.02631073 0.035237204 0.008285074 0.03174056
0003c0 10 b6 10 bb 4d ef e7 3c 9d e3 56 3c c1 10 6a bc
       -0.0022081174 0.02831235 0.013115791 -0.014286221
0003d0 40 35 25 bc 05 58 b6 bc 05 dd 1e bc 1b b1 02 3d
       -0.010083497 -0.022258768 -0.00969625 0.031907182
0003e0 46 7f 42 3c e0 9b 29 3d 2f 00 a9 3c 5d 70 3d bd
       0.011871165 0.04140842 0.02062997 -0.046249736
0003f0 ca 5f b2 bc ab 82 60 3b b4 5f 67 3b d5 9e ff ba
       -0.021774191 0.0034257572 0.0035304846 -0.0019502292

action_model._discrete_distribution.branches.1.bias f4 [3]
000000 d1 a1 e2 bb fc c9 fa 3b 38 39 56 3a
       -0.0069162627 0.007653473 0.00081719784

action_model._discrete_distribution.branches.1.weight f4 [3, 256]
000000 df 76 6d 3c 86 78 61 3b 2b df a2 3c 46 3c 13 37
       0.014493673 0.0034404113 0.019881805 8.775916e-06
000010 93 c4 87 3b 68 11 08 3c 0d e3 8a bc 6b 40 bb bc
       0.0041433065 0.008304931 -0.01695397 -0.022857865
000020 2c dc da 3c 0a ba e8 3b e4 51 04 3c 0e 9c 36 bd
       0.026716314 0.0071022557 0.008076165 -0.04458242
000030 f6 e3 d0 3b 9d e6 c5 3a 5b 1e 7c 3c bf 46 c1 bb
       0.0063748313 0.0015098635 0.015388097 -0.005898326
000040 d8 32 91 bc e6 67 3d bb 54 28 da bc 9e 5a 0e 3d
       -0.01772444 -0.002890104 -0.026630558 0.034754388
000050 7a ab b9 3c bb 0b 9a 3c 42 7b f4 3b 71 63 c0 bb
       0.022664774 0.018804422 0.0074609825 -0.0058712293
000060 82 d2 2f ba 57 7a 64 3c 9e 95 40 3d 18 86 a6 ba
       -0.00067070883 0.013945184 0.047017686 -0.0012704758
000070 cd c1 85 3b cb 35 e4 bb 54 fb aa 3c b5 5c 17 3b
       0.0040819407 -0.0069644204 0.020871796 0.002309603
000080 c7 08 48 3c 55 f1 f8 bc 83 13 27 3b 1f 46 0c 3d
       0.012209124 -0.030388514 0.0025493808 0.03424656
000090 e6 fc 37 3c f6 06 0c 3d da fa 95 3b 72 7c 11 3d
       0.011229729 0.034186326 0.004577023 0.03551907
0000a0 28 8e b9 39 98 c8 34 3c 51 1d 12 3c f4 56 46 bb
       0.00035391864 0.011034153 0.008918122 -0.003026423
0000b0 f9 f7 33 bd a1 62 05 3d e5 be 3d 3b 13 f2 08 bd
       -0.043937657 0.032564763 0.0028952893 -0.033433985
0000c0 eb 4c ad 3c 8d bf 62 3c 2f 25 51 3a 88 62 12 bd
       0.021154841 0.013839615 0.0007978258 -0.035738498
0000d0 68 2a c7 3b a1 ed 13 3c 6c a9 24 3d 48 9c 5e 3c
       0.0060780533 0.009028823 0.040200636 0.013587065
0000e0 70 a5 fa 3c 61 18 39 bb a0 00 0f 3c 3b 14 a7 3c
       0.030596465 -0.002824329 0.008728176 0.020395389
0000f0 c8 16 0d 3c af b3 ad bc c8 05 70 bb fb 58 55 bc
       0.0086113885 -0.021203844 -0.003662454 -0.013021703
000100 97 27 55 bb 07 33 e1 3a 5d a2 91 bc 0c d4 1a ba
       -0.0032524818 0.0017181345 -0.017777616 -0.0005906231
000110 c4 48 a1 3c 02 41 ac bc 70 5a 7a 3c d2 fe b3 3c
       0.019688018 -0.021027092 0.015280351 0.021972094
000120 8a d1 2e 3c a1 34 48 3a ce c0 6a 3c 4a 9d f1 bc
       0.010670075 0.0007637237 0.014328195 -0.029493947
000130 b4 88 9e bc 9b 89 a8 bc de 40 fe 3c 13 75 17 3c
       -0.019352295 -0.020573428 0.03103679 0.009244221
000140 0e 83 49 3c bd 60 2e 3d 20 56 5b bd 8b 60 30 bc
       0.012299312 0.042572726 -0.053548932 -0.010765205
000150 41 34 15 bc 39 ad 4b 3c 3f 56 cc 3c 3d e2 a8 3c
       -0.009106697 0.012431436 0.02494347 0.020615691
000160 8a e0 62 bb 4d 15 98 bb fa 54 d8 bc c5 f9 b9 bb
       -0.00346187 -0.004641211 -0.026407707 -0.005675527
000170 f8 2d 44 bb aa e6 44 bc a1 a8 4b 3c 77 6f a9 3c
       -0.0029934626 -0.012017885 0.012430341 0.020683033
000180 3f 5f 65 3c 43 47 9d 3c d4 0a fe 3c ef 0c 5b 3c
       0.013999759 0.01919902 0.031011023 0.013369783
000190 0d e4 5e 3d 33 e6 3e 3c c5 e3 fd 3c bd 59 85 bc
       0.054416705 0.011651563 0.030992398 -0.016278142
0001a0 65 6e 25 3b 48 c7 1d 3d 48 f8 34 bd 52 a8 8a 3c
       0.0025242802 0.038520128 -0.044182092 0.016925965
0001b0 25 23 3f bc 1a 2b 8f bc 59 f8 a1 3b d0 29 e2 3c
       -0.011666094 -0.017476607 0.0049429354 0.027607828
0001c0 39 2d cc bc ed d8 13 bc a7 83 ed 3c 25 2d f7 bc
       -0.024923908 -0.009023887 0.02899344 -0.030172894
0001d0 c1 bd ee 3c f3 9e 98 bc 65 7a 08 bd f6 92 f8 3c
       0.029143216 -0.01863048 -0.03331985 0.030343514
0001e0 3c e6 29 3d 9f 6f 26 bb 67 80 83 3c b3 6a 78 3c
       0.041479334 -0.0025396121 0.016052438 0.015162158
0001f0 d5 66 60 3b a1 b6 ef bb 0d d1 b7 3a 6f 40 77 3c
       0.003424098 -0.0073154722 0.0014024094 0.015091046
000200 96 6c 0e 3d f2 d8 b9 3b d2 29 44 3d f7 1b cf 3c
       0.034771524 0.005671614 0.047891445 0.02528189
000210 76 be 3d 3c 73 9e c4 3c b7 bf 5e 3b 23 ec a8 3c
       0.011581054 0.024001336 0.0033988783 0.020620411
000220 3a f8 67 ba fe 90 7b 3c 40 82 b4 3a ce 82 48 3c
       -0.00088489393 0.015354393 0.0013771728 0.0122382175
000230 c7 5d b0 3c c6 24 1f 3c 7f ef 9c 3c 42 37 b3 3c
       0.021529092 0.009713357 0.01915717 0.021876935
000240 75 69 ca 3c 39 60 85 3b 56 27 32 3c fd aa 55 3c
       0.024708489 0.0040703085 0.010873636 0.013041255
000250 56 a1 b6 bc 80 34 b6 bc 13 64 cd 3a 42 f8 fb 3c
       -0.022293728 -0.02224183 0.0015670083 0.030758027
000260 b6 5b f8 bc 8d 02 3c bb 96 d3 06 bd b3 14 fd bb
       -0.030317169 -0.0028688044 -0.032916628 -0.007723415
000270 9a 43 11 3c 1f 0c d2 ba c4 a0 62 3c d0 56 da bb
       0.008866215 -0.0016025341 0.013832275 -0.006663181
000280 ee 61 e6 b9 ff bc 70 3c f5 9e 05 3d ff 8c 73 3c
       -0.00043941982 0.014693498 0.032622296 0.014865159
000290 d5 9a 66 b9 78 96 4c 3c 13 72 f7 3c 31 11 5d 3c
       -0.00021992189 0.012487046 0.030205762 0.013492868
0002a0 e3 81 18 3d 25 ef ef bb 1e 5e de 3c 41 6a 11 bc
       0.037233245 -0.0073222094 0.027144488 -0.008875431
0002b0 c6 ba 8d 3c 26 84 9d 3c ed 18 eb 3c 7f 59 99 bb
       0.017300975 0.019228052 0.028698409 -0.004679858
0002c0 3e 18 fc 3b 68 5e 30 3d a4 89 c6 3b 2c 15 7d 39
       0.0076933196 0.043058783 0.0060588885 0.00024135847
0002d0 ce 39 6d 3c f8 1d a3 3c 15 ee 40 bd 48 6d f7 bb
       0.014479114 0.019911751 -0.047102053 -0.007550869
0002e0 22 2f cd 3c eb 2e 90 bc 76 3a 8c 3c 18 84 c0 bc
       0.025046889 -0.017600497 0.01711772 -0.023500487
0002f0 ac 22 e2 3b 7a 0d 48 3c 78 c9 1f bc 06 c4 0c bd
       0.006901106 0.012210244 -0.009752624 -0.03436663
000300 0f 2a 2b bc 27 5f 92 3c c6 6d ec 3b bf 3a 85 3c
       -0.010447039 0.017867638 0.0072152345 0.016263364
000310 1c ec 18 3d c4 0c 46 3d 92 88 01 3c 48 b0 bc 3b
       0.037334546 0.048352018 0.007906096 0.005758319
000320 37 3f d3 3b 45 91 66 bc 38 b2 a4 3c d4 f6 c3 3a
       0.006446745 -0.014072721 0.020104513 0.001495088
000330 66 22 99 3c 96 a3 96 3c 29 df 5f ba b5 37 78 38
       0.01869316 0.01838855 -0.00085400284 5.917969e-05
000340 e3 69 39 3c 19 50 83 3c dc 02 9f 3b 71 cd 82 3c
       0.011316749 0.016029404 0.004852636 0.015967103
000350 05 10 22 bd fa 1c 1b bd dd 29 79 bc cf ab 78 3c
       -0.03956606 -0.03786943 -0.015207735 0.015177681
000360 80 07 ad bc 76 c2 83 3c 01 63 dc 3b c9 92 8a 3b
       -0.02112174 0.016083937 0.0067256694 0.004228924
000370 ac 13 89 3b e1 35 00 3c 57 f2 b4 3c da f4 43 bd
       0.0041832533 0.007825346 0.022088213 -0.04784093
000380 bc 65 54 bc 83 7d b5 3c dc a8 7d bb 3e b8 c3 3c
       -0.0129637085 0.022154575 -0.0038705384 0.023891564
000390 c0 88 d6 3c 5c a2 27 bc 68 cd de 3c 4b d0 b5 3c
       0.026188254 -0.010231581 0.027197555 0.022194048
0003a0 56 5f 89 3c 25 41 24 3b 57 78 28 bd 98 d2 06 3c
       0.016769093 0.0025063243 -0.04113039 0.00822892
0003b0 26 29 11 3b a7 ac 4d 3d 7b b0 cb bc 42 fa 27 3d
       0.002214977 0.050213482 -0.024864426 0.04101015
0003c0 f2 f3 8a bb 3f 1d 2b 3d c1 9d ae 3c a3 de 01 bd
       -0.0042405063 0.041775938 0.021315457 -0.031706464
0003d0 84 18 25 bb b1 90 57 bc a4 2d fa 3c 1a d6 be 3c
       -0.0025191614 -0.013157056 0.030539341 0.023295451
0003e0 05 a9 c4 3b d6 f3 cf bb a3 d4 2b 3c 52 b4 6c bc
       0.006001594 -0.006346206 0.010487708 -0.014447289
0003f0 d6 d1 bb 3c e5 ae 35 3c c3 c2 43 3c 92 d4 5a bc
       0.022927206 0.011089061 0.01194829 -0.013356345

action_model._discrete_distribution.branches.2.bias f4 [2]
000000 16 75 89 3c 13 75 89 bc
       0.016779464 -0.016779458

action_model._discrete_distribution.branches.2.weight f4 [2, 256]
000000 19 e0 8e 3c 0f bf 0c 3b ce d7 a5 3b fb 9c 15 bc
       0.017440842 0.0021476184 0.0050611263 -0.009131665
000010 2d 6d b4 bb 6b e0 10 3d da a4 10 bd fa c8 87 3c
       -0.005506179 0.03537027 -0.035313465 0.016575325
000020 1a a2 01 bd a7 35 73 bb a5 39 91 ba 77 df 2e bd
       -0.031648733 -0.0037110837 -0.0011079801 -0.04269358
000030 ab 71 1b 3c 43 83 43 bc b9 8f 65 bd bb f9 05 3c
       0.00948755 -0.011933151 -0.056045268 0.008177216
000040 12 d6 d2 bc 1e a7 16 bc 76 be 58 bc 38 df 7e 3b
       -0.025736842 -0.009195117 -0.013229003 0.0038890373
000050 7f 82 91 3c f3 bc ae bc 64 27 b1 bb ba 04 8c bc
       0.01776242 -0.021330332 -0.005406307 -0.017092098
000060 e7 82 07 3b 8c 00 f8 3b a2 34 af bc 86 ed 23 3a
       0.002067739 0.0075684246 -0.021387402 0.00062533503
000070 28 a8 1b 3b e6 37 c1 3b ea e3 84 3c b2 18 45 3b
       0.0023751352 0.005896556 0.01622196 0.0030074534
000080 1b 85 bd 3c 89 31 f6 bc ab 45 1e 3c 45 84 7d bc
       0.023134759 -0.030052917 0.009660165 -0.01547343
000090 e5 8d 3f 3c e8 b6 6d bc 41 48 1f 3c 31 8e 0a bb
       0.011691545 -0.01450894 0.0097218165 -0.0021141882
0000a0 bb 97 82 3c 98 54 81 bc d4 fc 9b 3b 73 52 2e bc
       0.015941491 -0.015787408 0.004760364 -0.010639775
0000b0 b9 62 bd 3a 28 23 ad bb ec ad df 3c 52 c6 d0 3c
       0.0014448977 -0.005283732 0.027304612 0.025485191
0000c0 9a ce c6 3c 04 31 08 3c 22 98 50 bc ba e4 8e 3c
       0.024268437 0.0083124675 -0.012731584 0.01744305
0000d0 f5 5b 3b bc 16 03 33 bd 6e f0 1d 3c 2e ed 83 bb
       -0.0114354985 -0.043704115 0.009639842 -0.0040260768
0000e0 0a 25 58 bd c9 fd 16 bd b9 29 a5 bc 96 a4 97 3c
       -0.0527697 -0.036863122 -0.020161496 0.018511098
0000f0 e7 20 f8 bc b9 f9 6d bc a5 94 53 3c 07 59 37 3c
       -0.030289127 -0.014524871 0.012913858 0.011190659
000100 5c f2 8f bc b4 cc 7a bb 8d 7a 62 3c 08 4b 94 3c
       -0.01757162 -0.0038268985 0.013823164 0.018102184
000110 55 a3 b7 bc ad 5a 95 3b ec 13 45 bd e0 9d 75 3a
       -0.02241675 0.0045579285 -0.048114702 0.00093695335
000120 5e c0 26 ba c1 c0 87 3c 36 97 94 3b 69 36 7b bc
       -0.00063610624 0.016571404 0.0045346273 -0.015332797
000130 ab a5 47 bc 57 3c 1f 3c eb 72 1e 3d 22 40 5e 3b
       -0.012185494 0.009718976 0.038683813 0.0033912738
000140 62 2e fc ba 4c 62 c8 bc bc b5 85 bc 34 f3 b3 3c
       -0.0019239897 -0.024460934 -0.01632201 0.021966554
000150 5d c3 c8 3c 91 f3 5b bc d4 95 1a bc c7 7e 82 3b
       0.024507219 -0.01342477 -0.009435136 0.003982398
000160 7f cb 7e 3d ea 09 f1 3b ee a1 55 bc 5c e7 5c bd
       0.062205788 0.007355918 -0.013039095 -0.05393158
000170 87 5f 17 bb 03 24 60 bc df 62 8e bb 60 b1 b8 bb
       -0.002309771 -0.013680461 -0.0043452824 -0.005636379
000180 dc 28 4c bc 80 8b cf b9 f6 ce 99 3c fa a0 22 bc
       -0.0124609135 -0.00039586052 0.018775444 -0.009926075
000190 47 f8 57 3c fe c6 2b bc ed 17 ef 3b 08 3b 8b 3c
       0.0131817525 -0.010484455 0.0072965533 0.016995922
0001a0 f6 e0 52 3c 5c 25 0f 3c a0 44 9e bc 5b 05 7f 3b
       0.012871018 0.0087369345 -0.019319832 0.0038913104
0001b0 c1 90 37 3d 3a d1 df bc 3a 44 9e bc 24 0e c3 3c
       0.044815782 -0.027321447 -0.019319642 0.023810454
0001c0 fa c9 b8 bc 4f 16 7f bc 0c e0 e0 bc 9c 2a c6 bc
       -0.022557247 -0.015569284 -0.027450584 -0.02419024
0001d0 1f 1c d9 3b 85 ab 31 bc 85 e5 a3 3b 09 1e 94 bc
       0.0066256667 -0.010844116 0.005001726 -0.018080728
0001e0 90 a4 9a bc 3b 80 6c bb a6 46 8c 3c fb 47 eb 3c
       -0.018877298 -0.0036087174 0.017123532 0.028720846
0001f0 a5 af 8b 3c bf eb af bc d4 a7 9b 3c 06 32 dc 3c
       0.017051527 -0.021474717 0.019000925 0.026879322
000200 9a 88 a6 3b 89 8f 09 3d 2c 8d 3b 3c fa 43 f7 bc
       0.005082202 0.03358415 0.011447232 -0.030183781
000210 a1 0c d7 bc 82 22 08 bc 06 c8 3b 3b bc 4b a5 3a
       -0.02625114 -0.008309009 0.0028653159 0.0012611072
000220 2e a0 49 bd 87 7f ab bb 1b 9f 90 bb 48 71 93 bc
       -0.049225025 -0.0052337083 -0.004413498 -0.017998353
000230 90 82 cb bc f5 12 56 3b 2f fb 44 bb 0b d8 61 bc
       -0.02484253 0.0032665108 -0.0030056944 -0.013784419
000240 ce b4 89 bc 9b 1b a9 bc 88 44 d9 3b e5 ee 9b bc
       -0.016809847 -0.020643046 0.006630484 -0.019034812
000250 04 46 c8 3b 61 df 1a bc c3 af 8b b8 e2 7e d1 3c
       0.006111862 -0.009452672 -6.660775e-05 0.025573198
000260 e8 5f 95 bc 1a 8a e9 bc 54 0b ef bc 35 5b 82 bc
       -0.018234208 -0.028508235 -0.029180206 -0.015912632
000270 d9 22 8b bb 8b 73 05 bc 53 3c ba bc 30 cc 8f bb
       -0.0042460975 -0.008145223 -0.022733843 -0.0043883547
000280 47 00 27 3c e3 da 93 3c bc 98 ac bc 98 de 33 3d
       0.010192937 0.01804871 -0.021068923 0.043913454
000290 e7 00 5a bc 37 d9 08 3c 11 06 94 3c 2c f0 3e bc
       -0.013305879 0.008352569 0.018069299 -0.011653941
0002a0 92 22 4c 3b de ce 6f 3c c4 aa da 3b e7 2d 67 bc
       0.0031148535 0.014636723 0.006673189 -0.014110065
0002b0 04 e4 70 3c c8 52 42 bc 1a 42 0f bc ae c2 5d bc
       0.014702801 -0.011860557 -0.008743787 -0.013535185
0002c0 fd b1 48 3d 6e bd 4b bc 73 f6 9f 3c 14 c4 2b bb
       0.048997868 -0.0124353 0.019526696 -0.00262094
0002d0 a8 78 99 bc 62 93 7a bc 4c 79 1c 3c 16 69 e6 39
       -0.018734291 -0.015293928 0.009550404 0.00043947314
0002e0 68 7a f7 ba 27 6a 65 bc 4a e2 27 bd df a8 91 bc
       -0.0018881084 -0.0140023595 -0.04098729 -0.01778072
0002f0 d0 22 be bb 1d 44 ee 3c f0 08 cf 3c f7 c0 10 3c
       -0.00580249 0.029085213 0.025272816 0.008835069
000300 7d 20 be bc 87 7e c5 bb 8d da 00 bc 6b 96 2e 3d
       -0.023208851 -0.006027046 -0.007864607 0.04262392
000310 28 41 be b9 0d 71 16 bc f2 d2 14 bd 15 8e c7 3b
       -0.0003628817 -0.009182227 -0.036333986 0.0060899355
000320 59 99 61 bc fc a3 d6 3b a4 77 40 3c 66 15 fe bb
       -0.013769471 0.00655031 0.011747275 -0.0077540157
000330 e0 ad e6 bb 2b ba 62 3a 5c 53 3a bd b4 11 b4 ba
       -0.0070397705 0.0008648957 -0.045489654 -0.0013738186
000340 78 9b 9c bc 85 90 87 bc eb e6 54 3c 09 f6 00 3c
       -0.019117102 -0.016548404 0.012994508 0.007871159
000350 cf 47 b2 3b 1e e7 92 bc 93 b4 19 3c ee ca 2f 3b
       0.005440689 -0.01793247 0.009381431 0.0026823836
000360 1e 88 f8 bc b5 a6 13 3d a2 a4 5b bc 6d b6 b5 b8
       -0.030338343 0.036047656 -0.013405951 -8.664732e-05
000370 6a c7 64 bb b0 0c aa 3b d3 b9 7d bc 61 18 f5 bb
       -0.00349089 0.0051895007 -0.0154861985 -0.007479713
000380 f0 e5 b0 3b 5d 7c 7f bc a3 95 fe 3a 45 bf 55 bc
       0.0053985044 -0.015593615 0.0019423257 -0.0130460905
000390 ad e2 00 bc 14 b6 4d bc 57 f7 93 3c e8 02 20 bc
       -0.007866544 -0.012555618 0.018062277 -0.009766318
0003a0 17 41 bb bc 62 4e 96 bc f9 52 ea bb ba 38 ed bb
       -0.022858186 -0.018347923 -0.0071510044 -0.0072394283
0003b0 b2 c0 7f bb a3 22 12 bc 03 e5 bd bc d4 64 ee bc
       -0.0039024767 -0.008919391 -0.02318049 -0.029100813
0003c0 71 fa 78 bc b2 d8 f8 3b a1 d3 61 bb 06 cc 9f 3c
       -0.015196429 0.0075941915 -0.0034458416 0.019506466
0003d0 74 f2 c0 3c d9 1e 78 bc 93 55 42 bc 60 05 6b 3b
       0.02355311 -0.015144073 -0.011861223 0.0035861358
0003e0 f8 49 dc 3b bd 8d 0c bc 35 8c 85 bc c3 8a 80 3c
       0.006722685 -0.008578715 -0.016302207 0.015691167
0003f0 c9 1e 95 3b a1 b4 b7 bc 24 97 54 bb 58 fb db bc
       0.004550789 -0.022424998 -0.003243872 -0.026853248

action_model._discrete_distribution.branches.3.bias f4 [2]
000000 42 1d 17 bc 41 1d 17 3c
       -0.009223284 0.009223283

action_model._discrete_distribution.branches.3.weight f4 [2, 256]
000000 81 e6 da bb 6c ba b1 3a 3a 0f 3b 3c a7 3e 98 3c
       -0.0066803102 0.0013559586 0.0114172045 0.018584562
000010 84 4b f0 3b b4 ec 2b bc a3 c3 16 bc 9e 17 d6 3c
       0.007333221 -0.010493446 -0.009201917 0.026134308
000020 61 33 cd 3c 05 49 05 3c c3 4f 05 bc 45 e5 23 bc
       0.025048913 0.008135085 -0.008136692 -0.010003393
000030 77 fe 5d bb 23 eb 45 3a d0 9c 56 bc d8 24 bf bc
       -0.0033873597 0.0007549992 -0.01309891 -0.023332998
000040 7f d7 b0 3c 53 0d 18 bc e3 53 c6 3c fb 29 a3 bc
       0.021587132 -0.0092805205 0.024209922 -0.019917479
000050 7e c4 3a bd 00 a1 07 3d ae d3 6a bc 96 e9 a0 3a
       -0.045597546 0.033112526 -0.014332695 0.0012276645
000060 af 87 91 bc 4e b9 8c bc ce 7b e0 bc ae ac bb 3b
       -0.017764894 -0.017178204 -0.027402785 0.005727372
000070 4a c3 ab bb f2 63 41 3c 21 a9 25 3c 00 90 e5 3c
       -0.005241786 0.011803614 0.010111124 0.028022766
000080 30 17 b9 3c a2 35 92 3b 32 ae f2 bc b9 98 38 bc
       0.022594064 0.00446196 -0.029624078 -0.011266881
000090 88 75 46 bc a0 2c e2 3b dc 58 10 bb 8a 7f 0b bc
       -0.012112983 0.0069022924 -0.002202562 -0.008514294
0000a0 f5 e4 b0 bb 6e ce 5b 3d 33 f9 14 3c d5 0f a6 3b
       -0.0053983876 0.053663664 0.009092617 0.0050678053
0000b0 1c da c2 3b f1 78 b5 bc 52 f4 24 bb 7f 77 45 3c
       0.005946411 -0.022152396 -0.002517004 0.012052416
0000c0 94 0c 17 3c db 79 90 bc 8d 8b 01 bd 10 ee 71 3c
       0.009219307 -0.01763623 -0.031627227 0.014766231
0000d0 2d 31 52 3c d4 60 ac bc 22 ae 95 3c 43 45 92 bb
       0.012829107 -0.021042265 0.01827151 -0.004463823
0000e0 e3 4f 7f 3c 3c 4c 08 3c 90 94 99 3a 91 5d fb bb
       0.015583011 0.008318957 0.0011717249 -0.007671066
0000f0 31 93 0d bd 74 98 15 3c fd 54 ee ba 5c 76 13 bd
       -0.0345642 0.009130586 -0.0018183287 -0.03600155
000100 a1 85 10 3d 36 2a 0a 3c fd 7c b9 3c d0 c2 94 3b
       0.03528369 0.008432915 0.022642607 0.004539825
000110 3b 9b 21 ba 79 31 21 3c 68 44 16 3b 00 79 b8 bc
       -0.0006164794 0.009838455 0.0022928957 -0.022518635
000120 2b 27 38 bb 73 14 72 3c e7 2e a5 ba 47 46 94 bc
       -0.0028099518 0.014775383 -0.0012602479 -0.018099917
000130 5b 6f 26 3d f1 a1 03 bc 57 a8 ac bc 3b 01 74 3b
       0.04063354 -0.008034215 -0.021076364 0.0037232179
000140 ac dc a5 bc ad 9a a2 ba 1f 88 56 3b c0 00 5c ba
       -0.020246826 -0.0012405716 0.0032734943 -0.0008392446
000150 38 96 de bc 4f ee 67 bc 1a 96 b4 bb e6 24 9a bc
       -0.02717124 -0.014155938 -0.0055110576 -0.018816423
000160 dd 4b 12 bc 49 a6 fb bc 36 dd 29 bc 1e 32 83 3a
       -0.00892922 -0.03071894 -0.010367682 0.0010009443
000170 8e 6a 35 3a 10 3c 4b bd 67 25 8c ba 3e 80 fd bb
       0.000692048 -0.049617827 -0.0010692299 -0.007736235
000180 56 84 be 3b 89 11 31 bc c3 f5 b9 3c ef c0 11 bb
       0.0058141155 -0.010807403 0.022700196 -0.0022240242
000190 02 6b dd bb 55 29 be bb 1e 2a 94 bc 72 94 93 b9
       -0.006757141 -0.005803267 -0.01808649 -0.00028148625
0001a0 ea 74 cc bc df 57 f3 3c 5c 4f 82 bc c0 5b 07 bb
       -0.024958093 0.029704986 -0.015906982 -0.0020654052
0001b0 37 2e b8 bc cd 31 09 ba 88 da 10 3a 39 f0 af bc
       -0.022482974 -0.0005233556 0.0005525728 -0.021476852
0001c0 68 de 2f 3b 6d 21 4e bb b2 10 49 3a 43 b8 04 3c
       0.0026835445 -0.0031453029 0.00076700293 0.008100572
0001d0 d5 3e 65 3b b5 42 a2 3a c3 fe 5c bc 0d 3b 03 3c
       0.0034980078 0.0012379499 -0.013488474 0.008009684
0001e0 ae 0f a6 3c e2 ca 09 3c 7a 42 aa bc 86 17 35 bc
       0.020271149 0.008410187 -0.020783652 -0.011052972
0001f0 a2 ff b3 3b 53 f4 c8 3b e6 42 1e 3d 36 08 86 bc
       0.0054931203 0.0061326413 0.038638018 -0.016361337
000200 b4 a8 84 3c 82 ea 6b 3c db c6 8c bc fa c7 74 3a
       0.016193725 0.014399173 -0.017184665 0.000933766
000210 ad 05 a1 3b 15 04 3f 3a 80 28 86 ba 95 49 05 bd
       0.0049140067 0.000728668 -0.0010235459 -0.032540876
000220 4a 90 68 bc c0 c4 8c bc 87 8f f2 bc b1 60 0b bc
       -0.014194557 -0.017183661 -0.029609455 -0.00850694
000230 b8 8f 7f bc d9 e1 83 bc ab 3e 53 3c 7a 5f 04 3c
       -0.01559823 -0.016098903 0.012893359 0.008079404
000240 03 5a 33 bb a4 d3 75 bb 1e 96 7d bc fb cd 21 bc
       -0.0027366884 -0.003751018 -0.015477685 -0.00987577
000250 2b ed a0 bc 06 d4 bb 3b a7 01 de bc cb 7f 40 bb
       -0.01964434 0.0057320623 -0.027100397 -0.0029373046
000260 b1 69 99 bb b3 29 62 39 9c 94 da bc 26 67 24 3c
       -0.004681789 0.00021568574 -0.02668219 0.010034358
000270 45 aa 2a 3b 16 0e e9 bc 50 f4 84 3b 97 9f 3d bc
       0.002604143 -0.0284491 0.0040574446 -0.011573694
000280 41 e2 a1 bc 0f 3b ac bc f5 1a 4a 3c 86 1f 01 bc
       -0.019761207 -0.021024255 0.012335529 -0.007881051
000290 c2 f9 1d 3c 6f a1 7e bc b3 82 b9 bc bc 16 9a bb
       0.009642066 -0.015541418 -0.02264533 -0.004702417
0002a0 ec 34 64 bb e1 6b 57 bc b4 95 c7 ba 0a 5e ad b8
       -0.0034821583 -0.013148279 -0.001522711 -8.266799e-05
0002b0 eb 86 06 3d d2 5f a0 3b 60 5b fa bb 17 cf d1 3c
       0.03284351 0.004894235 -0.0076402873 0.025611443
0002c0 f6 96 f1 bc ba b5 03 bd 8d 60 b9 bc 32 b8 14 3c
       -0.02949093 -0.03215573 -0.022629047 0.009077119
0002d0 36 1a 1a 3d 65 5c 03 bb ea 6e 4e bc 15 07 99 bc
       0.037622653 -0.0020044085 -0.012599686 -0.018680135
0002e0 42 52 f7 3c 21 96 4f 3d 1c a8 8e bc 9a 98 9e b8
       0.03019059 0.050680283 -0.017414145 -7.562451e-05
0002f0 d9 ec 80 3c 10 23 04 bc 42 7c 1a bc ec a4 6b bc
       0.015737938 -0.008065 -0.009429039 -0.014382582
000300 a0 7d be bb b9 66 a2 3b 58 b3 84 3c 01 ec c9 bb
       -0.0058133155 0.004956093 0.016198799 -0.006162167
000310 98 d6 84 bb 2f 1b 5f 3c df c7 74 3c e6 c2 06 bc
       -0.004053902 0.013617321 0.014940231 -0.008225178
000320 63 25 a5 3c 82 8e 93 bc 49 e3 df 3a 7f fe a5 3c
       0.020159429 -0.018012289 0.0017081286 0.020262955
000330 90 ad 97 ba 4a 2a ce bc b4 1e e6 ba b6 cd fd bc
       -0.0011572111 -0.02516665 -0.0017556758 -0.03098188
000340 92 5b ee 3c 5f 2f b4 bc 70 c0 0a bc 59 86 32 bc
       0.029096399 -0.021995245 -0.008468732 -0.010896289
000350 a3 65 89 bc e2 f1 27 3c a7 8f 05 bd 13 a4 a3 bb
       -0.016772097 0.01025054 -0.0326077 -0.0049939244
000360 9a 0f 9b 3c 6d 0b 90 bb c1 c6 5b bc d8 37 59 bb
       0.018928338 -0.0043958933 -0.013414086 -0.0033144858
000370 a3 83 e1 bc 3f 39 df bb 61 41 d9 bc 0b 61 5f 3c
       -0.02752859 -0.006812244 -0.026520433 0.013633977
000380 70 25 80 bc 68 65 bc 3c 67 f7 9e bc a5 81 02 3d
       -0.015642852 0.022997573 -0.01940508 0.03186192
000390 72 34 9b bc 80 e8 2e 3c ef 8d da ba fc 26 e6 3a
       -0.018945906 0.0106755495 -0.001667438 0.0017559226
0003a0 c6 73 b1 bb a2 9a 8b 3c 2b 2e 02 3c 7d 1e 98 bc
       -0.0054154126 0.017041508 0.007945578 -0.018569225
0003b0 f2 c3 88 3c 62 ac 78 3c c7 d2 df bb c4 ee 23 3d
       0.016694997 0.015177818 -0.0068305465 0.040022627
0003c0 6f 4e d2 3c 9e a9 83 bc 56 ab ac 3c da 32 18 bd
       0.025672166 -0.01607209 0.021077793 -0.03715787
0003d0 28 6d 7d bc db e7 83 3a 51 5c 7b 3c c1 25 96 ba
       -0.015467919 0.0010063605 0.015341834 -0.0011455343
0003e0 47 f4 f3 3c ab 87 a0 3b 42 b9 eb 3a 00 be 5f bc
       0.029779566 0.0048989854 0.0017984288 -0.013656139
0003f0 63 7b fc 3b 88 99 0c bc cb 99 da bc f8 11 22 3d
       0.0077051385 -0.008581527 -0.026684662 0.039567918

action_model._discrete_distribution.branches.4.bias f4 [2]
000000 91 dd 3b bb a3 dd 3b 3b
       -0.0028666 0.0028666041

action_model._discrete_distribution.branches.4.weight f4 [2, 256]
000000 ff 43 72 bc 62 67 29 bc 11 b4 a7 3c e9 ff b9 bc
       -0.014786719 -0.01033959 0.020471605 -0.022705035
000010 6c 8e d3 3c 2e 20 26 bc 5d af 56 3c 3b 43 69 bc
       0.025824748 -0.010139508 0.013103333 -0.01423722
000020 b5 fa 19 bc 30 71 df bb e6 fe 20 3d 82 c3 0c 3d
       -0.009398152 -0.006818913 0.03930559 0.03436614
000030 d5 9c 99 bc bf f6 d3 b9 2b 94 08 3c dd c9 ff bc
       -0.018751541 -0.00040428896 0.008336107 -0.031224186
000040 b9 aa 96 bb fa f5 29 3b 20 fc 06 bb 60 cb 2c 3c
       -0.0045979884 0.0025933967 -0.0020597056 0.010546535
000050 3e 50 71 3c f9 2f 5e 3c 36 55 a6 bc 4c 0c 74 3c
       0.014728604 0.013561242 -0.020304304 0.01489551
000060 57 2b 93 3b 34 63 0d bb 2b 10 20 bd 49 86 7d bb
       0.0044912505 -0.0021574022 -0.03907792 -0.0038684777
000070 23 d9 38 bc 72 50 c3 3c cc d1 04 3b dd c6 9b bb
       -0.011282238 0.02384207 0.002026665 -0.004753931
000080 a5 9d 0c 3c b2 81 30 ba 0f ac 90 3a 59 13 8b 3c
       0.008582507 -0.00067331933 0.0011037606 0.016977
000090 7f a4 17 bd ec 76 dc 3b 18 07 6d bb a4 b3 85 3c
       -0.03702211 0.006728044 -0.0036167558 0.01632101
0000a0 8b 4f 90 3c ad 09 23 3c 4b c3 8c 3c 60 6b e7 bc
       0.017616054 0.009951037 0.017182967 -0.028249443
0000b0 a8 08 eb bc 2e f2 bc 3b 64 cd 73 bb 49 d7 48 3c
       -0.028690651 0.0057661748 -0.003720128 0.012258359
0000c0 03 c1 80 bc 84 0c bc 3b ab 3b 78 3c 7a 89 5a bc
       -0.015717035 0.0057387967 0.015150945 -0.013338441
0000d0 0d b1 93 bc 9f 1e 39 bc a1 da e8 3b d6 fd 41 3b
       -0.01802876 -0.011298805 0.0071061407 0.002960076
0000e0 96 6c f6 3c 05 61 85 3c 96 63 4b 3c ca 1e 53 bc
       0.030081075 0.016281614 0.01241388 -0.012885759
0000f0 93 33 04 bc 38 e3 09 bd 8d 81 d5 3b 00 e9 09 3d
       -0.008068937 -0.03366396 0.006515688 0.03366947
000100 51 dc 15 bd 00 d7 5b 3b 7d 40 ea bb f4 f9 d7 3c
       -0.036587063 0.0033544898 -0.007148801 0.026364304
000110 bc ad f1 3a d4 91 22 bc 3d 7c 88 bc 61 64 05 bc
       0.0018438618 -0.009922463 -0.016660804 -0.008141608
000120 a8 2f 10 3c 29 01 52 3c f8 0b 67 ba a4 9e d2 bc
       0.008800425 0.012817659 -0.0008813734 -0.025710411
000130 7c 9e a6 bb d5 2f 12 bb f6 fc 8d bb e9 3d b3 bc
       -0.005084811 -0.0022306342 -0.004333134 -0.021880107
000140 c2 20 9a bc b2 b6 2c 3d 1b d0 eb 3a 9b 6d 50 3c
       -0.018814448 0.04216642 0.0017991097 0.0127214445
000150 ee 62 80 3c e7 43 9e bc ff 0e 67 bc f5 14 b7 bc
       0.015672173 -0.019319488 -0.014102696 -0.02234886
000160 03 ea 8e b9 46 e3 03 3d 76 0f 60 3a db 39 ee 3b
       -0.00027258703 0.032199167 0.0008547226 0.0072700805
000170 5d 39 33 3c de e5 29 3c 5d e8 d3 3b 98 9e 20 3b
       0.010938969 0.010369746 0.006466909 0.0024508592
000180 ea cf 24 bc d8 46 fe 3b 5e 11 7e bc 68 b0 87 3b
       -0.010059336 0.00775991 -0.01550707 0.0041409023
000190 fd 32 fb 3b 62 75 94 bc 87 43 41 3c c5 48 a3 bb
       0.0076659904 -0.018122379 0.011795885 -0.00498304
0001a0 2c 9f 7a 3c e3 cc 56 bc c2 0e da bc 13 1e 1f bc
       0.015296739 -0.013110372 -0.026618365 -0.00971176
0001b0 69 a0 16 bb f4 91 36 3a c6 79 3e 3b f6 b7 31 3b
       -0.0022983795 0.0006964498 0.0029064282 0.0027117706
0001c0 13 88 7b 3c fb dd 87 3c 1f 7b 00 3d 2b 95 83 3c
       0.015352267 0.01658534 0.031367417 0.01606234
0001d0 e3 ec b1 bb 15 ca 68 3c ae 8d 6e bc 52 58 9a 3b
       -0.0054298504 0.014208336 -0.014560146 0.0047102356
0001e0 c9 02 89 bc 45 87 03 3c 67 1f 89 3c cc d8 25 3c
       -0.01672496 0.008027856 0.016738607 0.010122489
0001f0 97 88 fe 3a b0 3f 11 bc 28 14 45 3c ff 75 42 bb
       0.0019419369 -0.008865282 0.012028731 -0.0029672382
000200 a4 db 5e bc 69 35 7b 3c ce 8b 4e 3d b3 5a 98 bc
       -0.013602171 0.015332558 0.050426297 -0.018597936
000210 16 d6 10 bc 7a 6d b2 bc 4a 19 05 bd 85 0f 8b bb
       -0.008840105 -0.021780718 -0.03249482 -0.0042437934
000220 15 6d 04 bd 1c 31 0a bc cb 36 7c 3c 0d f1 b0 3a
       -0.03233059 -0.00843456 0.015393923 0.0013499573
000230 c6 eb da 3c 32 50 1e bc 45 bc fd 3b 6a 44 e5 bb
       0.026723754 -0.009662675 0.0077433907 -0.006996681
000240 20 9c 73 3b c5 37 1b bb a1 1b 23 ba 73 97 bf 3b
       0.0037171915 -0.0023684364 -0.00062220736 0.0058469116
000250 44 97 42 bd 9f bf 9f 3c 86 31 48 bc 5c e6 c0 3b
       -0.04750754 0.019500552 -0.012218839 0.005886836
000260 30 84 19 3b bf cb 9c 3b bf e3 13 b9 a0 a8 0a bc
       0.0023424737 0.0047850306 -0.00014103854 -0.008463055
000270 9a 4e 1e bc 58 af fa bc 11 00 8b 3c 90 77 13 3b
       -0.009662295 -0.030601189 0.016967805 0.0022501685
000280 9c 22 86 bc d5 24 e2 bb 9c 69 b0 bc dd 95 38 bc
       -0.016373925 -0.0069013634 -0.021534733 -0.011266199
000290 7a 58 f9 38 7d f6 f0 3c a1 1b c7 bc 31 3a cd bc
       0.00011889725 0.02941441 -0.024305167 -0.025052162
0002a0 91 36 3f bc 94 c3 6b bc fb 91 16 bd 78 6b 84 3b
       -0.0116707245 -0.014389891 -0.03676031 0.0040411316
0002b0 bb 9c 90 3b 60 31 99 3c 76 c8 42 3b df 5e 23 bc
       0.004413215 0.018700302 0.0029721535 -0.0099713495
0002c0 96 89 18 bc c4 fc 94 3c b8 d2 b1 bc 59 8d 5e 3c
       -0.009310147 0.018186934 -0.021706924 0.013583505
0002d0 e2 46 a0 bb 28 a3 bc 3c b6 e3 43 bd a4 f8 ed bb
       -0.0048912624 0.023027018 -0.047824584 -0.0072623063
0002e0 99 18 10 bb 2c ad b8 bc aa aa 5b bc ff f2 f7 bc
       -0.0021987318 -0.022543512 -0.013407389 -0.030267237
0002f0 97 61 53 bc 2f e2 2e 3d 2e bf 6d 3c e6 c6 82 3a
       -0.012901685 0.042696174 0.014510913 0.0009977489
000300 91 83 9a bc f8 f0 b0 bc 54 a5 99 bc 94 b1 d3 ba
       -0.018861564 -0.021599278 -0.018755592 -0.0016150945
000310 fb 5b 61 3c 27 c5 e1 bc ed 97 70 bc ba 84 af 3c
       0.01375484 -0.02755983 -0.014684659 0.021425594
000320 1f 48 3a 3c 9c b5 82 3a d6 c0 24 bc 3e 52 ba 3c
       0.011369734 0.0009972337 -0.010055741 0.022744294
000330 cb b8 53 3c 61 bc 38 3d a7 34 80 3b fc 76 da b9
       0.012922476 0.045101527 0.0039125266 -0.0004166885
000340 d1 97 b9 ba 77 4b 1b 3c 88 01 55 3b 50 50 95 bc
       -0.0014159625 0.009478441 0.0032502133 -0.018226773
000350 54 24 dc 3b 12 c9 91 bc 7e ab 49 39 cc 8d 45 3c
       0.006718198 -0.017796073 0.0001923274 0.012057733
000360 81 dc 05 39 bf 2a 13 3d 09 20 8b bc 4f 79 a9 3c
       0.00012766013 0.035929438 -0.016983049 0.020687727
000370 97 50 e1 3c cf 99 01 bd 05 99 61 bb c0 3a e9 bc
       0.027504249 -0.031640824 -0.0034423482 -0.028470397
000380 57 c0 87 3a ed 4d 19 ba f6 97 61 3c f2 69 76 bb
       0.0010357004 -0.00058480987 0.0137691405 -0.003759977
000390 26 19 70 bc b2 de 21 bc 3b 72 7b bc d4 db 4d 3d
       -0.014654433 -0.009879755 -0.015347059 0.050258473
0003a0 83 4e 57 3c 2f 2c 4f bb 49 31 ab bb 8a cb 2b 3c
       0.013141277 -0.0031612029 -0.005224381 0.010485539
0003b0 f9 a9 79 3c e1 06 d6 bb 30 e2 d1 b9 21 1d 51 bb
       0.015238279 -0.0065315817 -0.0004003211 -0.0031908231
0003c0 57 e3 da 3b 8c 6e d9 3c ba 92 db 3b 74 7f 93 3c
       0.006679933 0.02654197 0.006700841 0.01800511
0003d0 89 3c c7 38 4e 44 a2 bc 13 f0 ec b7 2b ad 68 3c
       9.500335e-05 -0.01980796 -2.8245186e-05 0.014201443
0003e0 f3 cc 54 3c 60 05 65 39 fb af 93 bb d8 4e c7 bb
       0.012988317 0.00021841144 -0.0045070625 -0.006082397
0003f0 3c b0 b9 bc 84 ac 47 3b af a6 bc bc 6e 5f e4 3b
       -0.022667043 0.0030467818 -0.0230287 0.006969384

discrete_action_output_shape f4 [1, 5]
000000 00 00 40 40 00 00 40 40 00 00 00 40 00 00 00 40
       3.0 3.0 2.0 2.0
000010 00 00 00 40
       2.0
